input: "data"
input_dim: 1
input_dim: 4
input_dim: 256
input_dim: 256

layer{
	name: "image"
	type: "Slice"
	bottom: "data"
	top: "image"
	top: "center_map"
	slice_param{
		slice_point: 3
		axis: 1
	}
}

layer{
	name: "pool_center_lower"
	type: "Pooling"
	bottom: "center_map"
	top: "pool_center_lower"
	pooling_param {
		pool: AVE
		kernel_size: 9
		stride: 8
	}
}

layer{
	name: "conv1_stage2"
	type: "Convolution"
	bottom: "image"
	top: "conv1_stage2"
	param{
		lr_mult: 1
		decay_mult: 1
	}
	param{
		lr_mult: 2
		decay_mult: 0
	}
	convolution_param {
		num_output: 128
		pad: 2
		kernel_size: 5
		stride: 2
		weight_filler {
			type: "gaussian"
			std: 0.01
		}
		bias_filler {
			type: "constant"
		}
	}
}

layer{
	name: "conv1_stage2/bn"
	type: "BN"
	bottom: "conv1_stage2"
	top: "conv1_stage2/bn"
	bn_param {
		frozen:true
	}
}

layer{
	name: "relu1_stage2"
	type: "ReLU"
	bottom: "conv1_stage2/bn"
	top: "conv1_stage2/bn"
}

layer{
	name: "conv1_1_stage2/bc1/conv"
	type: "Convolution"
	bottom: "conv1_stage2/bn"
	top: "conv1_1_stage2/bc1/conv"
	param{
		lr_mult: 1
		decay_mult: 1
	}
	param{
		lr_mult: 2
		decay_mult: 0
	}
	convolution_param {
		num_output: 128
		pad: 0
		kernel_size: 1
		stride: 1
		weight_filler {
			type: "gaussian"
			std: 0.01
		}
		bias_filler {
			type: "constant"
		}
	}
}

layer{
	name: "conv1_1_stage2/bc1/conv/bn"
	type: "BN"
	bottom: "conv1_1_stage2/bc1/conv"
	top: "conv1_1_stage2/bc1/conv/bn"
	bn_param {
		frozen:true
	}
}

layer{
	name: "conv1_1_stage2/bc1/conv/bn/relu"
	type: "ReLU"
	bottom: "conv1_1_stage2/bc1/conv/bn"
	top: "conv1_1_stage2/bc1/conv/bn"
}

layer{
	name: "conv1_1_stage2/composite/conv"
	type: "Convolution"
	bottom: "conv1_1_stage2/bc1/conv/bn"
	top: "conv1_1_stage2/composite/conv"
	param{
		lr_mult: 1
		decay_mult: 1
	}
	param{
		lr_mult: 2
		decay_mult: 0
	}
	convolution_param {
		num_output: 64
		pad: 1
		kernel_size: 3
		stride: 1
		weight_filler {
			type: "gaussian"
			std: 0.01
		}
		bias_filler {
			type: "constant"
		}
	}
}

layer{
	name: "conv1_1_stage2/composite/conv/bn"
	type: "BN"
	bottom: "conv1_1_stage2/composite/conv"
	top: "conv1_1_stage2/composite/conv/bn"
	bn_param {
		frozen:true
	}
}

layer{
	name: "conv1_1_stage2/composite/conv/bn/relu"
	type: "ReLU"
	bottom: "conv1_1_stage2/composite/conv/bn"
	top: "conv1_1_stage2/composite/conv/bn"
}

layer{
	name: "conv1_1_stage2/bn"
	type: "Concat"
	bottom: "conv1_stage2/bn"
	bottom: "conv1_1_stage2/composite/conv/bn"
	top: "conv1_1_stage2/bn"
	concat_param{
		axis: 1
	}
}

layer{
	name: "conv1_2_stage2/bc1/conv"
	type: "Convolution"
	bottom: "conv1_1_stage2/bn"
	top: "conv1_2_stage2/bc1/conv"
	param{
		lr_mult: 1
		decay_mult: 1
	}
	param{
		lr_mult: 2
		decay_mult: 0
	}
	convolution_param {
		num_output: 128
		pad: 0
		kernel_size: 1
		stride: 1
		weight_filler {
			type: "gaussian"
			std: 0.01
		}
		bias_filler {
			type: "constant"
		}
	}
}

layer{
	name: "conv1_2_stage2/bc1/conv/bn"
	type: "BN"
	bottom: "conv1_2_stage2/bc1/conv"
	top: "conv1_2_stage2/bc1/conv/bn"
	bn_param {
		frozen:true
	}
}

layer{
	name: "conv1_2_stage2/bc1/conv/bn/relu"
	type: "ReLU"
	bottom: "conv1_2_stage2/bc1/conv/bn"
	top: "conv1_2_stage2/bc1/conv/bn"
}

layer{
	name: "conv1_2_stage2/composite/conv"
	type: "Convolution"
	bottom: "conv1_2_stage2/bc1/conv/bn"
	top: "conv1_2_stage2/composite/conv"
	param{
		lr_mult: 1
		decay_mult: 1
	}
	param{
		lr_mult: 2
		decay_mult: 0
	}
	convolution_param {
		num_output: 64
		pad: 1
		kernel_size: 3
		stride: 1
		weight_filler {
			type: "gaussian"
			std: 0.01
		}
		bias_filler {
			type: "constant"
		}
	}
}

layer{
	name: "conv1_2_stage2/composite/conv/bn"
	type: "BN"
	bottom: "conv1_2_stage2/composite/conv"
	top: "conv1_2_stage2/composite/conv/bn"
	bn_param {
		frozen:true
	}
}

layer{
	name: "conv1_2_stage2/composite/conv/bn/relu"
	type: "ReLU"
	bottom: "conv1_2_stage2/composite/conv/bn"
	top: "conv1_2_stage2/composite/conv/bn"
}

layer{
	name: "conv1_2_stage2/bn"
	type: "Concat"
	bottom: "conv1_1_stage2/bn"
	bottom: "conv1_2_stage2/composite/conv/bn"
	top: "conv1_2_stage2/bn"
	concat_param{
		axis: 1
	}
}

layer{
	name: "conv1_3_stage2/bc1/conv"
	type: "Convolution"
	bottom: "conv1_2_stage2/bn"
	top: "conv1_3_stage2/bc1/conv"
	param{
		lr_mult: 1
		decay_mult: 1
	}
	param{
		lr_mult: 2
		decay_mult: 0
	}
	convolution_param {
		num_output: 128
		pad: 0
		kernel_size: 1
		stride: 1
		weight_filler {
			type: "gaussian"
			std: 0.01
		}
		bias_filler {
			type: "constant"
		}
	}
}

layer{
	name: "conv1_3_stage2/bc1/conv/bn"
	type: "BN"
	bottom: "conv1_3_stage2/bc1/conv"
	top: "conv1_3_stage2/bc1/conv/bn"
	bn_param {
		frozen:true
	}
}

layer{
	name: "conv1_3_stage2/bc1/conv/bn/relu"
	type: "ReLU"
	bottom: "conv1_3_stage2/bc1/conv/bn"
	top: "conv1_3_stage2/bc1/conv/bn"
}

layer{
	name: "conv1_3_stage2/composite/conv"
	type: "Convolution"
	bottom: "conv1_3_stage2/bc1/conv/bn"
	top: "conv1_3_stage2/composite/conv"
	param{
		lr_mult: 1
		decay_mult: 1
	}
	param{
		lr_mult: 2
		decay_mult: 0
	}
	convolution_param {
		num_output: 64
		pad: 1
		kernel_size: 3
		stride: 1
		weight_filler {
			type: "gaussian"
			std: 0.01
		}
		bias_filler {
			type: "constant"
		}
	}
}

layer{
	name: "conv1_3_stage2/composite/conv/bn"
	type: "BN"
	bottom: "conv1_3_stage2/composite/conv"
	top: "conv1_3_stage2/composite/conv/bn"
	bn_param {
		frozen:true
	}
}

layer{
	name: "conv1_3_stage2/composite/conv/bn/relu"
	type: "ReLU"
	bottom: "conv1_3_stage2/composite/conv/bn"
	top: "conv1_3_stage2/composite/conv/bn"
}

layer{
	name: "conv1_3_stage2/bn"
	type: "Concat"
	bottom: "conv1_2_stage2/bn"
	bottom: "conv1_3_stage2/composite/conv/bn"
	top: "conv1_3_stage2/bn"
	concat_param{
		axis: 1
	}
}

layer{
	name: "conv1_4_stage2"
	type: "Convolution"
	bottom: "conv1_3_stage2/bn"
	top: "conv1_4_stage2"
	param{
		lr_mult: 1
		decay_mult: 1
	}
	param{
		lr_mult: 2
		decay_mult: 0
	}
	convolution_param {
		num_output: 128
		pad: 0
		kernel_size: 1
		stride: 1
		weight_filler {
			type: "gaussian"
			std: 0.01
		}
		bias_filler {
			type: "constant"
		}
	}
}

layer{
	name: "bn1_4_stage2/bn"
	type: "BN"
	bottom: "conv1_4_stage2"
	top: "conv1_4_stage2/bn"
	bn_param {
		frozen:true
	}
}

layer{
	name: "relu1_4_stage2"
	type: "ReLU"
	bottom: "conv1_4_stage2/bn"
	top: "conv1_4_stage2/bn"
}

layer{
	name: "conv2_stage2"
	type: "Convolution"
	bottom: "conv1_4_stage2/bn"
	top: "conv2_stage2"
	param{
		lr_mult: 1
		decay_mult: 1
	}
	param{
		lr_mult: 2
		decay_mult: 0
	}
	convolution_param {
		num_output: 128
		pad: 1
		kernel_size: 3
		stride: 2
		weight_filler {
			type: "gaussian"
			std: 0.01
		}
		bias_filler {
			type: "constant"
		}
	}
}

layer{
	name: "bn2_stage2/bn"
	type: "BN"
	bottom: "conv2_stage2"
	top: "conv2_stage2/bn"
	bn_param {
		frozen:true
	}
}

layer{
	name: "relu2_stage2"
	type: "ReLU"
	bottom: "conv2_stage2/bn"
	top: "conv2_stage2/bn"
}

layer{
	name: "conv2_1_stage2/bc1/conv"
	type: "Convolution"
	bottom: "conv2_stage2/bn"
	top: "conv2_1_stage2/bc1/conv"
	param{
		lr_mult: 1
		decay_mult: 1
	}
	param{
		lr_mult: 2
		decay_mult: 0
	}
	convolution_param {
		num_output: 128
		pad: 0
		kernel_size: 1
		stride: 1
		weight_filler {
			type: "gaussian"
			std: 0.01
		}
		bias_filler {
			type: "constant"
		}
	}
}

layer{
	name: "conv2_1_stage2/bc1/conv/bn"
	type: "BN"
	bottom: "conv2_1_stage2/bc1/conv"
	top: "conv2_1_stage2/bc1/conv/bn"
	bn_param {
		frozen:true
	}
}

layer{
	name: "conv2_1_stage2/bc1/conv/bn/relu"
	type: "ReLU"
	bottom: "conv2_1_stage2/bc1/conv/bn"
	top: "conv2_1_stage2/bc1/conv/bn"
}

layer{
	name: "conv2_1_stage2/composite/conv"
	type: "Convolution"
	bottom: "conv2_1_stage2/bc1/conv/bn"
	top: "conv2_1_stage2/composite/conv"
	param{
		lr_mult: 1
		decay_mult: 1
	}
	param{
		lr_mult: 2
		decay_mult: 0
	}
	convolution_param {
		num_output: 64
		pad: 1
		kernel_size: 3
		stride: 1
		weight_filler {
			type: "gaussian"
			std: 0.01
		}
		bias_filler {
			type: "constant"
		}
	}
}

layer{
	name: "conv2_1_stage2/composite/conv/bn"
	type: "BN"
	bottom: "conv2_1_stage2/composite/conv"
	top: "conv2_1_stage2/composite/conv/bn"
	bn_param {
		frozen:true
	}
}

layer{
	name: "conv2_1_stage2/composite/conv/bn/relu"
	type: "ReLU"
	bottom: "conv2_1_stage2/composite/conv/bn"
	top: "conv2_1_stage2/composite/conv/bn"
}

layer{
	name: "conv2_1_stage2/bn"
	type: "Concat"
	bottom: "conv2_stage2/bn"
	bottom: "conv2_1_stage2/composite/conv/bn"
	top: "conv2_1_stage2/bn"
	concat_param{
		axis: 1
	}
}

layer{
	name: "conv2_2_stage2/bc1/conv"
	type: "Convolution"
	bottom: "conv2_1_stage2/bn"
	top: "conv2_2_stage2/bc1/conv"
	param{
		lr_mult: 1
		decay_mult: 1
	}
	param{
		lr_mult: 2
		decay_mult: 0
	}
	convolution_param {
		num_output: 128
		pad: 0
		kernel_size: 1
		stride: 1
		weight_filler {
			type: "gaussian"
			std: 0.01
		}
		bias_filler {
			type: "constant"
		}
	}
}

layer{
	name: "conv2_2_stage2/bc1/conv/bn"
	type: "BN"
	bottom: "conv2_2_stage2/bc1/conv"
	top: "conv2_2_stage2/bc1/conv/bn"
	bn_param {
		frozen:true
	}
}

layer{
	name: "conv2_2_stage2/bc1/conv/bn/relu"
	type: "ReLU"
	bottom: "conv2_2_stage2/bc1/conv/bn"
	top: "conv2_2_stage2/bc1/conv/bn"
}

layer{
	name: "conv2_2_stage2/composite/conv"
	type: "Convolution"
	bottom: "conv2_2_stage2/bc1/conv/bn"
	top: "conv2_2_stage2/composite/conv"
	param{
		lr_mult: 1
		decay_mult: 1
	}
	param{
		lr_mult: 2
		decay_mult: 0
	}
	convolution_param {
		num_output: 64
		pad: 1
		kernel_size: 3
		stride: 1
		weight_filler {
			type: "gaussian"
			std: 0.01
		}
		bias_filler {
			type: "constant"
		}
	}
}

layer{
	name: "conv2_2_stage2/composite/conv/bn"
	type: "BN"
	bottom: "conv2_2_stage2/composite/conv"
	top: "conv2_2_stage2/composite/conv/bn"
	bn_param {
		frozen:true
	}
}

layer{
	name: "conv2_2_stage2/composite/conv/bn/relu"
	type: "ReLU"
	bottom: "conv2_2_stage2/composite/conv/bn"
	top: "conv2_2_stage2/composite/conv/bn"
}

layer{
	name: "conv2_2_stage2/bn"
	type: "Concat"
	bottom: "conv2_1_stage2/bn"
	bottom: "conv2_2_stage2/composite/conv/bn"
	top: "conv2_2_stage2/bn"
	concat_param{
		axis: 1
	}
}

layer{
	name: "conv2_3_stage2/bc1/conv"
	type: "Convolution"
	bottom: "conv2_2_stage2/bn"
	top: "conv2_3_stage2/bc1/conv"
	param{
		lr_mult: 1
		decay_mult: 1
	}
	param{
		lr_mult: 2
		decay_mult: 0
	}
	convolution_param {
		num_output: 128
		pad: 0
		kernel_size: 1
		stride: 1
		weight_filler {
			type: "gaussian"
			std: 0.01
		}
		bias_filler {
			type: "constant"
		}
	}
}

layer{
	name: "conv2_3_stage2/bc1/conv/bn"
	type: "BN"
	bottom: "conv2_3_stage2/bc1/conv"
	top: "conv2_3_stage2/bc1/conv/bn"
	bn_param {
		frozen:true
	}
}

layer{
	name: "conv2_3_stage2/bc1/conv/bn/relu"
	type: "ReLU"
	bottom: "conv2_3_stage2/bc1/conv/bn"
	top: "conv2_3_stage2/bc1/conv/bn"
}

layer{
	name: "conv2_3_stage2/composite/conv"
	type: "Convolution"
	bottom: "conv2_3_stage2/bc1/conv/bn"
	top: "conv2_3_stage2/composite/conv"
	param{
		lr_mult: 1
		decay_mult: 1
	}
	param{
		lr_mult: 2
		decay_mult: 0
	}
	convolution_param {
		num_output: 64
		pad: 1
		kernel_size: 3
		stride: 1
		weight_filler {
			type: "gaussian"
			std: 0.01
		}
		bias_filler {
			type: "constant"
		}
	}
}

layer{
	name: "conv2_3_stage2/composite/conv/bn"
	type: "BN"
	bottom: "conv2_3_stage2/composite/conv"
	top: "conv2_3_stage2/composite/conv/bn"
	bn_param {
		frozen:true
	}
}

layer{
	name: "conv2_3_stage2/composite/conv/bn/relu"
	type: "ReLU"
	bottom: "conv2_3_stage2/composite/conv/bn"
	top: "conv2_3_stage2/composite/conv/bn"
}

layer{
	name: "conv2_3_stage2/bn"
	type: "Concat"
	bottom: "conv2_2_stage2/bn"
	bottom: "conv2_3_stage2/composite/conv/bn"
	top: "conv2_3_stage2/bn"
	concat_param{
		axis: 1
	}
}

layer{
	name: "conv2_4_stage2/bc1/conv"
	type: "Convolution"
	bottom: "conv2_3_stage2/bn"
	top: "conv2_4_stage2/bc1/conv"
	param{
		lr_mult: 1
		decay_mult: 1
	}
	param{
		lr_mult: 2
		decay_mult: 0
	}
	convolution_param {
		num_output: 128
		pad: 0
		kernel_size: 1
		stride: 1
		weight_filler {
			type: "gaussian"
			std: 0.01
		}
		bias_filler {
			type: "constant"
		}
	}
}

layer{
	name: "conv2_4_stage2/bc1/conv/bn"
	type: "BN"
	bottom: "conv2_4_stage2/bc1/conv"
	top: "conv2_4_stage2/bc1/conv/bn"
	bn_param {
		frozen:true
	}
}

layer{
	name: "conv2_4_stage2/bc1/conv/bn/relu"
	type: "ReLU"
	bottom: "conv2_4_stage2/bc1/conv/bn"
	top: "conv2_4_stage2/bc1/conv/bn"
}

layer{
	name: "conv2_4_stage2/composite/conv"
	type: "Convolution"
	bottom: "conv2_4_stage2/bc1/conv/bn"
	top: "conv2_4_stage2/composite/conv"
	param{
		lr_mult: 1
		decay_mult: 1
	}
	param{
		lr_mult: 2
		decay_mult: 0
	}
	convolution_param {
		num_output: 64
		pad: 1
		kernel_size: 3
		stride: 1
		weight_filler {
			type: "gaussian"
			std: 0.01
		}
		bias_filler {
			type: "constant"
		}
	}
}

layer{
	name: "conv2_4_stage2/composite/conv/bn"
	type: "BN"
	bottom: "conv2_4_stage2/composite/conv"
	top: "conv2_4_stage2/composite/conv/bn"
	bn_param {
		frozen:true
	}
}

layer{
	name: "conv2_4_stage2/composite/conv/bn/relu"
	type: "ReLU"
	bottom: "conv2_4_stage2/composite/conv/bn"
	top: "conv2_4_stage2/composite/conv/bn"
}

layer{
	name: "conv2_4_stage2/bn"
	type: "Concat"
	bottom: "conv2_3_stage2/bn"
	bottom: "conv2_4_stage2/composite/conv/bn"
	top: "conv2_4_stage2/bn"
	concat_param{
		axis: 1
	}
}

layer{
	name: "conv2_5_stage2"
	type: "Convolution"
	bottom: "conv2_4_stage2/bn"
	top: "conv2_5_stage2"
	param{
		lr_mult: 1
		decay_mult: 1
	}
	param{
		lr_mult: 2
		decay_mult: 0
	}
	convolution_param {
		num_output: 128
		pad: 0
		kernel_size: 1
		stride: 1
		weight_filler {
			type: "gaussian"
			std: 0.01
		}
		bias_filler {
			type: "constant"
		}
	}
}

layer{
	name: "conv2_5_stage2/bn"
	type: "BN"
	bottom: "conv2_5_stage2"
	top: "conv2_5_stage2/bn"
	bn_param {
		frozen:true
	}
}

layer{
	name: "relu2_5_stage2"
	type: "ReLU"
	bottom: "conv2_5_stage2/bn"
	top: "conv2_5_stage2/bn"
}

layer{
	name: "conv2_6_stage2"
	type: "Convolution"
	bottom: "conv2_5_stage2/bn"
	top: "conv2_6_stage2"
	param{
		lr_mult: 1
		decay_mult: 1
	}
	param{
		lr_mult: 2
		decay_mult: 0
	}
	convolution_param {
		num_output: 128
		pad: 1
		kernel_size: 3
		stride: 2
		weight_filler {
			type: "gaussian"
			std: 0.01
		}
		bias_filler {
			type: "constant"
		}
	}
}

layer{
	name: "conv2_6_stage2/bn"
	type: "BN"
	bottom: "conv2_6_stage2"
	top: "conv2_6_stage2/bn"
	bn_param {
		frozen:true
	}
}

layer{
	name: "relu2_6_stage2"
	type: "ReLU"
	bottom: "conv2_6_stage2/bn"
	top: "conv2_6_stage2/bn"
}

#aaaaaaaaaaaaaaaaaaaaaaaaaaaaaaaaaaaaaaaaaaaaaaaaaaaaaaaaaaaaaa
layer{
	name: "conv3_1_stage2_res/branch1/conv_1×1_reduce"
	type: "Convolution"
	bottom: "conv2_6_stage2/bn"
	top: "conv3_1_stage2_res/branch1/conv_1×1_reduce"
	param{
		lr_mult: 1
		decay_mult: 1
	}
	param{
		lr_mult: 2
		decay_mult: 0
	}
	convolution_param {
		num_output: 64
		pad: 0
		kernel_size: 1
		stride: 1
		weight_filler {
			type: "gaussian"
			std: 0.01
		}
		bias_filler {
			type: "constant"
		}
	}
}

layer{
	name: "conv3_1_stage2_res/branch1/conv_1×1_reduce/bn"
	type: "BN"
	bottom: "conv3_1_stage2_res/branch1/conv_1×1_reduce"
	top: "conv3_1_stage2_res/branch1/conv_1×1_reduce/bn"
	bn_param {
		frozen:true
	}
}

layer{
	name: "conv3_1_stage2_res/branch2/conv_1×1_reduce"
	type: "Convolution"
	bottom: "conv2_6_stage2/bn"
	top: "conv3_1_stage2_res/branch2/conv_1×1_reduce"
	param{
		lr_mult: 1
		decay_mult: 1
	}
	param{
		lr_mult: 2
		decay_mult: 0
	}
	convolution_param {
		num_output: 64
		pad: 0
		kernel_size: 1
		stride: 1
		weight_filler {
			type: "gaussian"
			std: 0.01
		}
		bias_filler {
			type: "constant"
		}
	}
}

layer{
	name: "conv3_1_stage2_res/branch2/conv_1×1_reduce/bn"
	type: "BN"
	bottom: "conv3_1_stage2_res/branch2/conv_1×1_reduce"
	top: "conv3_1_stage2_res/branch2/conv_1×1_reduce/bn"
	bn_param {
		frozen:true
	}
}

layer{
	name: "conv3_1_stage2_res/branch2/conv_1×1_reduce/bn/relu"
	type: "ReLU"
	bottom: "conv3_1_stage2_res/branch2/conv_1×1_reduce/bn"
	top: "conv3_1_stage2_res/branch2/conv_1×1_reduce/bn"
}

layer{
	name: "conv3_1_stage2_res/branch2/conv_3×3"
	type: "Convolution"
	bottom: "conv3_1_stage2_res/branch2/conv_1×1_reduce/bn"
	top: "conv3_1_stage2_res/branch2/conv_3×3"
	param{
		lr_mult: 1
		decay_mult: 1
	}
	param{
		lr_mult: 2
		decay_mult: 0
	}
	convolution_param {
		num_output: 64
		pad: 1
		kernel_size: 3
		stride: 1
		weight_filler {
			type: "gaussian"
			std: 0.01
		}
		bias_filler {
			type: "constant"
		}
	}
}

layer{
	name: "conv3_1_stage2_res/branch2/conv_3×3/bn"
	type: "BN"
	bottom: "conv3_1_stage2_res/branch2/conv_3×3"
	top: "conv3_1_stage2_res/branch2/conv_3×3/bn"
	bn_param {
		frozen:true
	}
}

layer{
	name: "conv3_1_stage2_res/branch3/conv_1×1_reduce"
	type: "Convolution"
	bottom: "conv2_6_stage2/bn"
	top: "conv3_1_stage2_res/branch3/conv_1×1_reduce"
	param{
		lr_mult: 1
		decay_mult: 1
	}
	param{
		lr_mult: 2
		decay_mult: 0
	}
	convolution_param {
		num_output: 64
		pad: 0
		kernel_size: 1
		stride: 1
		weight_filler {
			type: "gaussian"
			std: 0.01
		}
		bias_filler {
			type: "constant"
		}
	}
}

layer{
	name: "conv3_1_stage2_res/branch3/conv_1×1_reduce/bn"
	type: "BN"
	bottom: "conv3_1_stage2_res/branch3/conv_1×1_reduce"
	top: "conv3_1_stage2_res/branch3/conv_1×1_reduce/bn"
	bn_param {
		frozen:true
	}
}

layer{
	name: "conv3_1_stage2_res/branch3/conv_1×1_reduce/bn/relu"
	type: "ReLU"
	bottom: "conv3_1_stage2_res/branch3/conv_1×1_reduce/bn"
	top: "conv3_1_stage2_res/branch3/conv_1×1_reduce/bn"
}

layer{
	name: "conv3_1_stage2_res/branch3/conv_3×3"
	type: "Convolution"
	bottom: "conv3_1_stage2_res/branch3/conv_1×1_reduce/bn"
	top: "conv3_1_stage2_res/branch3/conv_3×3"
	param{
		lr_mult: 1
		decay_mult: 1
	}
	param{
		lr_mult: 2
		decay_mult: 0
	}
	convolution_param {
		num_output: 64
		pad: 1
		kernel_size: 3
		stride: 1
		weight_filler {
			type: "gaussian"
			std: 0.01
		}
		bias_filler {
			type: "constant"
		}
	}
}

layer{
	name: "conv3_1_stage2_res/branch3/conv_3×3/bn"
	type: "BN"
	bottom: "conv3_1_stage2_res/branch3/conv_3×3"
	top: "conv3_1_stage2_res/branch3/conv_3×3/bn"
	bn_param {
		frozen:true
	}
}

layer{
	name: "conv3_1_stage2_res/branch3/conv_3×3/bn/relu"
	type: "ReLU"
	bottom: "conv3_1_stage2_res/branch3/conv_3×3/bn"
	top: "conv3_1_stage2_res/branch3/conv_3×3/bn"
}

layer{
	name: "conv3_1_stage2_res/branch3/conv2_3×3"
	type: "Convolution"
	bottom: "conv3_1_stage2_res/branch3/conv_3×3/bn"
	top: "conv3_1_stage2_res/branch3/conv2_3×3"
	param{
		lr_mult: 1
		decay_mult: 1
	}
	param{
		lr_mult: 2
		decay_mult: 0
	}
	convolution_param {
		num_output: 64
		pad: 1
		kernel_size: 3
		stride: 1
		weight_filler {
			type: "gaussian"
			std: 0.01
		}
		bias_filler {
			type: "constant"
		}
	}
}

layer{
	name: "conv3_1_stage2_res/branch3/conv2_3×3/bn"
	type: "BN"
	bottom: "conv3_1_stage2_res/branch3/conv2_3×3"
	top: "conv3_1_stage2_res/branch3/conv2_3×3/bn"
	bn_param {
		frozen:true
	}
}

layer{
	name: "conv3_1_stage2_res/branch5/concat"
	type: "Concat"
	bottom: "conv3_1_stage2_res/branch1/conv_1×1_reduce/bn"
	bottom: "conv3_1_stage2_res/branch2/conv_3×3/bn"
	bottom: "conv3_1_stage2_res/branch3/conv2_3×3/bn"
	top: "conv3_1_stage2_res/branch5/concat"
	concat_param{
		axis: 1
	}
}

layer{
	name: "conv3_1_stage2_res/branch5/concat/relu"
	type: "ReLU"
	bottom: "conv3_1_stage2_res/branch5/concat"
	top: "conv3_1_stage2_res/branch5/concat"
}

layer{
	name: "conv3_1_stage2_res/branch5/conv_1×1_increase"
	type: "Convolution"
	bottom: "conv3_1_stage2_res/branch5/concat"
	top: "conv3_1_stage2_res/branch5/conv_1×1_increase"
	param{
		lr_mult: 1
		decay_mult: 1
	}
	param{
		lr_mult: 2
		decay_mult: 0
	}
	convolution_param {
		num_output: 128
		pad: 0
		kernel_size: 1
		stride: 1
		weight_filler {
			type: "gaussian"
			std: 0.01
		}
		bias_filler {
			type: "constant"
		}
	}
}

layer{
	name: "conv3_1_stage2_res/branch5/conv_1×1_increase/bn"
	type: "BN"
	bottom: "conv3_1_stage2_res/branch5/conv_1×1_increase"
	top: "conv3_1_stage2_res/branch5/conv_1×1_increase/bn"
	bn_param {
		frozen:true
	}
}

layer{
	name: "conv3_1_stage2_res"
	type: "Eltwise"
	bottom: "conv3_1_stage2_res/branch5/conv_1×1_increase/bn"
	bottom: "conv2_6_stage2/bn"
	top: "conv3_1_stage2_res"
	eltwise_param {
		operation: SUM
	}
}

#ooooooooooooooooooooooooooooooooooooooooooooooooooooooooo
layer{
	name: "conv3_1_stage2_res/relu"
	type: "ReLU"
	bottom: "conv3_1_stage2_res"
	top: "conv3_1_stage2_res"
}

#aaaaaaaaaaaaaaaaaaaaaaaaaaaaaaaaaaaaaaaaaaaaaaaaaaaaaaaaaaaaaa
layer{
	name: "conv3_2_stage2_res/branch1/conv_1×1_reduce"
	type: "Convolution"
	bottom: "conv3_1_stage2_res"
	top: "conv3_2_stage2_res/branch1/conv_1×1_reduce"
	param{
		lr_mult: 1
		decay_mult: 1
	}
	param{
		lr_mult: 2
		decay_mult: 0
	}
	convolution_param {
		num_output: 64
		pad: 0
		kernel_size: 1
		stride: 1
		weight_filler {
			type: "gaussian"
			std: 0.01
		}
		bias_filler {
			type: "constant"
		}
	}
}

layer{
	name: "conv3_2_stage2_res/branch1/conv_1×1_reduce/bn"
	type: "BN"
	bottom: "conv3_2_stage2_res/branch1/conv_1×1_reduce"
	top: "conv3_2_stage2_res/branch1/conv_1×1_reduce/bn"
	bn_param {
		frozen:true
	}
}

layer{
	name: "conv3_2_stage2_res/branch2/conv_1×1_reduce"
	type: "Convolution"
	bottom: "conv3_1_stage2_res"
	top: "conv3_2_stage2_res/branch2/conv_1×1_reduce"
	param{
		lr_mult: 1
		decay_mult: 1
	}
	param{
		lr_mult: 2
		decay_mult: 0
	}
	convolution_param {
		num_output: 64
		pad: 0
		kernel_size: 1
		stride: 1
		weight_filler {
			type: "gaussian"
			std: 0.01
		}
		bias_filler {
			type: "constant"
		}
	}
}

layer{
	name: "conv3_2_stage2_res/branch2/conv_1×1_reduce/bn"
	type: "BN"
	bottom: "conv3_2_stage2_res/branch2/conv_1×1_reduce"
	top: "conv3_2_stage2_res/branch2/conv_1×1_reduce/bn"
	bn_param {
		frozen:true
	}
}

layer{
	name: "conv3_2_stage2_res/branch2/conv_1×1_reduce/bn/relu"
	type: "ReLU"
	bottom: "conv3_2_stage2_res/branch2/conv_1×1_reduce/bn"
	top: "conv3_2_stage2_res/branch2/conv_1×1_reduce/bn"
}

layer{
	name: "conv3_2_stage2_res/branch2/conv_3×3"
	type: "Convolution"
	bottom: "conv3_2_stage2_res/branch2/conv_1×1_reduce/bn"
	top: "conv3_2_stage2_res/branch2/conv_3×3"
	param{
		lr_mult: 1
		decay_mult: 1
	}
	param{
		lr_mult: 2
		decay_mult: 0
	}
	convolution_param {
		num_output: 64
		pad: 1
		kernel_size: 3
		stride: 1
		weight_filler {
			type: "gaussian"
			std: 0.01
		}
		bias_filler {
			type: "constant"
		}
	}
}

layer{
	name: "conv3_2_stage2_res/branch2/conv_3×3/bn"
	type: "BN"
	bottom: "conv3_2_stage2_res/branch2/conv_3×3"
	top: "conv3_2_stage2_res/branch2/conv_3×3/bn"
	bn_param {
		frozen:true
	}
}

layer{
	name: "conv3_2_stage2_res/branch3/conv_1×1_reduce"
	type: "Convolution"
	bottom: "conv3_1_stage2_res"
	top: "conv3_2_stage2_res/branch3/conv_1×1_reduce"
	param{
		lr_mult: 1
		decay_mult: 1
	}
	param{
		lr_mult: 2
		decay_mult: 0
	}
	convolution_param {
		num_output: 64
		pad: 0
		kernel_size: 1
		stride: 1
		weight_filler {
			type: "gaussian"
			std: 0.01
		}
		bias_filler {
			type: "constant"
		}
	}
}

layer{
	name: "conv3_2_stage2_res/branch3/conv_1×1_reduce/bn"
	type: "BN"
	bottom: "conv3_2_stage2_res/branch3/conv_1×1_reduce"
	top: "conv3_2_stage2_res/branch3/conv_1×1_reduce/bn"
	bn_param {
		frozen:true
	}
}

layer{
	name: "conv3_2_stage2_res/branch3/conv_1×1_reduce/bn/relu"
	type: "ReLU"
	bottom: "conv3_2_stage2_res/branch3/conv_1×1_reduce/bn"
	top: "conv3_2_stage2_res/branch3/conv_1×1_reduce/bn"
}

layer{
	name: "conv3_2_stage2_res/branch3/conv_3×3"
	type: "Convolution"
	bottom: "conv3_2_stage2_res/branch3/conv_1×1_reduce/bn"
	top: "conv3_2_stage2_res/branch3/conv_3×3"
	param{
		lr_mult: 1
		decay_mult: 1
	}
	param{
		lr_mult: 2
		decay_mult: 0
	}
	convolution_param {
		num_output: 64
		pad: 1
		kernel_size: 3
		stride: 1
		weight_filler {
			type: "gaussian"
			std: 0.01
		}
		bias_filler {
			type: "constant"
		}
	}
}

layer{
	name: "conv3_2_stage2_res/branch3/conv_3×3/bn"
	type: "BN"
	bottom: "conv3_2_stage2_res/branch3/conv_3×3"
	top: "conv3_2_stage2_res/branch3/conv_3×3/bn"
	bn_param {
		frozen:true
	}
}

layer{
	name: "conv3_2_stage2_res/branch3/conv_3×3/bn/relu"
	type: "ReLU"
	bottom: "conv3_2_stage2_res/branch3/conv_3×3/bn"
	top: "conv3_2_stage2_res/branch3/conv_3×3/bn"
}

layer{
	name: "conv3_2_stage2_res/branch3/conv2_3×3"
	type: "Convolution"
	bottom: "conv3_2_stage2_res/branch3/conv_3×3/bn"
	top: "conv3_2_stage2_res/branch3/conv2_3×3"
	param{
		lr_mult: 1
		decay_mult: 1
	}
	param{
		lr_mult: 2
		decay_mult: 0
	}
	convolution_param {
		num_output: 64
		pad: 1
		kernel_size: 3
		stride: 1
		weight_filler {
			type: "gaussian"
			std: 0.01
		}
		bias_filler {
			type: "constant"
		}
	}
}

layer{
	name: "conv3_2_stage2_res/branch3/conv2_3×3/bn"
	type: "BN"
	bottom: "conv3_2_stage2_res/branch3/conv2_3×3"
	top: "conv3_2_stage2_res/branch3/conv2_3×3/bn"
	bn_param {
		frozen:true
	}
}

layer{
	name: "conv3_2_stage2_res/branch5/concat"
	type: "Concat"
	bottom: "conv3_2_stage2_res/branch1/conv_1×1_reduce/bn"
	bottom: "conv3_2_stage2_res/branch2/conv_3×3/bn"
	bottom: "conv3_2_stage2_res/branch3/conv2_3×3/bn"
	top: "conv3_2_stage2_res/branch5/concat"
	concat_param{
		axis: 1
	}
}

layer{
	name: "conv3_2_stage2_res/branch5/concat/relu"
	type: "ReLU"
	bottom: "conv3_2_stage2_res/branch5/concat"
	top: "conv3_2_stage2_res/branch5/concat"
}

layer{
	name: "conv3_2_stage2_res/branch5/conv_1×1_increase"
	type: "Convolution"
	bottom: "conv3_2_stage2_res/branch5/concat"
	top: "conv3_2_stage2_res/branch5/conv_1×1_increase"
	param{
		lr_mult: 1
		decay_mult: 1
	}
	param{
		lr_mult: 2
		decay_mult: 0
	}
	convolution_param {
		num_output: 128
		pad: 0
		kernel_size: 1
		stride: 1
		weight_filler {
			type: "gaussian"
			std: 0.01
		}
		bias_filler {
			type: "constant"
		}
	}
}

layer{
	name: "conv3_2_stage2_res/branch5/conv_1×1_increase/bn"
	type: "BN"
	bottom: "conv3_2_stage2_res/branch5/conv_1×1_increase"
	top: "conv3_2_stage2_res/branch5/conv_1×1_increase/bn"
	bn_param {
		frozen:true
	}
}

layer{
	name: "conv3_2_stage2_res"
	type: "Eltwise"
	bottom: "conv3_2_stage2_res/branch5/conv_1×1_increase/bn"
	bottom: "conv3_1_stage2_res"
	top: "conv3_2_stage2_res"
	eltwise_param {
		operation: SUM
	}
}

#ooooooooooooooooooooooooooooooooooooooooooooooooooooooooo
layer{
	name: "conv3_2_stage2_res/relu"
	type: "ReLU"
	bottom: "conv3_2_stage2_res"
	top: "conv3_2_stage2_res"
}

#aaaaaaaaaaaaaaaaaaaaaaaaaaaaaaaaaaaaaaaaaaaaaaaaaaaaaaaaaaaaaa
layer{
	name: "conv4_stage2_res/branch1/conv_1×1_reduce"
	type: "Convolution"
	bottom: "conv3_2_stage2_res"
	top: "conv4_stage2_res/branch1/conv_1×1_reduce"
	param{
		lr_mult: 1
		decay_mult: 1
	}
	param{
		lr_mult: 2
		decay_mult: 0
	}
	convolution_param {
		num_output: 64
		pad: 0
		kernel_size: 1
		stride: 1
		weight_filler {
			type: "gaussian"
			std: 0.01
		}
		bias_filler {
			type: "constant"
		}
	}
}

layer{
	name: "conv4_stage2_res/branch1/conv_1×1_reduce/bn"
	type: "BN"
	bottom: "conv4_stage2_res/branch1/conv_1×1_reduce"
	top: "conv4_stage2_res/branch1/conv_1×1_reduce/bn"
	bn_param {
		frozen:true
	}
}

layer{
	name: "conv4_stage2_res/branch2/conv_1×1_reduce"
	type: "Convolution"
	bottom: "conv3_2_stage2_res"
	top: "conv4_stage2_res/branch2/conv_1×1_reduce"
	param{
		lr_mult: 1
		decay_mult: 1
	}
	param{
		lr_mult: 2
		decay_mult: 0
	}
	convolution_param {
		num_output: 64
		pad: 0
		kernel_size: 1
		stride: 1
		weight_filler {
			type: "gaussian"
			std: 0.01
		}
		bias_filler {
			type: "constant"
		}
	}
}

layer{
	name: "conv4_stage2_res/branch2/conv_1×1_reduce/bn"
	type: "BN"
	bottom: "conv4_stage2_res/branch2/conv_1×1_reduce"
	top: "conv4_stage2_res/branch2/conv_1×1_reduce/bn"
	bn_param {
		frozen:true
	}
}

layer{
	name: "conv4_stage2_res/branch2/conv_1×1_reduce/bn/relu"
	type: "ReLU"
	bottom: "conv4_stage2_res/branch2/conv_1×1_reduce/bn"
	top: "conv4_stage2_res/branch2/conv_1×1_reduce/bn"
}

layer{
	name: "conv4_stage2_res/branch2/conv_3×3"
	type: "Convolution"
	bottom: "conv4_stage2_res/branch2/conv_1×1_reduce/bn"
	top: "conv4_stage2_res/branch2/conv_3×3"
	param{
		lr_mult: 1
		decay_mult: 1
	}
	param{
		lr_mult: 2
		decay_mult: 0
	}
	convolution_param {
		num_output: 64
		pad: 1
		kernel_size: 3
		stride: 1
		weight_filler {
			type: "gaussian"
			std: 0.01
		}
		bias_filler {
			type: "constant"
		}
	}
}

layer{
	name: "conv4_stage2_res/branch2/conv_3×3/bn"
	type: "BN"
	bottom: "conv4_stage2_res/branch2/conv_3×3"
	top: "conv4_stage2_res/branch2/conv_3×3/bn"
	bn_param {
		frozen:true
	}
}

layer{
	name: "conv4_stage2_res/branch3/conv_1×1_reduce"
	type: "Convolution"
	bottom: "conv3_2_stage2_res"
	top: "conv4_stage2_res/branch3/conv_1×1_reduce"
	param{
		lr_mult: 1
		decay_mult: 1
	}
	param{
		lr_mult: 2
		decay_mult: 0
	}
	convolution_param {
		num_output: 64
		pad: 0
		kernel_size: 1
		stride: 1
		weight_filler {
			type: "gaussian"
			std: 0.01
		}
		bias_filler {
			type: "constant"
		}
	}
}

layer{
	name: "conv4_stage2_res/branch3/conv_1×1_reduce/bn"
	type: "BN"
	bottom: "conv4_stage2_res/branch3/conv_1×1_reduce"
	top: "conv4_stage2_res/branch3/conv_1×1_reduce/bn"
	bn_param {
		frozen:true
	}
}

layer{
	name: "conv4_stage2_res/branch3/conv_1×1_reduce/bn/relu"
	type: "ReLU"
	bottom: "conv4_stage2_res/branch3/conv_1×1_reduce/bn"
	top: "conv4_stage2_res/branch3/conv_1×1_reduce/bn"
}

layer{
	name: "conv4_stage2_res/branch3/conv_3×3"
	type: "Convolution"
	bottom: "conv4_stage2_res/branch3/conv_1×1_reduce/bn"
	top: "conv4_stage2_res/branch3/conv_3×3"
	param{
		lr_mult: 1
		decay_mult: 1
	}
	param{
		lr_mult: 2
		decay_mult: 0
	}
	convolution_param {
		num_output: 64
		pad: 1
		kernel_size: 3
		stride: 1
		weight_filler {
			type: "gaussian"
			std: 0.01
		}
		bias_filler {
			type: "constant"
		}
	}
}

layer{
	name: "conv4_stage2_res/branch3/conv_3×3/bn"
	type: "BN"
	bottom: "conv4_stage2_res/branch3/conv_3×3"
	top: "conv4_stage2_res/branch3/conv_3×3/bn"
	bn_param {
		frozen:true
	}
}

layer{
	name: "conv4_stage2_res/branch3/conv_3×3/bn/relu"
	type: "ReLU"
	bottom: "conv4_stage2_res/branch3/conv_3×3/bn"
	top: "conv4_stage2_res/branch3/conv_3×3/bn"
}

layer{
	name: "conv4_stage2_res/branch3/conv2_3×3"
	type: "Convolution"
	bottom: "conv4_stage2_res/branch3/conv_3×3/bn"
	top: "conv4_stage2_res/branch3/conv2_3×3"
	param{
		lr_mult: 1
		decay_mult: 1
	}
	param{
		lr_mult: 2
		decay_mult: 0
	}
	convolution_param {
		num_output: 64
		pad: 1
		kernel_size: 3
		stride: 1
		weight_filler {
			type: "gaussian"
			std: 0.01
		}
		bias_filler {
			type: "constant"
		}
	}
}

layer{
	name: "conv4_stage2_res/branch3/conv2_3×3/bn"
	type: "BN"
	bottom: "conv4_stage2_res/branch3/conv2_3×3"
	top: "conv4_stage2_res/branch3/conv2_3×3/bn"
	bn_param {
		frozen:true
	}
}

layer{
	name: "conv4_stage2_res/branch5/concat"
	type: "Concat"
	bottom: "conv4_stage2_res/branch1/conv_1×1_reduce/bn"
	bottom: "conv4_stage2_res/branch2/conv_3×3/bn"
	bottom: "conv4_stage2_res/branch3/conv2_3×3/bn"
	top: "conv4_stage2_res/branch5/concat"
	concat_param{
		axis: 1
	}
}

layer{
	name: "conv4_stage2_res/branch5/concat/relu"
	type: "ReLU"
	bottom: "conv4_stage2_res/branch5/concat"
	top: "conv4_stage2_res/branch5/concat"
}

layer{
	name: "conv4_stage2_res/branch5/conv_1×1_increase"
	type: "Convolution"
	bottom: "conv4_stage2_res/branch5/concat"
	top: "conv4_stage2_res/branch5/conv_1×1_increase"
	param{
		lr_mult: 1
		decay_mult: 1
	}
	param{
		lr_mult: 2
		decay_mult: 0
	}
	convolution_param {
		num_output: 128
		pad: 0
		kernel_size: 1
		stride: 1
		weight_filler {
			type: "gaussian"
			std: 0.01
		}
		bias_filler {
			type: "constant"
		}
	}
}

layer{
	name: "conv4_stage2_res/branch5/conv_1×1_increase/bn"
	type: "BN"
	bottom: "conv4_stage2_res/branch5/conv_1×1_increase"
	top: "conv4_stage2_res/branch5/conv_1×1_increase/bn"
	bn_param {
		frozen:true
	}
}

layer{
	name: "conv4_stage2_res"
	type: "Eltwise"
	bottom: "conv4_stage2_res/branch5/conv_1×1_increase/bn"
	bottom: "conv3_2_stage2_res"
	top: "conv4_stage2_res"
	eltwise_param {
		operation: SUM
	}
}

#ooooooooooooooooooooooooooooooooooooooooooooooooooooooooo
layer{
	name: "conv4_stage2_res/relu"
	type: "ReLU"
	bottom: "conv4_stage2_res"
	top: "conv4_stage2_res"
}

#aaaaaaaaaaaaaaaaaaaaaaaaaaaaaaaaaaaaaaaaaaaaaaaaaaaaaaaaaaaaaa
layer{
	name: "conv4_1_stage2_res/branch1/conv_1×1_reduce"
	type: "Convolution"
	bottom: "conv4_stage2_res"
	top: "conv4_1_stage2_res/branch1/conv_1×1_reduce"
	param{
		lr_mult: 1
		decay_mult: 1
	}
	param{
		lr_mult: 2
		decay_mult: 0
	}
	convolution_param {
		num_output: 64
		pad: 0
		kernel_size: 1
		stride: 1
		weight_filler {
			type: "gaussian"
			std: 0.01
		}
		bias_filler {
			type: "constant"
		}
	}
}

layer{
	name: "conv4_1_stage2_res/branch1/conv_1×1_reduce/bn"
	type: "BN"
	bottom: "conv4_1_stage2_res/branch1/conv_1×1_reduce"
	top: "conv4_1_stage2_res/branch1/conv_1×1_reduce/bn"
	bn_param {
		frozen:true
	}
}

layer{
	name: "conv4_1_stage2_res/branch2/conv_1×1_reduce"
	type: "Convolution"
	bottom: "conv4_stage2_res"
	top: "conv4_1_stage2_res/branch2/conv_1×1_reduce"
	param{
		lr_mult: 1
		decay_mult: 1
	}
	param{
		lr_mult: 2
		decay_mult: 0
	}
	convolution_param {
		num_output: 64
		pad: 0
		kernel_size: 1
		stride: 1
		weight_filler {
			type: "gaussian"
			std: 0.01
		}
		bias_filler {
			type: "constant"
		}
	}
}

layer{
	name: "conv4_1_stage2_res/branch2/conv_1×1_reduce/bn"
	type: "BN"
	bottom: "conv4_1_stage2_res/branch2/conv_1×1_reduce"
	top: "conv4_1_stage2_res/branch2/conv_1×1_reduce/bn"
	bn_param {
		frozen:true
	}
}

layer{
	name: "conv4_1_stage2_res/branch2/conv_1×1_reduce/bn/relu"
	type: "ReLU"
	bottom: "conv4_1_stage2_res/branch2/conv_1×1_reduce/bn"
	top: "conv4_1_stage2_res/branch2/conv_1×1_reduce/bn"
}

layer{
	name: "conv4_1_stage2_res/branch2/conv_3×3"
	type: "Convolution"
	bottom: "conv4_1_stage2_res/branch2/conv_1×1_reduce/bn"
	top: "conv4_1_stage2_res/branch2/conv_3×3"
	param{
		lr_mult: 1
		decay_mult: 1
	}
	param{
		lr_mult: 2
		decay_mult: 0
	}
	convolution_param {
		num_output: 64
		pad: 1
		kernel_size: 3
		stride: 1
		weight_filler {
			type: "gaussian"
			std: 0.01
		}
		bias_filler {
			type: "constant"
		}
	}
}

layer{
	name: "conv4_1_stage2_res/branch2/conv_3×3/bn"
	type: "BN"
	bottom: "conv4_1_stage2_res/branch2/conv_3×3"
	top: "conv4_1_stage2_res/branch2/conv_3×3/bn"
	bn_param {
		frozen:true
	}
}

layer{
	name: "conv4_1_stage2_res/branch3/conv_1×1_reduce"
	type: "Convolution"
	bottom: "conv4_stage2_res"
	top: "conv4_1_stage2_res/branch3/conv_1×1_reduce"
	param{
		lr_mult: 1
		decay_mult: 1
	}
	param{
		lr_mult: 2
		decay_mult: 0
	}
	convolution_param {
		num_output: 64
		pad: 0
		kernel_size: 1
		stride: 1
		weight_filler {
			type: "gaussian"
			std: 0.01
		}
		bias_filler {
			type: "constant"
		}
	}
}

layer{
	name: "conv4_1_stage2_res/branch3/conv_1×1_reduce/bn"
	type: "BN"
	bottom: "conv4_1_stage2_res/branch3/conv_1×1_reduce"
	top: "conv4_1_stage2_res/branch3/conv_1×1_reduce/bn"
	bn_param {
		frozen:true
	}
}

layer{
	name: "conv4_1_stage2_res/branch3/conv_1×1_reduce/bn/relu"
	type: "ReLU"
	bottom: "conv4_1_stage2_res/branch3/conv_1×1_reduce/bn"
	top: "conv4_1_stage2_res/branch3/conv_1×1_reduce/bn"
}

layer{
	name: "conv4_1_stage2_res/branch3/conv_3×3"
	type: "Convolution"
	bottom: "conv4_1_stage2_res/branch3/conv_1×1_reduce/bn"
	top: "conv4_1_stage2_res/branch3/conv_3×3"
	param{
		lr_mult: 1
		decay_mult: 1
	}
	param{
		lr_mult: 2
		decay_mult: 0
	}
	convolution_param {
		num_output: 64
		pad: 1
		kernel_size: 3
		stride: 1
		weight_filler {
			type: "gaussian"
			std: 0.01
		}
		bias_filler {
			type: "constant"
		}
	}
}

layer{
	name: "conv4_1_stage2_res/branch3/conv_3×3/bn"
	type: "BN"
	bottom: "conv4_1_stage2_res/branch3/conv_3×3"
	top: "conv4_1_stage2_res/branch3/conv_3×3/bn"
	bn_param {
		frozen:true
	}
}

layer{
	name: "conv4_1_stage2_res/branch3/conv_3×3/bn/relu"
	type: "ReLU"
	bottom: "conv4_1_stage2_res/branch3/conv_3×3/bn"
	top: "conv4_1_stage2_res/branch3/conv_3×3/bn"
}

layer{
	name: "conv4_1_stage2_res/branch3/conv2_3×3"
	type: "Convolution"
	bottom: "conv4_1_stage2_res/branch3/conv_3×3/bn"
	top: "conv4_1_stage2_res/branch3/conv2_3×3"
	param{
		lr_mult: 1
		decay_mult: 1
	}
	param{
		lr_mult: 2
		decay_mult: 0
	}
	convolution_param {
		num_output: 64
		pad: 1
		kernel_size: 3
		stride: 1
		weight_filler {
			type: "gaussian"
			std: 0.01
		}
		bias_filler {
			type: "constant"
		}
	}
}

layer{
	name: "conv4_1_stage2_res/branch3/conv2_3×3/bn"
	type: "BN"
	bottom: "conv4_1_stage2_res/branch3/conv2_3×3"
	top: "conv4_1_stage2_res/branch3/conv2_3×3/bn"
	bn_param {
		frozen:true
	}
}

layer{
	name: "conv4_1_stage2_res/branch5/concat"
	type: "Concat"
	bottom: "conv4_1_stage2_res/branch1/conv_1×1_reduce/bn"
	bottom: "conv4_1_stage2_res/branch2/conv_3×3/bn"
	bottom: "conv4_1_stage2_res/branch3/conv2_3×3/bn"
	top: "conv4_1_stage2_res/branch5/concat"
	concat_param{
		axis: 1
	}
}

layer{
	name: "conv4_1_stage2_res/branch5/concat/relu"
	type: "ReLU"
	bottom: "conv4_1_stage2_res/branch5/concat"
	top: "conv4_1_stage2_res/branch5/concat"
}

layer{
	name: "conv4_1_stage2_res/branch5/conv_1×1_increase"
	type: "Convolution"
	bottom: "conv4_1_stage2_res/branch5/concat"
	top: "conv4_1_stage2_res/branch5/conv_1×1_increase"
	param{
		lr_mult: 1
		decay_mult: 1
	}
	param{
		lr_mult: 2
		decay_mult: 0
	}
	convolution_param {
		num_output: 128
		pad: 0
		kernel_size: 1
		stride: 1
		weight_filler {
			type: "gaussian"
			std: 0.01
		}
		bias_filler {
			type: "constant"
		}
	}
}

layer{
	name: "conv4_1_stage2_res/branch5/conv_1×1_increase/bn"
	type: "BN"
	bottom: "conv4_1_stage2_res/branch5/conv_1×1_increase"
	top: "conv4_1_stage2_res/branch5/conv_1×1_increase/bn"
	bn_param {
		frozen:true
	}
}

layer{
	name: "conv4_1_stage2_res"
	type: "Eltwise"
	bottom: "conv4_1_stage2_res/branch5/conv_1×1_increase/bn"
	bottom: "conv4_stage2_res"
	top: "conv4_1_stage2_res"
	eltwise_param {
		operation: SUM
	}
}

#ooooooooooooooooooooooooooooooooooooooooooooooooooooooooo
layer{
	name: "conv4_1_stage2_res/relu"
	type: "ReLU"
	bottom: "conv4_1_stage2_res"
	top: "conv4_1_stage2_res"
}

#aaaaaaaaaaaaaaaaaaaaaaaaaaaaaaaaaaaaaaaaaaaaaaaaaaaaaaaaaaaaaa
layer{
	name: "conv4_2_stage2_res/branch1/conv_1×1_reduce"
	type: "Convolution"
	bottom: "conv4_1_stage2_res"
	top: "conv4_2_stage2_res/branch1/conv_1×1_reduce"
	param{
		lr_mult: 1
		decay_mult: 1
	}
	param{
		lr_mult: 2
		decay_mult: 0
	}
	convolution_param {
		num_output: 64
		pad: 0
		kernel_size: 1
		stride: 1
		weight_filler {
			type: "gaussian"
			std: 0.01
		}
		bias_filler {
			type: "constant"
		}
	}
}

layer{
	name: "conv4_2_stage2_res/branch1/conv_1×1_reduce/bn"
	type: "BN"
	bottom: "conv4_2_stage2_res/branch1/conv_1×1_reduce"
	top: "conv4_2_stage2_res/branch1/conv_1×1_reduce/bn"
	bn_param {
		frozen:true
	}
}

layer{
	name: "conv4_2_stage2_res/branch2/conv_1×1_reduce"
	type: "Convolution"
	bottom: "conv4_1_stage2_res"
	top: "conv4_2_stage2_res/branch2/conv_1×1_reduce"
	param{
		lr_mult: 1
		decay_mult: 1
	}
	param{
		lr_mult: 2
		decay_mult: 0
	}
	convolution_param {
		num_output: 64
		pad: 0
		kernel_size: 1
		stride: 1
		weight_filler {
			type: "gaussian"
			std: 0.01
		}
		bias_filler {
			type: "constant"
		}
	}
}

layer{
	name: "conv4_2_stage2_res/branch2/conv_1×1_reduce/bn"
	type: "BN"
	bottom: "conv4_2_stage2_res/branch2/conv_1×1_reduce"
	top: "conv4_2_stage2_res/branch2/conv_1×1_reduce/bn"
	bn_param {
		frozen:true
	}
}

layer{
	name: "conv4_2_stage2_res/branch2/conv_1×1_reduce/bn/relu"
	type: "ReLU"
	bottom: "conv4_2_stage2_res/branch2/conv_1×1_reduce/bn"
	top: "conv4_2_stage2_res/branch2/conv_1×1_reduce/bn"
}

layer{
	name: "conv4_2_stage2_res/branch2/conv_3×3"
	type: "Convolution"
	bottom: "conv4_2_stage2_res/branch2/conv_1×1_reduce/bn"
	top: "conv4_2_stage2_res/branch2/conv_3×3"
	param{
		lr_mult: 1
		decay_mult: 1
	}
	param{
		lr_mult: 2
		decay_mult: 0
	}
	convolution_param {
		num_output: 64
		pad: 1
		kernel_size: 3
		stride: 1
		weight_filler {
			type: "gaussian"
			std: 0.01
		}
		bias_filler {
			type: "constant"
		}
	}
}

layer{
	name: "conv4_2_stage2_res/branch2/conv_3×3/bn"
	type: "BN"
	bottom: "conv4_2_stage2_res/branch2/conv_3×3"
	top: "conv4_2_stage2_res/branch2/conv_3×3/bn"
	bn_param {
		frozen:true
	}
}

layer{
	name: "conv4_2_stage2_res/branch3/conv_1×1_reduce"
	type: "Convolution"
	bottom: "conv4_1_stage2_res"
	top: "conv4_2_stage2_res/branch3/conv_1×1_reduce"
	param{
		lr_mult: 1
		decay_mult: 1
	}
	param{
		lr_mult: 2
		decay_mult: 0
	}
	convolution_param {
		num_output: 64
		pad: 0
		kernel_size: 1
		stride: 1
		weight_filler {
			type: "gaussian"
			std: 0.01
		}
		bias_filler {
			type: "constant"
		}
	}
}

layer{
	name: "conv4_2_stage2_res/branch3/conv_1×1_reduce/bn"
	type: "BN"
	bottom: "conv4_2_stage2_res/branch3/conv_1×1_reduce"
	top: "conv4_2_stage2_res/branch3/conv_1×1_reduce/bn"
	bn_param {
		frozen:true
	}
}

layer{
	name: "conv4_2_stage2_res/branch3/conv_1×1_reduce/bn/relu"
	type: "ReLU"
	bottom: "conv4_2_stage2_res/branch3/conv_1×1_reduce/bn"
	top: "conv4_2_stage2_res/branch3/conv_1×1_reduce/bn"
}

layer{
	name: "conv4_2_stage2_res/branch3/conv_3×3"
	type: "Convolution"
	bottom: "conv4_2_stage2_res/branch3/conv_1×1_reduce/bn"
	top: "conv4_2_stage2_res/branch3/conv_3×3"
	param{
		lr_mult: 1
		decay_mult: 1
	}
	param{
		lr_mult: 2
		decay_mult: 0
	}
	convolution_param {
		num_output: 64
		pad: 1
		kernel_size: 3
		stride: 1
		weight_filler {
			type: "gaussian"
			std: 0.01
		}
		bias_filler {
			type: "constant"
		}
	}
}

layer{
	name: "conv4_2_stage2_res/branch3/conv_3×3/bn"
	type: "BN"
	bottom: "conv4_2_stage2_res/branch3/conv_3×3"
	top: "conv4_2_stage2_res/branch3/conv_3×3/bn"
	bn_param {
		frozen:true
	}
}

layer{
	name: "conv4_2_stage2_res/branch3/conv_3×3/bn/relu"
	type: "ReLU"
	bottom: "conv4_2_stage2_res/branch3/conv_3×3/bn"
	top: "conv4_2_stage2_res/branch3/conv_3×3/bn"
}

layer{
	name: "conv4_2_stage2_res/branch3/conv2_3×3"
	type: "Convolution"
	bottom: "conv4_2_stage2_res/branch3/conv_3×3/bn"
	top: "conv4_2_stage2_res/branch3/conv2_3×3"
	param{
		lr_mult: 1
		decay_mult: 1
	}
	param{
		lr_mult: 2
		decay_mult: 0
	}
	convolution_param {
		num_output: 64
		pad: 1
		kernel_size: 3
		stride: 1
		weight_filler {
			type: "gaussian"
			std: 0.01
		}
		bias_filler {
			type: "constant"
		}
	}
}

layer{
	name: "conv4_2_stage2_res/branch3/conv2_3×3/bn"
	type: "BN"
	bottom: "conv4_2_stage2_res/branch3/conv2_3×3"
	top: "conv4_2_stage2_res/branch3/conv2_3×3/bn"
	bn_param {
		frozen:true
	}
}

layer{
	name: "conv4_2_stage2_res/branch5/concat"
	type: "Concat"
	bottom: "conv4_2_stage2_res/branch1/conv_1×1_reduce/bn"
	bottom: "conv4_2_stage2_res/branch2/conv_3×3/bn"
	bottom: "conv4_2_stage2_res/branch3/conv2_3×3/bn"
	top: "conv4_2_stage2_res/branch5/concat"
	concat_param{
		axis: 1
	}
}

layer{
	name: "conv4_2_stage2_res/branch5/concat/relu"
	type: "ReLU"
	bottom: "conv4_2_stage2_res/branch5/concat"
	top: "conv4_2_stage2_res/branch5/concat"
}

layer{
	name: "conv4_2_stage2_res/branch5/conv_1×1_increase"
	type: "Convolution"
	bottom: "conv4_2_stage2_res/branch5/concat"
	top: "conv4_2_stage2_res/branch5/conv_1×1_increase"
	param{
		lr_mult: 1
		decay_mult: 1
	}
	param{
		lr_mult: 2
		decay_mult: 0
	}
	convolution_param {
		num_output: 32
		pad: 0
		kernel_size: 1
		stride: 1
		weight_filler {
			type: "gaussian"
			std: 0.01
		}
		bias_filler {
			type: "constant"
		}
	}
}

layer{
	name: "conv4_2_stage2_res/branch5/conv_1×1_increase/bn"
	type: "BN"
	bottom: "conv4_2_stage2_res/branch5/conv_1×1_increase"
	top: "conv4_2_stage2_res/branch5/conv_1×1_increase/bn"
	bn_param {
		frozen:true
	}
}

layer{
	name: "conv4_2_stage2_res/branch6/conv_1×1_increase"
	type: "Convolution"
	bottom: "conv4_1_stage2_res"
	top: "conv4_2_stage2_res/branch6/conv_1×1_increase"
	param{
		lr_mult: 1
		decay_mult: 1
	}
	param{
		lr_mult: 2
		decay_mult: 0
	}
	convolution_param {
		num_output: 32
		pad: 0
		kernel_size: 1
		stride: 1
		weight_filler {
			type: "gaussian"
			std: 0.01
		}
		bias_filler {
			type: "constant"
		}
	}
}

layer{
	name: "conv4_2_stage2_res/branch6/conv_1×1_increase/bn"
	type: "BN"
	bottom: "conv4_2_stage2_res/branch6/conv_1×1_increase"
	top: "conv4_2_stage2_res/branch6/conv_1×1_increase/bn"
	bn_param {
		frozen:true
	}
}

layer{
	name: "conv4_2_stage2_res"
	type: "Eltwise"
	bottom: "conv4_2_stage2_res/branch5/conv_1×1_increase/bn"
	bottom: "conv4_2_stage2_res/branch6/conv_1×1_increase/bn"
	top: "conv4_2_stage2_res"
	eltwise_param {
		operation: SUM
	}
}

#ooooooooooooooooooooooooooooooooooooooooooooooooooooooooo
layer{
	name: "conv4_2_stage2_res/relu"
	type: "ReLU"
	bottom: "conv4_2_stage2_res"
	top: "conv4_2_stage2_res"
}

layer{
	name: "concat_stage2"
	type: "Concat"
	bottom: "conv4_2_stage2_res"
	bottom: "pool_center_lower"
	top: "concat_stage2"
	concat_param{
		axis: 1
	}
}

#aaaaaaaaaaaaaaaaaaaaaaaaaaaaaaaaaaaaaaaaaaaaaaaaaaaaaaaaaaaaaa
#aaaaaaaaaaaaaaaaaaaaaaaaaaaaaaaaaaaaaaaaaaaaaaaaaaaaaaaaaaaaaa
layer{
	name: "Mconv1_stage2_res/branchs_1/branch1/conv_1×1_reduce"
	type: "Convolution"
	bottom: "concat_stage2"
	top: "Mconv1_stage2_res/branchs_1/branch1/conv_1×1_reduce"
	param{
		lr_mult: 1
		decay_mult: 1
	}
	param{
		lr_mult: 2
		decay_mult: 0
	}
	convolution_param {
		num_output: 64
		pad: 0
		kernel_size: 1
		stride: 1
		weight_filler {
			type: "gaussian"
			std: 0.01
		}
		bias_filler {
			type: "constant"
		}
	}
}

layer{
	name: "Mconv1_stage2_res/branchs_1/branch1/conv_1×1_reduce/bn"
	type: "BN"
	bottom: "Mconv1_stage2_res/branchs_1/branch1/conv_1×1_reduce"
	top: "Mconv1_stage2_res/branchs_1/branch1/conv_1×1_reduce/bn"
	bn_param {
		frozen:true
	}
}

layer{
	name: "Mconv1_stage2_res/branchs_1/branch2/conv_1×1_reduce"
	type: "Convolution"
	bottom: "concat_stage2"
	top: "Mconv1_stage2_res/branchs_1/branch2/conv_1×1_reduce"
	param{
		lr_mult: 1
		decay_mult: 1
	}
	param{
		lr_mult: 2
		decay_mult: 0
	}
	convolution_param {
		num_output: 64
		pad: 0
		kernel_size: 1
		stride: 1
		weight_filler {
			type: "gaussian"
			std: 0.01
		}
		bias_filler {
			type: "constant"
		}
	}
}

layer{
	name: "Mconv1_stage2_res/branchs_1/branch2/conv_1×1_reduce/bn"
	type: "BN"
	bottom: "Mconv1_stage2_res/branchs_1/branch2/conv_1×1_reduce"
	top: "Mconv1_stage2_res/branchs_1/branch2/conv_1×1_reduce/bn"
	bn_param {
		frozen:true
	}
}

layer{
	name: "Mconv1_stage2_res/branchs_1/branch2/conv_1×1_reduce/bn/relu"
	type: "ReLU"
	bottom: "Mconv1_stage2_res/branchs_1/branch2/conv_1×1_reduce/bn"
	top: "Mconv1_stage2_res/branchs_1/branch2/conv_1×1_reduce/bn"
}

layer{
	name: "Mconv1_stage2_res/branchs_1/branch2/conv_3×3"
	type: "Convolution"
	bottom: "Mconv1_stage2_res/branchs_1/branch2/conv_1×1_reduce/bn"
	top: "Mconv1_stage2_res/branchs_1/branch2/conv_3×3"
	param{
		lr_mult: 1
		decay_mult: 1
	}
	param{
		lr_mult: 2
		decay_mult: 0
	}
	convolution_param {
		num_output: 64
		pad: 1
		kernel_size: 3
		stride: 1
		weight_filler {
			type: "gaussian"
			std: 0.01
		}
		bias_filler {
			type: "constant"
		}
	}
}

layer{
	name: "Mconv1_stage2_res/branchs_1/branch2/conv_3×3/bn"
	type: "BN"
	bottom: "Mconv1_stage2_res/branchs_1/branch2/conv_3×3"
	top: "Mconv1_stage2_res/branchs_1/branch2/conv_3×3/bn"
	bn_param {
		frozen:true
	}
}

layer{
	name: "Mconv1_stage2_res/branchs_1/branch3/conv_1×1_reduce"
	type: "Convolution"
	bottom: "concat_stage2"
	top: "Mconv1_stage2_res/branchs_1/branch3/conv_1×1_reduce"
	param{
		lr_mult: 1
		decay_mult: 1
	}
	param{
		lr_mult: 2
		decay_mult: 0
	}
	convolution_param {
		num_output: 64
		pad: 0
		kernel_size: 1
		stride: 1
		weight_filler {
			type: "gaussian"
			std: 0.01
		}
		bias_filler {
			type: "constant"
		}
	}
}

layer{
	name: "Mconv1_stage2_res/branchs_1/branch3/conv_1×1_reduce/bn"
	type: "BN"
	bottom: "Mconv1_stage2_res/branchs_1/branch3/conv_1×1_reduce"
	top: "Mconv1_stage2_res/branchs_1/branch3/conv_1×1_reduce/bn"
	bn_param {
		frozen:true
	}
}

layer{
	name: "Mconv1_stage2_res/branchs_1/branch3/conv_1×1_reduce/bn/relu"
	type: "ReLU"
	bottom: "Mconv1_stage2_res/branchs_1/branch3/conv_1×1_reduce/bn"
	top: "Mconv1_stage2_res/branchs_1/branch3/conv_1×1_reduce/bn"
}

layer{
	name: "Mconv1_stage2_res/branchs_1/branch3/conv_3×3"
	type: "Convolution"
	bottom: "Mconv1_stage2_res/branchs_1/branch3/conv_1×1_reduce/bn"
	top: "Mconv1_stage2_res/branchs_1/branch3/conv_3×3"
	param{
		lr_mult: 1
		decay_mult: 1
	}
	param{
		lr_mult: 2
		decay_mult: 0
	}
	convolution_param {
		num_output: 64
		pad: 1
		kernel_size: 3
		stride: 1
		weight_filler {
			type: "gaussian"
			std: 0.01
		}
		bias_filler {
			type: "constant"
		}
	}
}

layer{
	name: "Mconv1_stage2_res/branchs_1/branch3/conv_3×3/bn"
	type: "BN"
	bottom: "Mconv1_stage2_res/branchs_1/branch3/conv_3×3"
	top: "Mconv1_stage2_res/branchs_1/branch3/conv_3×3/bn"
	bn_param {
		frozen:true
	}
}

layer{
	name: "Mconv1_stage2_res/branchs_1/branch3/conv_3×3/bn/relu"
	type: "ReLU"
	bottom: "Mconv1_stage2_res/branchs_1/branch3/conv_3×3/bn"
	top: "Mconv1_stage2_res/branchs_1/branch3/conv_3×3/bn"
}

layer{
	name: "Mconv1_stage2_res/branchs_1/branch3/conv2_3×3"
	type: "Convolution"
	bottom: "Mconv1_stage2_res/branchs_1/branch3/conv_3×3/bn"
	top: "Mconv1_stage2_res/branchs_1/branch3/conv2_3×3"
	param{
		lr_mult: 1
		decay_mult: 1
	}
	param{
		lr_mult: 2
		decay_mult: 0
	}
	convolution_param {
		num_output: 64
		pad: 1
		kernel_size: 3
		stride: 1
		weight_filler {
			type: "gaussian"
			std: 0.01
		}
		bias_filler {
			type: "constant"
		}
	}
}

layer{
	name: "Mconv1_stage2_res/branchs_1/branch3/conv2_3×3/bn"
	type: "BN"
	bottom: "Mconv1_stage2_res/branchs_1/branch3/conv2_3×3"
	top: "Mconv1_stage2_res/branchs_1/branch3/conv2_3×3/bn"
	bn_param {
		frozen:true
	}
}

layer{
	name: "Mconv1_stage2_res/branchs_1/branch5/concat"
	type: "Concat"
	bottom: "Mconv1_stage2_res/branchs_1/branch1/conv_1×1_reduce/bn"
	bottom: "Mconv1_stage2_res/branchs_1/branch2/conv_3×3/bn"
	bottom: "Mconv1_stage2_res/branchs_1/branch3/conv2_3×3/bn"
	top: "Mconv1_stage2_res/branchs_1/branch5/concat"
	concat_param{
		axis: 1
	}
}

layer{
	name: "Mconv1_stage2_res/branchs_1/branch5/concat/relu"
	type: "ReLU"
	bottom: "Mconv1_stage2_res/branchs_1/branch5/concat"
	top: "Mconv1_stage2_res/branchs_1/branch5/concat"
}

layer{
	name: "Mconv1_stage2_res/branchs_1/branch5/conv_1×1_increase"
	type: "Convolution"
	bottom: "Mconv1_stage2_res/branchs_1/branch5/concat"
	top: "Mconv1_stage2_res/branchs_1/branch5/conv_1×1_increase"
	param{
		lr_mult: 1
		decay_mult: 1
	}
	param{
		lr_mult: 2
		decay_mult: 0
	}
	convolution_param {
		num_output: 128
		pad: 0
		kernel_size: 1
		stride: 1
		weight_filler {
			type: "gaussian"
			std: 0.01
		}
		bias_filler {
			type: "constant"
		}
	}
}

layer{
	name: "Mconv1_stage2_res/branchs_1/branch5/conv_1×1_increase/bn"
	type: "BN"
	bottom: "Mconv1_stage2_res/branchs_1/branch5/conv_1×1_increase"
	top: "Mconv1_stage2_res/branchs_1/branch5/conv_1×1_increase/bn"
	bn_param {
		frozen:true
	}
}

layer{
	name: "Mconv1_stage2_res/branchs_1/branch6/conv_1×1_increase"
	type: "Convolution"
	bottom: "concat_stage2"
	top: "Mconv1_stage2_res/branchs_1/branch6/conv_1×1_increase"
	param{
		lr_mult: 1
		decay_mult: 1
	}
	param{
		lr_mult: 2
		decay_mult: 0
	}
	convolution_param {
		num_output: 128
		pad: 0
		kernel_size: 1
		stride: 1
		weight_filler {
			type: "gaussian"
			std: 0.01
		}
		bias_filler {
			type: "constant"
		}
	}
}

layer{
	name: "Mconv1_stage2_res/branchs_1/branch6/conv_1×1_increase/bn"
	type: "BN"
	bottom: "Mconv1_stage2_res/branchs_1/branch6/conv_1×1_increase"
	top: "Mconv1_stage2_res/branchs_1/branch6/conv_1×1_increase/bn"
	bn_param {
		frozen:true
	}
}

layer{
	name: "Mconv1_stage2_res/branchs_1"
	type: "Eltwise"
	bottom: "Mconv1_stage2_res/branchs_1/branch5/conv_1×1_increase/bn"
	bottom: "Mconv1_stage2_res/branchs_1/branch6/conv_1×1_increase/bn"
	top: "Mconv1_stage2_res/branchs_1"
	eltwise_param {
		operation: SUM
	}
}

#ooooooooooooooooooooooooooooooooooooooooooooooooooooooooo
layer{
	name: "Mconv1_stage2_res/branchs_1/relu"
	type: "ReLU"
	bottom: "Mconv1_stage2_res/branchs_1"
	top: "Mconv1_stage2_res/branchs_1"
}

layer{
	name: "Mconv1_stage2_res/branchs/conv_1×1_reduce"
	type: "Convolution"
	bottom: "Mconv1_stage2_res/branchs_1"
	top: "Mconv1_stage2_res/branchs/conv_1×1_reduce"
	param{
		lr_mult: 1
		decay_mult: 1
	}
	param{
		lr_mult: 2
		decay_mult: 0
	}
	convolution_param {
		num_output: 64
		pad: 0
		kernel_size: 1
		stride: 1
		weight_filler {
			type: "gaussian"
			std: 0.01
		}
		bias_filler {
			type: "constant"
		}
	}
}

#aaaaaaaaaaaaaaaaaaaaaaaaaaaaaaaaaaaaaaaaaaaaaaaaaaaaaaaaaaaaaa
layer{
	name: "Mconv1_stage2_res/branchm_1/branch1/conv_1×1_reduce"
	type: "Convolution"
	bottom: "concat_stage2"
	top: "Mconv1_stage2_res/branchm_1/branch1/conv_1×1_reduce"
	param{
		lr_mult: 1
		decay_mult: 1
	}
	param{
		lr_mult: 2
		decay_mult: 0
	}
	convolution_param {
		num_output: 64
		pad: 0
		kernel_size: 1
		stride: 1
		weight_filler {
			type: "gaussian"
			std: 0.01
		}
		bias_filler {
			type: "constant"
		}
	}
}

layer{
	name: "Mconv1_stage2_res/branchm_1/branch1/conv_1×1_reduce/bn"
	type: "BN"
	bottom: "Mconv1_stage2_res/branchm_1/branch1/conv_1×1_reduce"
	top: "Mconv1_stage2_res/branchm_1/branch1/conv_1×1_reduce/bn"
	bn_param {
		frozen:true
	}
}

layer{
	name: "Mconv1_stage2_res/branchm_1/branch2/conv_1×1_reduce"
	type: "Convolution"
	bottom: "concat_stage2"
	top: "Mconv1_stage2_res/branchm_1/branch2/conv_1×1_reduce"
	param{
		lr_mult: 1
		decay_mult: 1
	}
	param{
		lr_mult: 2
		decay_mult: 0
	}
	convolution_param {
		num_output: 64
		pad: 0
		kernel_size: 1
		stride: 1
		weight_filler {
			type: "gaussian"
			std: 0.01
		}
		bias_filler {
			type: "constant"
		}
	}
}

layer{
	name: "Mconv1_stage2_res/branchm_1/branch2/conv_1×1_reduce/bn"
	type: "BN"
	bottom: "Mconv1_stage2_res/branchm_1/branch2/conv_1×1_reduce"
	top: "Mconv1_stage2_res/branchm_1/branch2/conv_1×1_reduce/bn"
	bn_param {
		frozen:true
	}
}

layer{
	name: "Mconv1_stage2_res/branchm_1/branch2/conv_1×1_reduce/bn/relu"
	type: "ReLU"
	bottom: "Mconv1_stage2_res/branchm_1/branch2/conv_1×1_reduce/bn"
	top: "Mconv1_stage2_res/branchm_1/branch2/conv_1×1_reduce/bn"
}

layer{
	name: "Mconv1_stage2_res/branchm_1/branch2/conv_3×3"
	type: "Convolution"
	bottom: "Mconv1_stage2_res/branchm_1/branch2/conv_1×1_reduce/bn"
	top: "Mconv1_stage2_res/branchm_1/branch2/conv_3×3"
	param{
		lr_mult: 1
		decay_mult: 1
	}
	param{
		lr_mult: 2
		decay_mult: 0
	}
	convolution_param {
		num_output: 64
		pad: 1
		kernel_size: 3
		stride: 1
		weight_filler {
			type: "gaussian"
			std: 0.01
		}
		bias_filler {
			type: "constant"
		}
	}
}

layer{
	name: "Mconv1_stage2_res/branchm_1/branch2/conv_3×3/bn"
	type: "BN"
	bottom: "Mconv1_stage2_res/branchm_1/branch2/conv_3×3"
	top: "Mconv1_stage2_res/branchm_1/branch2/conv_3×3/bn"
	bn_param {
		frozen:true
	}
}

layer{
	name: "Mconv1_stage2_res/branchm_1/branch3/conv_1×1_reduce"
	type: "Convolution"
	bottom: "concat_stage2"
	top: "Mconv1_stage2_res/branchm_1/branch3/conv_1×1_reduce"
	param{
		lr_mult: 1
		decay_mult: 1
	}
	param{
		lr_mult: 2
		decay_mult: 0
	}
	convolution_param {
		num_output: 64
		pad: 0
		kernel_size: 1
		stride: 1
		weight_filler {
			type: "gaussian"
			std: 0.01
		}
		bias_filler {
			type: "constant"
		}
	}
}

layer{
	name: "Mconv1_stage2_res/branchm_1/branch3/conv_1×1_reduce/bn"
	type: "BN"
	bottom: "Mconv1_stage2_res/branchm_1/branch3/conv_1×1_reduce"
	top: "Mconv1_stage2_res/branchm_1/branch3/conv_1×1_reduce/bn"
	bn_param {
		frozen:true
	}
}

layer{
	name: "Mconv1_stage2_res/branchm_1/branch3/conv_1×1_reduce/bn/relu"
	type: "ReLU"
	bottom: "Mconv1_stage2_res/branchm_1/branch3/conv_1×1_reduce/bn"
	top: "Mconv1_stage2_res/branchm_1/branch3/conv_1×1_reduce/bn"
}

layer{
	name: "Mconv1_stage2_res/branchm_1/branch3/conv_3×3"
	type: "Convolution"
	bottom: "Mconv1_stage2_res/branchm_1/branch3/conv_1×1_reduce/bn"
	top: "Mconv1_stage2_res/branchm_1/branch3/conv_3×3"
	param{
		lr_mult: 1
		decay_mult: 1
	}
	param{
		lr_mult: 2
		decay_mult: 0
	}
	convolution_param {
		num_output: 64
		pad: 1
		kernel_size: 3
		stride: 1
		weight_filler {
			type: "gaussian"
			std: 0.01
		}
		bias_filler {
			type: "constant"
		}
	}
}

layer{
	name: "Mconv1_stage2_res/branchm_1/branch3/conv_3×3/bn"
	type: "BN"
	bottom: "Mconv1_stage2_res/branchm_1/branch3/conv_3×3"
	top: "Mconv1_stage2_res/branchm_1/branch3/conv_3×3/bn"
	bn_param {
		frozen:true
	}
}

layer{
	name: "Mconv1_stage2_res/branchm_1/branch3/conv_3×3/bn/relu"
	type: "ReLU"
	bottom: "Mconv1_stage2_res/branchm_1/branch3/conv_3×3/bn"
	top: "Mconv1_stage2_res/branchm_1/branch3/conv_3×3/bn"
}

layer{
	name: "Mconv1_stage2_res/branchm_1/branch3/conv2_3×3"
	type: "Convolution"
	bottom: "Mconv1_stage2_res/branchm_1/branch3/conv_3×3/bn"
	top: "Mconv1_stage2_res/branchm_1/branch3/conv2_3×3"
	param{
		lr_mult: 1
		decay_mult: 1
	}
	param{
		lr_mult: 2
		decay_mult: 0
	}
	convolution_param {
		num_output: 64
		pad: 1
		kernel_size: 3
		stride: 1
		weight_filler {
			type: "gaussian"
			std: 0.01
		}
		bias_filler {
			type: "constant"
		}
	}
}

layer{
	name: "Mconv1_stage2_res/branchm_1/branch3/conv2_3×3/bn"
	type: "BN"
	bottom: "Mconv1_stage2_res/branchm_1/branch3/conv2_3×3"
	top: "Mconv1_stage2_res/branchm_1/branch3/conv2_3×3/bn"
	bn_param {
		frozen:true
	}
}

layer{
	name: "Mconv1_stage2_res/branchm_1/branch5/concat"
	type: "Concat"
	bottom: "Mconv1_stage2_res/branchm_1/branch1/conv_1×1_reduce/bn"
	bottom: "Mconv1_stage2_res/branchm_1/branch2/conv_3×3/bn"
	bottom: "Mconv1_stage2_res/branchm_1/branch3/conv2_3×3/bn"
	top: "Mconv1_stage2_res/branchm_1/branch5/concat"
	concat_param{
		axis: 1
	}
}

layer{
	name: "Mconv1_stage2_res/branchm_1/branch5/concat/relu"
	type: "ReLU"
	bottom: "Mconv1_stage2_res/branchm_1/branch5/concat"
	top: "Mconv1_stage2_res/branchm_1/branch5/concat"
}

layer{
	name: "Mconv1_stage2_res/branchm_1/branch5/conv_1×1_increase"
	type: "Convolution"
	bottom: "Mconv1_stage2_res/branchm_1/branch5/concat"
	top: "Mconv1_stage2_res/branchm_1/branch5/conv_1×1_increase"
	param{
		lr_mult: 1
		decay_mult: 1
	}
	param{
		lr_mult: 2
		decay_mult: 0
	}
	convolution_param {
		num_output: 128
		pad: 0
		kernel_size: 1
		stride: 1
		weight_filler {
			type: "gaussian"
			std: 0.01
		}
		bias_filler {
			type: "constant"
		}
	}
}

layer{
	name: "Mconv1_stage2_res/branchm_1/branch5/conv_1×1_increase/bn"
	type: "BN"
	bottom: "Mconv1_stage2_res/branchm_1/branch5/conv_1×1_increase"
	top: "Mconv1_stage2_res/branchm_1/branch5/conv_1×1_increase/bn"
	bn_param {
		frozen:true
	}
}

layer{
	name: "Mconv1_stage2_res/branchm_1/branch6/conv_1×1_increase"
	type: "Convolution"
	bottom: "concat_stage2"
	top: "Mconv1_stage2_res/branchm_1/branch6/conv_1×1_increase"
	param{
		lr_mult: 1
		decay_mult: 1
	}
	param{
		lr_mult: 2
		decay_mult: 0
	}
	convolution_param {
		num_output: 128
		pad: 0
		kernel_size: 1
		stride: 1
		weight_filler {
			type: "gaussian"
			std: 0.01
		}
		bias_filler {
			type: "constant"
		}
	}
}

layer{
	name: "Mconv1_stage2_res/branchm_1/branch6/conv_1×1_increase/bn"
	type: "BN"
	bottom: "Mconv1_stage2_res/branchm_1/branch6/conv_1×1_increase"
	top: "Mconv1_stage2_res/branchm_1/branch6/conv_1×1_increase/bn"
	bn_param {
		frozen:true
	}
}

layer{
	name: "Mconv1_stage2_res/branchm_1"
	type: "Eltwise"
	bottom: "Mconv1_stage2_res/branchm_1/branch5/conv_1×1_increase/bn"
	bottom: "Mconv1_stage2_res/branchm_1/branch6/conv_1×1_increase/bn"
	top: "Mconv1_stage2_res/branchm_1"
	eltwise_param {
		operation: SUM
	}
}

#ooooooooooooooooooooooooooooooooooooooooooooooooooooooooo
layer{
	name: "Mconv1_stage2_res/branchm_1/relu"
	type: "ReLU"
	bottom: "Mconv1_stage2_res/branchm_1"
	top: "Mconv1_stage2_res/branchm_1"
}

#aaaaaaaaaaaaaaaaaaaaaaaaaaaaaaaaaaaaaaaaaaaaaaaaaaaaaaaaaaaaaa
layer{
	name: "Mconv1_stage2_res/branchm_2/branch1/conv_1×1_reduce"
	type: "Convolution"
	bottom: "Mconv1_stage2_res/branchm_1"
	top: "Mconv1_stage2_res/branchm_2/branch1/conv_1×1_reduce"
	param{
		lr_mult: 1
		decay_mult: 1
	}
	param{
		lr_mult: 2
		decay_mult: 0
	}
	convolution_param {
		num_output: 64
		pad: 0
		kernel_size: 1
		stride: 1
		weight_filler {
			type: "gaussian"
			std: 0.01
		}
		bias_filler {
			type: "constant"
		}
	}
}

layer{
	name: "Mconv1_stage2_res/branchm_2/branch1/conv_1×1_reduce/bn"
	type: "BN"
	bottom: "Mconv1_stage2_res/branchm_2/branch1/conv_1×1_reduce"
	top: "Mconv1_stage2_res/branchm_2/branch1/conv_1×1_reduce/bn"
	bn_param {
		frozen:true
	}
}

layer{
	name: "Mconv1_stage2_res/branchm_2/branch2/conv_1×1_reduce"
	type: "Convolution"
	bottom: "Mconv1_stage2_res/branchm_1"
	top: "Mconv1_stage2_res/branchm_2/branch2/conv_1×1_reduce"
	param{
		lr_mult: 1
		decay_mult: 1
	}
	param{
		lr_mult: 2
		decay_mult: 0
	}
	convolution_param {
		num_output: 64
		pad: 0
		kernel_size: 1
		stride: 1
		weight_filler {
			type: "gaussian"
			std: 0.01
		}
		bias_filler {
			type: "constant"
		}
	}
}

layer{
	name: "Mconv1_stage2_res/branchm_2/branch2/conv_1×1_reduce/bn"
	type: "BN"
	bottom: "Mconv1_stage2_res/branchm_2/branch2/conv_1×1_reduce"
	top: "Mconv1_stage2_res/branchm_2/branch2/conv_1×1_reduce/bn"
	bn_param {
		frozen:true
	}
}

layer{
	name: "Mconv1_stage2_res/branchm_2/branch2/conv_1×1_reduce/bn/relu"
	type: "ReLU"
	bottom: "Mconv1_stage2_res/branchm_2/branch2/conv_1×1_reduce/bn"
	top: "Mconv1_stage2_res/branchm_2/branch2/conv_1×1_reduce/bn"
}

layer{
	name: "Mconv1_stage2_res/branchm_2/branch2/conv_3×3"
	type: "Convolution"
	bottom: "Mconv1_stage2_res/branchm_2/branch2/conv_1×1_reduce/bn"
	top: "Mconv1_stage2_res/branchm_2/branch2/conv_3×3"
	param{
		lr_mult: 1
		decay_mult: 1
	}
	param{
		lr_mult: 2
		decay_mult: 0
	}
	convolution_param {
		num_output: 64
		pad: 1
		kernel_size: 3
		stride: 1
		weight_filler {
			type: "gaussian"
			std: 0.01
		}
		bias_filler {
			type: "constant"
		}
	}
}

layer{
	name: "Mconv1_stage2_res/branchm_2/branch2/conv_3×3/bn"
	type: "BN"
	bottom: "Mconv1_stage2_res/branchm_2/branch2/conv_3×3"
	top: "Mconv1_stage2_res/branchm_2/branch2/conv_3×3/bn"
	bn_param {
		frozen:true
	}
}

layer{
	name: "Mconv1_stage2_res/branchm_2/branch3/conv_1×1_reduce"
	type: "Convolution"
	bottom: "Mconv1_stage2_res/branchm_1"
	top: "Mconv1_stage2_res/branchm_2/branch3/conv_1×1_reduce"
	param{
		lr_mult: 1
		decay_mult: 1
	}
	param{
		lr_mult: 2
		decay_mult: 0
	}
	convolution_param {
		num_output: 64
		pad: 0
		kernel_size: 1
		stride: 1
		weight_filler {
			type: "gaussian"
			std: 0.01
		}
		bias_filler {
			type: "constant"
		}
	}
}

layer{
	name: "Mconv1_stage2_res/branchm_2/branch3/conv_1×1_reduce/bn"
	type: "BN"
	bottom: "Mconv1_stage2_res/branchm_2/branch3/conv_1×1_reduce"
	top: "Mconv1_stage2_res/branchm_2/branch3/conv_1×1_reduce/bn"
	bn_param {
		frozen:true
	}
}

layer{
	name: "Mconv1_stage2_res/branchm_2/branch3/conv_1×1_reduce/bn/relu"
	type: "ReLU"
	bottom: "Mconv1_stage2_res/branchm_2/branch3/conv_1×1_reduce/bn"
	top: "Mconv1_stage2_res/branchm_2/branch3/conv_1×1_reduce/bn"
}

layer{
	name: "Mconv1_stage2_res/branchm_2/branch3/conv_3×3"
	type: "Convolution"
	bottom: "Mconv1_stage2_res/branchm_2/branch3/conv_1×1_reduce/bn"
	top: "Mconv1_stage2_res/branchm_2/branch3/conv_3×3"
	param{
		lr_mult: 1
		decay_mult: 1
	}
	param{
		lr_mult: 2
		decay_mult: 0
	}
	convolution_param {
		num_output: 64
		pad: 1
		kernel_size: 3
		stride: 1
		weight_filler {
			type: "gaussian"
			std: 0.01
		}
		bias_filler {
			type: "constant"
		}
	}
}

layer{
	name: "Mconv1_stage2_res/branchm_2/branch3/conv_3×3/bn"
	type: "BN"
	bottom: "Mconv1_stage2_res/branchm_2/branch3/conv_3×3"
	top: "Mconv1_stage2_res/branchm_2/branch3/conv_3×3/bn"
	bn_param {
		frozen:true
	}
}

layer{
	name: "Mconv1_stage2_res/branchm_2/branch3/conv_3×3/bn/relu"
	type: "ReLU"
	bottom: "Mconv1_stage2_res/branchm_2/branch3/conv_3×3/bn"
	top: "Mconv1_stage2_res/branchm_2/branch3/conv_3×3/bn"
}

layer{
	name: "Mconv1_stage2_res/branchm_2/branch3/conv2_3×3"
	type: "Convolution"
	bottom: "Mconv1_stage2_res/branchm_2/branch3/conv_3×3/bn"
	top: "Mconv1_stage2_res/branchm_2/branch3/conv2_3×3"
	param{
		lr_mult: 1
		decay_mult: 1
	}
	param{
		lr_mult: 2
		decay_mult: 0
	}
	convolution_param {
		num_output: 64
		pad: 1
		kernel_size: 3
		stride: 1
		weight_filler {
			type: "gaussian"
			std: 0.01
		}
		bias_filler {
			type: "constant"
		}
	}
}

layer{
	name: "Mconv1_stage2_res/branchm_2/branch3/conv2_3×3/bn"
	type: "BN"
	bottom: "Mconv1_stage2_res/branchm_2/branch3/conv2_3×3"
	top: "Mconv1_stage2_res/branchm_2/branch3/conv2_3×3/bn"
	bn_param {
		frozen:true
	}
}

layer{
	name: "Mconv1_stage2_res/branchm_2/branch5/concat"
	type: "Concat"
	bottom: "Mconv1_stage2_res/branchm_2/branch1/conv_1×1_reduce/bn"
	bottom: "Mconv1_stage2_res/branchm_2/branch2/conv_3×3/bn"
	bottom: "Mconv1_stage2_res/branchm_2/branch3/conv2_3×3/bn"
	top: "Mconv1_stage2_res/branchm_2/branch5/concat"
	concat_param{
		axis: 1
	}
}

layer{
	name: "Mconv1_stage2_res/branchm_2/branch5/concat/relu"
	type: "ReLU"
	bottom: "Mconv1_stage2_res/branchm_2/branch5/concat"
	top: "Mconv1_stage2_res/branchm_2/branch5/concat"
}

layer{
	name: "Mconv1_stage2_res/branchm_2/branch5/conv_1×1_increase"
	type: "Convolution"
	bottom: "Mconv1_stage2_res/branchm_2/branch5/concat"
	top: "Mconv1_stage2_res/branchm_2/branch5/conv_1×1_increase"
	param{
		lr_mult: 1
		decay_mult: 1
	}
	param{
		lr_mult: 2
		decay_mult: 0
	}
	convolution_param {
		num_output: 128
		pad: 0
		kernel_size: 1
		stride: 1
		weight_filler {
			type: "gaussian"
			std: 0.01
		}
		bias_filler {
			type: "constant"
		}
	}
}

layer{
	name: "Mconv1_stage2_res/branchm_2/branch5/conv_1×1_increase/bn"
	type: "BN"
	bottom: "Mconv1_stage2_res/branchm_2/branch5/conv_1×1_increase"
	top: "Mconv1_stage2_res/branchm_2/branch5/conv_1×1_increase/bn"
	bn_param {
		frozen:true
	}
}

layer{
	name: "Mconv1_stage2_res/branchm_2"
	type: "Eltwise"
	bottom: "Mconv1_stage2_res/branchm_2/branch5/conv_1×1_increase/bn"
	bottom: "Mconv1_stage2_res/branchm_1"
	top: "Mconv1_stage2_res/branchm_2"
	eltwise_param {
		operation: SUM
	}
}

#ooooooooooooooooooooooooooooooooooooooooooooooooooooooooo
layer{
	name: "Mconv1_stage2_res/branchm_2/relu"
	type: "ReLU"
	bottom: "Mconv1_stage2_res/branchm_2"
	top: "Mconv1_stage2_res/branchm_2"
}

layer{
	name: "Mconv1_stage2_res/branchm/conv_1×1_reduce"
	type: "Convolution"
	bottom: "Mconv1_stage2_res/branchm_2"
	top: "Mconv1_stage2_res/branchm/conv_1×1_reduce"
	param{
		lr_mult: 1
		decay_mult: 1
	}
	param{
		lr_mult: 2
		decay_mult: 0
	}
	convolution_param {
		num_output: 64
		pad: 0
		kernel_size: 1
		stride: 1
		weight_filler {
			type: "gaussian"
			std: 0.01
		}
		bias_filler {
			type: "constant"
		}
	}
}

#aaaaaaaaaaaaaaaaaaaaaaaaaaaaaaaaaaaaaaaaaaaaaaaaaaaaaaaaaaaaaa
layer{
	name: "Mconv1_stage2_res/branchl_1/branch1/conv_1×1_reduce"
	type: "Convolution"
	bottom: "concat_stage2"
	top: "Mconv1_stage2_res/branchl_1/branch1/conv_1×1_reduce"
	param{
		lr_mult: 1
		decay_mult: 1
	}
	param{
		lr_mult: 2
		decay_mult: 0
	}
	convolution_param {
		num_output: 64
		pad: 0
		kernel_size: 1
		stride: 1
		weight_filler {
			type: "gaussian"
			std: 0.01
		}
		bias_filler {
			type: "constant"
		}
	}
}

layer{
	name: "Mconv1_stage2_res/branchl_1/branch1/conv_1×1_reduce/bn"
	type: "BN"
	bottom: "Mconv1_stage2_res/branchl_1/branch1/conv_1×1_reduce"
	top: "Mconv1_stage2_res/branchl_1/branch1/conv_1×1_reduce/bn"
	bn_param {
		frozen:true
	}
}

layer{
	name: "Mconv1_stage2_res/branchl_1/branch2/conv_1×1_reduce"
	type: "Convolution"
	bottom: "concat_stage2"
	top: "Mconv1_stage2_res/branchl_1/branch2/conv_1×1_reduce"
	param{
		lr_mult: 1
		decay_mult: 1
	}
	param{
		lr_mult: 2
		decay_mult: 0
	}
	convolution_param {
		num_output: 64
		pad: 0
		kernel_size: 1
		stride: 1
		weight_filler {
			type: "gaussian"
			std: 0.01
		}
		bias_filler {
			type: "constant"
		}
	}
}

layer{
	name: "Mconv1_stage2_res/branchl_1/branch2/conv_1×1_reduce/bn"
	type: "BN"
	bottom: "Mconv1_stage2_res/branchl_1/branch2/conv_1×1_reduce"
	top: "Mconv1_stage2_res/branchl_1/branch2/conv_1×1_reduce/bn"
	bn_param {
		frozen:true
	}
}

layer{
	name: "Mconv1_stage2_res/branchl_1/branch2/conv_1×1_reduce/bn/relu"
	type: "ReLU"
	bottom: "Mconv1_stage2_res/branchl_1/branch2/conv_1×1_reduce/bn"
	top: "Mconv1_stage2_res/branchl_1/branch2/conv_1×1_reduce/bn"
}

layer{
	name: "Mconv1_stage2_res/branchl_1/branch2/conv_3×3"
	type: "Convolution"
	bottom: "Mconv1_stage2_res/branchl_1/branch2/conv_1×1_reduce/bn"
	top: "Mconv1_stage2_res/branchl_1/branch2/conv_3×3"
	param{
		lr_mult: 1
		decay_mult: 1
	}
	param{
		lr_mult: 2
		decay_mult: 0
	}
	convolution_param {
		num_output: 64
		pad: 1
		kernel_size: 3
		stride: 1
		weight_filler {
			type: "gaussian"
			std: 0.01
		}
		bias_filler {
			type: "constant"
		}
	}
}

layer{
	name: "Mconv1_stage2_res/branchl_1/branch2/conv_3×3/bn"
	type: "BN"
	bottom: "Mconv1_stage2_res/branchl_1/branch2/conv_3×3"
	top: "Mconv1_stage2_res/branchl_1/branch2/conv_3×3/bn"
	bn_param {
		frozen:true
	}
}

layer{
	name: "Mconv1_stage2_res/branchl_1/branch3/conv_1×1_reduce"
	type: "Convolution"
	bottom: "concat_stage2"
	top: "Mconv1_stage2_res/branchl_1/branch3/conv_1×1_reduce"
	param{
		lr_mult: 1
		decay_mult: 1
	}
	param{
		lr_mult: 2
		decay_mult: 0
	}
	convolution_param {
		num_output: 64
		pad: 0
		kernel_size: 1
		stride: 1
		weight_filler {
			type: "gaussian"
			std: 0.01
		}
		bias_filler {
			type: "constant"
		}
	}
}

layer{
	name: "Mconv1_stage2_res/branchl_1/branch3/conv_1×1_reduce/bn"
	type: "BN"
	bottom: "Mconv1_stage2_res/branchl_1/branch3/conv_1×1_reduce"
	top: "Mconv1_stage2_res/branchl_1/branch3/conv_1×1_reduce/bn"
	bn_param {
		frozen:true
	}
}

layer{
	name: "Mconv1_stage2_res/branchl_1/branch3/conv_1×1_reduce/bn/relu"
	type: "ReLU"
	bottom: "Mconv1_stage2_res/branchl_1/branch3/conv_1×1_reduce/bn"
	top: "Mconv1_stage2_res/branchl_1/branch3/conv_1×1_reduce/bn"
}

layer{
	name: "Mconv1_stage2_res/branchl_1/branch3/conv_3×3"
	type: "Convolution"
	bottom: "Mconv1_stage2_res/branchl_1/branch3/conv_1×1_reduce/bn"
	top: "Mconv1_stage2_res/branchl_1/branch3/conv_3×3"
	param{
		lr_mult: 1
		decay_mult: 1
	}
	param{
		lr_mult: 2
		decay_mult: 0
	}
	convolution_param {
		num_output: 64
		pad: 1
		kernel_size: 3
		stride: 1
		weight_filler {
			type: "gaussian"
			std: 0.01
		}
		bias_filler {
			type: "constant"
		}
	}
}

layer{
	name: "Mconv1_stage2_res/branchl_1/branch3/conv_3×3/bn"
	type: "BN"
	bottom: "Mconv1_stage2_res/branchl_1/branch3/conv_3×3"
	top: "Mconv1_stage2_res/branchl_1/branch3/conv_3×3/bn"
	bn_param {
		frozen:true
	}
}

layer{
	name: "Mconv1_stage2_res/branchl_1/branch3/conv_3×3/bn/relu"
	type: "ReLU"
	bottom: "Mconv1_stage2_res/branchl_1/branch3/conv_3×3/bn"
	top: "Mconv1_stage2_res/branchl_1/branch3/conv_3×3/bn"
}

layer{
	name: "Mconv1_stage2_res/branchl_1/branch3/conv2_3×3"
	type: "Convolution"
	bottom: "Mconv1_stage2_res/branchl_1/branch3/conv_3×3/bn"
	top: "Mconv1_stage2_res/branchl_1/branch3/conv2_3×3"
	param{
		lr_mult: 1
		decay_mult: 1
	}
	param{
		lr_mult: 2
		decay_mult: 0
	}
	convolution_param {
		num_output: 64
		pad: 1
		kernel_size: 3
		stride: 1
		weight_filler {
			type: "gaussian"
			std: 0.01
		}
		bias_filler {
			type: "constant"
		}
	}
}

layer{
	name: "Mconv1_stage2_res/branchl_1/branch3/conv2_3×3/bn"
	type: "BN"
	bottom: "Mconv1_stage2_res/branchl_1/branch3/conv2_3×3"
	top: "Mconv1_stage2_res/branchl_1/branch3/conv2_3×3/bn"
	bn_param {
		frozen:true
	}
}

layer{
	name: "Mconv1_stage2_res/branchl_1/branch5/concat"
	type: "Concat"
	bottom: "Mconv1_stage2_res/branchl_1/branch1/conv_1×1_reduce/bn"
	bottom: "Mconv1_stage2_res/branchl_1/branch2/conv_3×3/bn"
	bottom: "Mconv1_stage2_res/branchl_1/branch3/conv2_3×3/bn"
	top: "Mconv1_stage2_res/branchl_1/branch5/concat"
	concat_param{
		axis: 1
	}
}

layer{
	name: "Mconv1_stage2_res/branchl_1/branch5/concat/relu"
	type: "ReLU"
	bottom: "Mconv1_stage2_res/branchl_1/branch5/concat"
	top: "Mconv1_stage2_res/branchl_1/branch5/concat"
}

layer{
	name: "Mconv1_stage2_res/branchl_1/branch5/conv_1×1_increase"
	type: "Convolution"
	bottom: "Mconv1_stage2_res/branchl_1/branch5/concat"
	top: "Mconv1_stage2_res/branchl_1/branch5/conv_1×1_increase"
	param{
		lr_mult: 1
		decay_mult: 1
	}
	param{
		lr_mult: 2
		decay_mult: 0
	}
	convolution_param {
		num_output: 128
		pad: 0
		kernel_size: 1
		stride: 1
		weight_filler {
			type: "gaussian"
			std: 0.01
		}
		bias_filler {
			type: "constant"
		}
	}
}

layer{
	name: "Mconv1_stage2_res/branchl_1/branch5/conv_1×1_increase/bn"
	type: "BN"
	bottom: "Mconv1_stage2_res/branchl_1/branch5/conv_1×1_increase"
	top: "Mconv1_stage2_res/branchl_1/branch5/conv_1×1_increase/bn"
	bn_param {
		frozen:true
	}
}

layer{
	name: "Mconv1_stage2_res/branchl_1/branch6/conv_1×1_increase"
	type: "Convolution"
	bottom: "concat_stage2"
	top: "Mconv1_stage2_res/branchl_1/branch6/conv_1×1_increase"
	param{
		lr_mult: 1
		decay_mult: 1
	}
	param{
		lr_mult: 2
		decay_mult: 0
	}
	convolution_param {
		num_output: 128
		pad: 0
		kernel_size: 1
		stride: 1
		weight_filler {
			type: "gaussian"
			std: 0.01
		}
		bias_filler {
			type: "constant"
		}
	}
}

layer{
	name: "Mconv1_stage2_res/branchl_1/branch6/conv_1×1_increase/bn"
	type: "BN"
	bottom: "Mconv1_stage2_res/branchl_1/branch6/conv_1×1_increase"
	top: "Mconv1_stage2_res/branchl_1/branch6/conv_1×1_increase/bn"
	bn_param {
		frozen:true
	}
}

layer{
	name: "Mconv1_stage2_res/branchl_1"
	type: "Eltwise"
	bottom: "Mconv1_stage2_res/branchl_1/branch5/conv_1×1_increase/bn"
	bottom: "Mconv1_stage2_res/branchl_1/branch6/conv_1×1_increase/bn"
	top: "Mconv1_stage2_res/branchl_1"
	eltwise_param {
		operation: SUM
	}
}

#ooooooooooooooooooooooooooooooooooooooooooooooooooooooooo
layer{
	name: "Mconv1_stage2_res/branchl_1/relu"
	type: "ReLU"
	bottom: "Mconv1_stage2_res/branchl_1"
	top: "Mconv1_stage2_res/branchl_1"
}

#aaaaaaaaaaaaaaaaaaaaaaaaaaaaaaaaaaaaaaaaaaaaaaaaaaaaaaaaaaaaaa
layer{
	name: "Mconv1_stage2_res/branchl_2/branch1/conv_1×1_reduce"
	type: "Convolution"
	bottom: "Mconv1_stage2_res/branchl_1"
	top: "Mconv1_stage2_res/branchl_2/branch1/conv_1×1_reduce"
	param{
		lr_mult: 1
		decay_mult: 1
	}
	param{
		lr_mult: 2
		decay_mult: 0
	}
	convolution_param {
		num_output: 64
		pad: 0
		kernel_size: 1
		stride: 1
		weight_filler {
			type: "gaussian"
			std: 0.01
		}
		bias_filler {
			type: "constant"
		}
	}
}

layer{
	name: "Mconv1_stage2_res/branchl_2/branch1/conv_1×1_reduce/bn"
	type: "BN"
	bottom: "Mconv1_stage2_res/branchl_2/branch1/conv_1×1_reduce"
	top: "Mconv1_stage2_res/branchl_2/branch1/conv_1×1_reduce/bn"
	bn_param {
		frozen:true
	}
}

layer{
	name: "Mconv1_stage2_res/branchl_2/branch2/conv_1×1_reduce"
	type: "Convolution"
	bottom: "Mconv1_stage2_res/branchl_1"
	top: "Mconv1_stage2_res/branchl_2/branch2/conv_1×1_reduce"
	param{
		lr_mult: 1
		decay_mult: 1
	}
	param{
		lr_mult: 2
		decay_mult: 0
	}
	convolution_param {
		num_output: 64
		pad: 0
		kernel_size: 1
		stride: 1
		weight_filler {
			type: "gaussian"
			std: 0.01
		}
		bias_filler {
			type: "constant"
		}
	}
}

layer{
	name: "Mconv1_stage2_res/branchl_2/branch2/conv_1×1_reduce/bn"
	type: "BN"
	bottom: "Mconv1_stage2_res/branchl_2/branch2/conv_1×1_reduce"
	top: "Mconv1_stage2_res/branchl_2/branch2/conv_1×1_reduce/bn"
	bn_param {
		frozen:true
	}
}

layer{
	name: "Mconv1_stage2_res/branchl_2/branch2/conv_1×1_reduce/bn/relu"
	type: "ReLU"
	bottom: "Mconv1_stage2_res/branchl_2/branch2/conv_1×1_reduce/bn"
	top: "Mconv1_stage2_res/branchl_2/branch2/conv_1×1_reduce/bn"
}

layer{
	name: "Mconv1_stage2_res/branchl_2/branch2/conv_3×3"
	type: "Convolution"
	bottom: "Mconv1_stage2_res/branchl_2/branch2/conv_1×1_reduce/bn"
	top: "Mconv1_stage2_res/branchl_2/branch2/conv_3×3"
	param{
		lr_mult: 1
		decay_mult: 1
	}
	param{
		lr_mult: 2
		decay_mult: 0
	}
	convolution_param {
		num_output: 64
		pad: 1
		kernel_size: 3
		stride: 1
		weight_filler {
			type: "gaussian"
			std: 0.01
		}
		bias_filler {
			type: "constant"
		}
	}
}

layer{
	name: "Mconv1_stage2_res/branchl_2/branch2/conv_3×3/bn"
	type: "BN"
	bottom: "Mconv1_stage2_res/branchl_2/branch2/conv_3×3"
	top: "Mconv1_stage2_res/branchl_2/branch2/conv_3×3/bn"
	bn_param {
		frozen:true
	}
}

layer{
	name: "Mconv1_stage2_res/branchl_2/branch3/conv_1×1_reduce"
	type: "Convolution"
	bottom: "Mconv1_stage2_res/branchl_1"
	top: "Mconv1_stage2_res/branchl_2/branch3/conv_1×1_reduce"
	param{
		lr_mult: 1
		decay_mult: 1
	}
	param{
		lr_mult: 2
		decay_mult: 0
	}
	convolution_param {
		num_output: 64
		pad: 0
		kernel_size: 1
		stride: 1
		weight_filler {
			type: "gaussian"
			std: 0.01
		}
		bias_filler {
			type: "constant"
		}
	}
}

layer{
	name: "Mconv1_stage2_res/branchl_2/branch3/conv_1×1_reduce/bn"
	type: "BN"
	bottom: "Mconv1_stage2_res/branchl_2/branch3/conv_1×1_reduce"
	top: "Mconv1_stage2_res/branchl_2/branch3/conv_1×1_reduce/bn"
	bn_param {
		frozen:true
	}
}

layer{
	name: "Mconv1_stage2_res/branchl_2/branch3/conv_1×1_reduce/bn/relu"
	type: "ReLU"
	bottom: "Mconv1_stage2_res/branchl_2/branch3/conv_1×1_reduce/bn"
	top: "Mconv1_stage2_res/branchl_2/branch3/conv_1×1_reduce/bn"
}

layer{
	name: "Mconv1_stage2_res/branchl_2/branch3/conv_3×3"
	type: "Convolution"
	bottom: "Mconv1_stage2_res/branchl_2/branch3/conv_1×1_reduce/bn"
	top: "Mconv1_stage2_res/branchl_2/branch3/conv_3×3"
	param{
		lr_mult: 1
		decay_mult: 1
	}
	param{
		lr_mult: 2
		decay_mult: 0
	}
	convolution_param {
		num_output: 64
		pad: 1
		kernel_size: 3
		stride: 1
		weight_filler {
			type: "gaussian"
			std: 0.01
		}
		bias_filler {
			type: "constant"
		}
	}
}

layer{
	name: "Mconv1_stage2_res/branchl_2/branch3/conv_3×3/bn"
	type: "BN"
	bottom: "Mconv1_stage2_res/branchl_2/branch3/conv_3×3"
	top: "Mconv1_stage2_res/branchl_2/branch3/conv_3×3/bn"
	bn_param {
		frozen:true
	}
}

layer{
	name: "Mconv1_stage2_res/branchl_2/branch3/conv_3×3/bn/relu"
	type: "ReLU"
	bottom: "Mconv1_stage2_res/branchl_2/branch3/conv_3×3/bn"
	top: "Mconv1_stage2_res/branchl_2/branch3/conv_3×3/bn"
}

layer{
	name: "Mconv1_stage2_res/branchl_2/branch3/conv2_3×3"
	type: "Convolution"
	bottom: "Mconv1_stage2_res/branchl_2/branch3/conv_3×3/bn"
	top: "Mconv1_stage2_res/branchl_2/branch3/conv2_3×3"
	param{
		lr_mult: 1
		decay_mult: 1
	}
	param{
		lr_mult: 2
		decay_mult: 0
	}
	convolution_param {
		num_output: 64
		pad: 1
		kernel_size: 3
		stride: 1
		weight_filler {
			type: "gaussian"
			std: 0.01
		}
		bias_filler {
			type: "constant"
		}
	}
}

layer{
	name: "Mconv1_stage2_res/branchl_2/branch3/conv2_3×3/bn"
	type: "BN"
	bottom: "Mconv1_stage2_res/branchl_2/branch3/conv2_3×3"
	top: "Mconv1_stage2_res/branchl_2/branch3/conv2_3×3/bn"
	bn_param {
		frozen:true
	}
}

layer{
	name: "Mconv1_stage2_res/branchl_2/branch5/concat"
	type: "Concat"
	bottom: "Mconv1_stage2_res/branchl_2/branch1/conv_1×1_reduce/bn"
	bottom: "Mconv1_stage2_res/branchl_2/branch2/conv_3×3/bn"
	bottom: "Mconv1_stage2_res/branchl_2/branch3/conv2_3×3/bn"
	top: "Mconv1_stage2_res/branchl_2/branch5/concat"
	concat_param{
		axis: 1
	}
}

layer{
	name: "Mconv1_stage2_res/branchl_2/branch5/concat/relu"
	type: "ReLU"
	bottom: "Mconv1_stage2_res/branchl_2/branch5/concat"
	top: "Mconv1_stage2_res/branchl_2/branch5/concat"
}

layer{
	name: "Mconv1_stage2_res/branchl_2/branch5/conv_1×1_increase"
	type: "Convolution"
	bottom: "Mconv1_stage2_res/branchl_2/branch5/concat"
	top: "Mconv1_stage2_res/branchl_2/branch5/conv_1×1_increase"
	param{
		lr_mult: 1
		decay_mult: 1
	}
	param{
		lr_mult: 2
		decay_mult: 0
	}
	convolution_param {
		num_output: 128
		pad: 0
		kernel_size: 1
		stride: 1
		weight_filler {
			type: "gaussian"
			std: 0.01
		}
		bias_filler {
			type: "constant"
		}
	}
}

layer{
	name: "Mconv1_stage2_res/branchl_2/branch5/conv_1×1_increase/bn"
	type: "BN"
	bottom: "Mconv1_stage2_res/branchl_2/branch5/conv_1×1_increase"
	top: "Mconv1_stage2_res/branchl_2/branch5/conv_1×1_increase/bn"
	bn_param {
		frozen:true
	}
}

layer{
	name: "Mconv1_stage2_res/branchl_2"
	type: "Eltwise"
	bottom: "Mconv1_stage2_res/branchl_2/branch5/conv_1×1_increase/bn"
	bottom: "Mconv1_stage2_res/branchl_1"
	top: "Mconv1_stage2_res/branchl_2"
	eltwise_param {
		operation: SUM
	}
}

#ooooooooooooooooooooooooooooooooooooooooooooooooooooooooo
layer{
	name: "Mconv1_stage2_res/branchl_2/relu"
	type: "ReLU"
	bottom: "Mconv1_stage2_res/branchl_2"
	top: "Mconv1_stage2_res/branchl_2"
}

#aaaaaaaaaaaaaaaaaaaaaaaaaaaaaaaaaaaaaaaaaaaaaaaaaaaaaaaaaaaaaa
layer{
	name: "Mconv1_stage2_res/branchl_3/branch1/conv_1×1_reduce"
	type: "Convolution"
	bottom: "Mconv1_stage2_res/branchl_2"
	top: "Mconv1_stage2_res/branchl_3/branch1/conv_1×1_reduce"
	param{
		lr_mult: 1
		decay_mult: 1
	}
	param{
		lr_mult: 2
		decay_mult: 0
	}
	convolution_param {
		num_output: 64
		pad: 0
		kernel_size: 1
		stride: 1
		weight_filler {
			type: "gaussian"
			std: 0.01
		}
		bias_filler {
			type: "constant"
		}
	}
}

layer{
	name: "Mconv1_stage2_res/branchl_3/branch1/conv_1×1_reduce/bn"
	type: "BN"
	bottom: "Mconv1_stage2_res/branchl_3/branch1/conv_1×1_reduce"
	top: "Mconv1_stage2_res/branchl_3/branch1/conv_1×1_reduce/bn"
	bn_param {
		frozen:true
	}
}

layer{
	name: "Mconv1_stage2_res/branchl_3/branch2/conv_1×1_reduce"
	type: "Convolution"
	bottom: "Mconv1_stage2_res/branchl_2"
	top: "Mconv1_stage2_res/branchl_3/branch2/conv_1×1_reduce"
	param{
		lr_mult: 1
		decay_mult: 1
	}
	param{
		lr_mult: 2
		decay_mult: 0
	}
	convolution_param {
		num_output: 64
		pad: 0
		kernel_size: 1
		stride: 1
		weight_filler {
			type: "gaussian"
			std: 0.01
		}
		bias_filler {
			type: "constant"
		}
	}
}

layer{
	name: "Mconv1_stage2_res/branchl_3/branch2/conv_1×1_reduce/bn"
	type: "BN"
	bottom: "Mconv1_stage2_res/branchl_3/branch2/conv_1×1_reduce"
	top: "Mconv1_stage2_res/branchl_3/branch2/conv_1×1_reduce/bn"
	bn_param {
		frozen:true
	}
}

layer{
	name: "Mconv1_stage2_res/branchl_3/branch2/conv_1×1_reduce/bn/relu"
	type: "ReLU"
	bottom: "Mconv1_stage2_res/branchl_3/branch2/conv_1×1_reduce/bn"
	top: "Mconv1_stage2_res/branchl_3/branch2/conv_1×1_reduce/bn"
}

layer{
	name: "Mconv1_stage2_res/branchl_3/branch2/conv_3×3"
	type: "Convolution"
	bottom: "Mconv1_stage2_res/branchl_3/branch2/conv_1×1_reduce/bn"
	top: "Mconv1_stage2_res/branchl_3/branch2/conv_3×3"
	param{
		lr_mult: 1
		decay_mult: 1
	}
	param{
		lr_mult: 2
		decay_mult: 0
	}
	convolution_param {
		num_output: 64
		pad: 1
		kernel_size: 3
		stride: 1
		weight_filler {
			type: "gaussian"
			std: 0.01
		}
		bias_filler {
			type: "constant"
		}
	}
}

layer{
	name: "Mconv1_stage2_res/branchl_3/branch2/conv_3×3/bn"
	type: "BN"
	bottom: "Mconv1_stage2_res/branchl_3/branch2/conv_3×3"
	top: "Mconv1_stage2_res/branchl_3/branch2/conv_3×3/bn"
	bn_param {
		frozen:true
	}
}

layer{
	name: "Mconv1_stage2_res/branchl_3/branch3/conv_1×1_reduce"
	type: "Convolution"
	bottom: "Mconv1_stage2_res/branchl_2"
	top: "Mconv1_stage2_res/branchl_3/branch3/conv_1×1_reduce"
	param{
		lr_mult: 1
		decay_mult: 1
	}
	param{
		lr_mult: 2
		decay_mult: 0
	}
	convolution_param {
		num_output: 64
		pad: 0
		kernel_size: 1
		stride: 1
		weight_filler {
			type: "gaussian"
			std: 0.01
		}
		bias_filler {
			type: "constant"
		}
	}
}

layer{
	name: "Mconv1_stage2_res/branchl_3/branch3/conv_1×1_reduce/bn"
	type: "BN"
	bottom: "Mconv1_stage2_res/branchl_3/branch3/conv_1×1_reduce"
	top: "Mconv1_stage2_res/branchl_3/branch3/conv_1×1_reduce/bn"
	bn_param {
		frozen:true
	}
}

layer{
	name: "Mconv1_stage2_res/branchl_3/branch3/conv_1×1_reduce/bn/relu"
	type: "ReLU"
	bottom: "Mconv1_stage2_res/branchl_3/branch3/conv_1×1_reduce/bn"
	top: "Mconv1_stage2_res/branchl_3/branch3/conv_1×1_reduce/bn"
}

layer{
	name: "Mconv1_stage2_res/branchl_3/branch3/conv_3×3"
	type: "Convolution"
	bottom: "Mconv1_stage2_res/branchl_3/branch3/conv_1×1_reduce/bn"
	top: "Mconv1_stage2_res/branchl_3/branch3/conv_3×3"
	param{
		lr_mult: 1
		decay_mult: 1
	}
	param{
		lr_mult: 2
		decay_mult: 0
	}
	convolution_param {
		num_output: 64
		pad: 1
		kernel_size: 3
		stride: 1
		weight_filler {
			type: "gaussian"
			std: 0.01
		}
		bias_filler {
			type: "constant"
		}
	}
}

layer{
	name: "Mconv1_stage2_res/branchl_3/branch3/conv_3×3/bn"
	type: "BN"
	bottom: "Mconv1_stage2_res/branchl_3/branch3/conv_3×3"
	top: "Mconv1_stage2_res/branchl_3/branch3/conv_3×3/bn"
	bn_param {
		frozen:true
	}
}

layer{
	name: "Mconv1_stage2_res/branchl_3/branch3/conv_3×3/bn/relu"
	type: "ReLU"
	bottom: "Mconv1_stage2_res/branchl_3/branch3/conv_3×3/bn"
	top: "Mconv1_stage2_res/branchl_3/branch3/conv_3×3/bn"
}

layer{
	name: "Mconv1_stage2_res/branchl_3/branch3/conv2_3×3"
	type: "Convolution"
	bottom: "Mconv1_stage2_res/branchl_3/branch3/conv_3×3/bn"
	top: "Mconv1_stage2_res/branchl_3/branch3/conv2_3×3"
	param{
		lr_mult: 1
		decay_mult: 1
	}
	param{
		lr_mult: 2
		decay_mult: 0
	}
	convolution_param {
		num_output: 64
		pad: 1
		kernel_size: 3
		stride: 1
		weight_filler {
			type: "gaussian"
			std: 0.01
		}
		bias_filler {
			type: "constant"
		}
	}
}

layer{
	name: "Mconv1_stage2_res/branchl_3/branch3/conv2_3×3/bn"
	type: "BN"
	bottom: "Mconv1_stage2_res/branchl_3/branch3/conv2_3×3"
	top: "Mconv1_stage2_res/branchl_3/branch3/conv2_3×3/bn"
	bn_param {
		frozen:true
	}
}

layer{
	name: "Mconv1_stage2_res/branchl_3/branch5/concat"
	type: "Concat"
	bottom: "Mconv1_stage2_res/branchl_3/branch1/conv_1×1_reduce/bn"
	bottom: "Mconv1_stage2_res/branchl_3/branch2/conv_3×3/bn"
	bottom: "Mconv1_stage2_res/branchl_3/branch3/conv2_3×3/bn"
	top: "Mconv1_stage2_res/branchl_3/branch5/concat"
	concat_param{
		axis: 1
	}
}

layer{
	name: "Mconv1_stage2_res/branchl_3/branch5/concat/relu"
	type: "ReLU"
	bottom: "Mconv1_stage2_res/branchl_3/branch5/concat"
	top: "Mconv1_stage2_res/branchl_3/branch5/concat"
}

layer{
	name: "Mconv1_stage2_res/branchl_3/branch5/conv_1×1_increase"
	type: "Convolution"
	bottom: "Mconv1_stage2_res/branchl_3/branch5/concat"
	top: "Mconv1_stage2_res/branchl_3/branch5/conv_1×1_increase"
	param{
		lr_mult: 1
		decay_mult: 1
	}
	param{
		lr_mult: 2
		decay_mult: 0
	}
	convolution_param {
		num_output: 128
		pad: 0
		kernel_size: 1
		stride: 1
		weight_filler {
			type: "gaussian"
			std: 0.01
		}
		bias_filler {
			type: "constant"
		}
	}
}

layer{
	name: "Mconv1_stage2_res/branchl_3/branch5/conv_1×1_increase/bn"
	type: "BN"
	bottom: "Mconv1_stage2_res/branchl_3/branch5/conv_1×1_increase"
	top: "Mconv1_stage2_res/branchl_3/branch5/conv_1×1_increase/bn"
	bn_param {
		frozen:true
	}
}

layer{
	name: "Mconv1_stage2_res/branchl_3"
	type: "Eltwise"
	bottom: "Mconv1_stage2_res/branchl_3/branch5/conv_1×1_increase/bn"
	bottom: "Mconv1_stage2_res/branchl_2"
	top: "Mconv1_stage2_res/branchl_3"
	eltwise_param {
		operation: SUM
	}
}

#ooooooooooooooooooooooooooooooooooooooooooooooooooooooooo
layer{
	name: "Mconv1_stage2_res/branchl_3/relu"
	type: "ReLU"
	bottom: "Mconv1_stage2_res/branchl_3"
	top: "Mconv1_stage2_res/branchl_3"
}

layer{
	name: "Mconv1_stage2_res/branchl/conv_1×1_reduce"
	type: "Convolution"
	bottom: "Mconv1_stage2_res/branchl_3"
	top: "Mconv1_stage2_res/branchl/conv_1×1_reduce"
	param{
		lr_mult: 1
		decay_mult: 1
	}
	param{
		lr_mult: 2
		decay_mult: 0
	}
	convolution_param {
		num_output: 64
		pad: 0
		kernel_size: 1
		stride: 1
		weight_filler {
			type: "gaussian"
			std: 0.01
		}
		bias_filler {
			type: "constant"
		}
	}
}

layer{
	name: "Mconv1_stage2_res/branchsml/concat"
	type: "Concat"
	bottom: "Mconv1_stage2_res/branchs_1"
	bottom: "Mconv1_stage2_res/branchm_2"
	bottom: "Mconv1_stage2_res/branchl_3"
	top: "Mconv1_stage2_res/branchsml/concat"
	concat_param{
		axis: 1
	}
}

layer{
	name: "Mconv1_stage2_res/branchsml/concat/relu"
	type: "ReLU"
	bottom: "Mconv1_stage2_res/branchsml/concat"
	top: "Mconv1_stage2_res/branchsml/concat"
}

layer{
	name: "Mconv1_stage2_res/branchsml_1/conv_3×3"
	type: "Convolution"
	bottom: "Mconv1_stage2_res/branchsml/concat"
	top: "Mconv1_stage2_res/branchsml_1/conv_3×3"
	param{
		lr_mult: 1
		decay_mult: 1
	}
	param{
		lr_mult: 2
		decay_mult: 0
	}
	convolution_param {
		num_output: 192
		pad: 1
		kernel_size: 3
		stride: 2
		weight_filler {
			type: "gaussian"
			std: 0.01
		}
		bias_filler {
			type: "constant"
		}
	}
}

layer{
	name: "Mconv1_stage2_res/branchsml_1/conv_3×3/bn"
	type: "BN"
	bottom: "Mconv1_stage2_res/branchsml_1/conv_3×3"
	top: "Mconv1_stage2_res/branchsml_1/conv_3×3/bn"
	bn_param {
		frozen:true
	}
}

layer{
	name: "Mconv1_stage2_res/branchsml_1/conv_3×3/bn/relu"
	type: "ReLU"
	bottom: "Mconv1_stage2_res/branchsml_1/conv_3×3/bn"
	top: "Mconv1_stage2_res/branchsml_1/conv_3×3/bn"
}

layer{
	name: "Mconv1_stage2_res/branchsml_2/conv_3×3"
	type: "Convolution"
	bottom: "Mconv1_stage2_res/branchsml_1/conv_3×3/bn"
	top: "Mconv1_stage2_res/branchsml_2/conv_3×3"
	param{
		lr_mult: 1
		decay_mult: 1
	}
	param{
		lr_mult: 2
		decay_mult: 0
	}
	convolution_param {
		num_output: 192
		pad: 1
		kernel_size: 3
		stride: 1
		weight_filler {
			type: "gaussian"
			std: 0.01
		}
		bias_filler {
			type: "constant"
		}
	}
}

layer{
	name: "Mconv1_stage2_res/branchsml_2/conv_3×3/bn"
	type: "BN"
	bottom: "Mconv1_stage2_res/branchsml_2/conv_3×3"
	top: "Mconv1_stage2_res/branchsml_2/conv_3×3/bn"
	bn_param {
		frozen:true
	}
}

layer{
	name: "Mconv1_stage2_res/branchsml_2/conv_3×3/bn/interp"
	type: "Interp"
	bottom: "Mconv1_stage2_res/branchsml_2/conv_3×3/bn"
	top: "Mconv1_stage2_res/branchsml_2/conv_3×3/bn/interp"
	interp_param {
		height: 32
		width: 32
	}
}

layer{
	name: "Mconv1_stage2_res/branchsml_d/conv_3×3"
	type: "Convolution"
	bottom: "Mconv1_stage2_res/branchsml/concat"
	top: "Mconv1_stage2_res/branchsml_d/conv_3×3"
	param{
		lr_mult: 1
		decay_mult: 1
	}
	param{
		lr_mult: 2
		decay_mult: 0
	}
	convolution_param {
		num_output: 192
		pad: 1
		kernel_size: 3
		stride: 1
		weight_filler {
			type: "gaussian"
			std: 0.01
		}
		bias_filler {
			type: "constant"
		}
	}
}

layer{
	name: "Mconv1_stage2_res/branchsml_d/conv_3×3/bn"
	type: "BN"
	bottom: "Mconv1_stage2_res/branchsml_d/conv_3×3"
	top: "Mconv1_stage2_res/branchsml_d/conv_3×3/bn"
	bn_param {
		frozen:true
	}
}

layer{
	name: "Mconv1_stage2_res/branchsml_merge"
	type: "Eltwise"
	bottom: "Mconv1_stage2_res/branchsml_2/conv_3×3/bn/interp"
	bottom: "Mconv1_stage2_res/branchsml_d/conv_3×3/bn"
	top: "Mconv1_stage2_res/branchsml_merge"
	eltwise_param {
		operation: SUM
	}
}

layer{
	name: "Mconv1_stage2_res/branchsml_merge/relu"
	type: "ReLU"
	bottom: "Mconv1_stage2_res/branchsml_merge"
	top: "Mconv1_stage2_res/branchsml_merge"
}

layer{
	name: "Mconv1_stage2_res/branchsml_3/conv_3×3"
	type: "Convolution"
	bottom: "Mconv1_stage2_res/branchsml_merge"
	top: "Mconv1_stage2_res/branchsml_3/conv_3×3"
	param{
		lr_mult: 1
		decay_mult: 1
	}
	param{
		lr_mult: 2
		decay_mult: 0
	}
	convolution_param {
		num_output: 192
		pad: 1
		kernel_size: 3
		stride: 1
		weight_filler {
			type: "gaussian"
			std: 0.01
		}
		bias_filler {
			type: "constant"
		}
	}
}

layer{
	name: "Mconv1_stage2_res/branchsml_3/conv_3×3/bn"
	type: "BN"
	bottom: "Mconv1_stage2_res/branchsml_3/conv_3×3"
	top: "Mconv1_stage2_res/branchsml_3/conv_3×3/bn"
	bn_param {
		frozen:true
	}
}

layer{
	name: "Mconv1_stage2_res/branchsml_3/conv_3×3/bn/relu"
	type: "ReLU"
	bottom: "Mconv1_stage2_res/branchsml_3/conv_3×3/bn"
	top: "Mconv1_stage2_res/branchsml_3/conv_3×3/bn"
}

layer{
	name: "Mconv1_stage2_res/branchsml/conv2_1×1"
	type: "Convolution"
	bottom: "Mconv1_stage2_res/branchsml_3/conv_3×3/bn"
	top: "Mconv1_stage2_res/branchsml/conv2_1×1"
	param{
		lr_mult: 1
		decay_mult: 1
	}
	param{
		lr_mult: 2
		decay_mult: 0
	}
	convolution_param {
		num_output: 192
		pad: 0
		kernel_size: 1
		stride: 1
		weight_filler {
			type: "gaussian"
			std: 0.01
		}
		bias_filler {
			type: "constant"
		}
	}
}

layer{
	name: "Mconv1_stage2_res/branchsml/weight"
	type: "Sigmoid"
	bottom: "Mconv1_stage2_res/branchsml/conv2_1×1"
	top: "Mconv1_stage2_res/branchsml/weight"
}

layer{
	name: "Mconv1_stage2_res/split_weight"
	type: "Slice"
	bottom: "Mconv1_stage2_res/branchsml/weight"
	top: "Mconv1_stage2_res/weights"
	top: "Mconv1_stage2_res/weightm"
	top: "Mconv1_stage2_res/weightl"
	slice_param{
		slice_point: 64
		slice_point: 128
		axis: 1
	}
}

layer{
	name: "Mconv1_stage2_res/weighted_branchs"
	type: "Eltwise"
	bottom: "Mconv1_stage2_res/branchs/conv_1×1_reduce"
	bottom: "Mconv1_stage2_res/weights"
	top: "Mconv1_stage2_res/weighted_branchs"
	eltwise_param {
		operation: PROD
	}
}

layer{
	name: "Mconv1_stage2_res/weighted_branchm"
	type: "Eltwise"
	bottom: "Mconv1_stage2_res/branchm/conv_1×1_reduce"
	bottom: "Mconv1_stage2_res/weightm"
	top: "Mconv1_stage2_res/weighted_branchm"
	eltwise_param {
		operation: PROD
	}
}

layer{
	name: "Mconv1_stage2_res/weighted_branchl"
	type: "Eltwise"
	bottom: "Mconv1_stage2_res/branchl/conv_1×1_reduce"
	bottom: "Mconv1_stage2_res/weightl"
	top: "Mconv1_stage2_res/weighted_branchl"
	eltwise_param {
		operation: PROD
	}
}

layer{
	name: "Mconv1_stage2_res/weighted_all"
	type: "Eltwise"
	bottom: "Mconv1_stage2_res/weighted_branchs"
	bottom: "Mconv1_stage2_res/weighted_branchm"
	bottom: "Mconv1_stage2_res/weighted_branchl"
	top: "Mconv1_stage2_res/weighted_all"
	eltwise_param {
		operation: SUM
	}
}

layer{
	name: "Mconv1_stage2_res/weighted_all/bn"
	type: "BN"
	bottom: "Mconv1_stage2_res/weighted_all"
	top: "Mconv1_stage2_res/weighted_all/bn"
	bn_param {
		frozen:true
	}
}

layer{
	name: "Mconv1_stage2_res/weighted_all/relu"
	type: "ReLU"
	bottom: "Mconv1_stage2_res/weighted_all/bn"
	top: "Mconv1_stage2_res/weighted_all/bn"
}

layer{
	name: "Mconv1_stage2_res/branch5/conv_1×1_increase"
	type: "Convolution"
	bottom: "Mconv1_stage2_res/weighted_all/bn"
	top: "Mconv1_stage2_res/branch5/conv_1×1_increase"
	param{
		lr_mult: 1
		decay_mult: 1
	}
	param{
		lr_mult: 2
		decay_mult: 0
	}
	convolution_param {
		num_output: 128
		pad: 0
		kernel_size: 1
		stride: 1
		weight_filler {
			type: "gaussian"
			std: 0.01
		}
		bias_filler {
			type: "constant"
		}
	}
}

layer{
	name: "Mconv1_stage2_res/branch5/conv_1×1_increase/bn"
	type: "BN"
	bottom: "Mconv1_stage2_res/branch5/conv_1×1_increase"
	top: "Mconv1_stage2_res/branch5/conv_1×1_increase/bn"
	bn_param {
		frozen:true
	}
}

layer{
	name: "Mconv1_stage2_res/branch6/conv_1×1_increase"
	type: "Convolution"
	bottom: "concat_stage2"
	top: "Mconv1_stage2_res/branch6/conv_1×1_increase"
	param{
		lr_mult: 1
		decay_mult: 1
	}
	param{
		lr_mult: 2
		decay_mult: 0
	}
	convolution_param {
		num_output: 128
		pad: 0
		kernel_size: 1
		stride: 1
		weight_filler {
			type: "gaussian"
			std: 0.01
		}
		bias_filler {
			type: "constant"
		}
	}
}

layer{
	name: "Mconv1_stage2_res/branch6/conv_1×1_increase/bn"
	type: "BN"
	bottom: "Mconv1_stage2_res/branch6/conv_1×1_increase"
	top: "Mconv1_stage2_res/branch6/conv_1×1_increase/bn"
	bn_param {
		frozen:true
	}
}

layer{
	name: "Mconv1_stage2_res"
	type: "Eltwise"
	bottom: "Mconv1_stage2_res/branch5/conv_1×1_increase/bn"
	bottom: "Mconv1_stage2_res/branch6/conv_1×1_increase/bn"
	top: "Mconv1_stage2_res"
	eltwise_param {
		operation: SUM
	}
}

layer{
	name: "Mconv1_stage2_res/relu"
	type: "ReLU"
	bottom: "Mconv1_stage2_res"
	top: "Mconv1_stage2_res"
}

#ooooooooooooooooooooooooooooooooooooooooooooooooooooooooo
layer{
	name: "Mconv1_1_stage2"
	type: "Convolution"
	bottom: "Mconv1_stage2_res"
	top: "Mconv1_1_stage2"
	param{
		lr_mult: 1
		decay_mult: 1
	}
	param{
		lr_mult: 2
		decay_mult: 0
	}
	convolution_param {
		num_output: 128
		pad: 0
		kernel_size: 1
		stride: 1
		weight_filler {
			type: "gaussian"
			std: 0.01
		}
		bias_filler {
			type: "constant"
		}
	}
}

layer{
	name: "Mrelu1_1_stage2"
	type: "ReLU"
	bottom: "Mconv1_1_stage2"
	top: "Mconv1_1_stage2"
}

layer{
	name: "Mconv1_2_stage2"
	type: "Convolution"
	bottom: "Mconv1_1_stage2"
	top: "Mconv1_2_stage2"
	param{
		lr_mult: 1
		decay_mult: 1
	}
	param{
		lr_mult: 2
		decay_mult: 0
	}
	convolution_param {
		num_output: 15
		pad: 0
		kernel_size: 1
		stride: 1
		weight_filler {
			type: "gaussian"
			std: 0.01
		}
		bias_filler {
			type: "constant"
		}
	}
}

layer{
	name: "Mconv1_2_stage2_slice"
	type: "Slice"
	bottom: "Mconv1_2_stage2"
	top: "Mconv1_2_stage2_pre2"
	top: "nan-2"
	slice_param{
		slice_point: 2
		axis: 1
	}
}

layer{
	name: "silence_nan_2"
	type: "Silence"
	bottom: "nan-2"
}

layer{
	name: "concat_stage2_1"
	type: "Concat"
	bottom: "concat_stage2"
	bottom: "Mconv1_2_stage2"
	top: "concat_stage2_1"
	concat_param{
		axis: 1
	}
}

#aaaaaaaaaaaaaaaaaaaaaaaaaaaaaaaaaaaaaaaaaaaaaaaaaaaaaaaaaaaaaa
#aaaaaaaaaaaaaaaaaaaaaaaaaaaaaaaaaaaaaaaaaaaaaaaaaaaaaaaaaaaaaa
layer{
	name: "Mconv2_1_stage2_res/branchs_1/branch1/conv_1×1_reduce"
	type: "Convolution"
	bottom: "concat_stage2_1"
	top: "Mconv2_1_stage2_res/branchs_1/branch1/conv_1×1_reduce"
	param{
		lr_mult: 1
		decay_mult: 1
	}
	param{
		lr_mult: 2
		decay_mult: 0
	}
	convolution_param {
		num_output: 64
		pad: 0
		kernel_size: 1
		stride: 1
		weight_filler {
			type: "gaussian"
			std: 0.01
		}
		bias_filler {
			type: "constant"
		}
	}
}

layer{
	name: "Mconv2_1_stage2_res/branchs_1/branch1/conv_1×1_reduce/bn"
	type: "BN"
	bottom: "Mconv2_1_stage2_res/branchs_1/branch1/conv_1×1_reduce"
	top: "Mconv2_1_stage2_res/branchs_1/branch1/conv_1×1_reduce/bn"
	bn_param {
		frozen:true
	}
}

layer{
	name: "Mconv2_1_stage2_res/branchs_1/branch2/conv_1×1_reduce"
	type: "Convolution"
	bottom: "concat_stage2_1"
	top: "Mconv2_1_stage2_res/branchs_1/branch2/conv_1×1_reduce"
	param{
		lr_mult: 1
		decay_mult: 1
	}
	param{
		lr_mult: 2
		decay_mult: 0
	}
	convolution_param {
		num_output: 64
		pad: 0
		kernel_size: 1
		stride: 1
		weight_filler {
			type: "gaussian"
			std: 0.01
		}
		bias_filler {
			type: "constant"
		}
	}
}

layer{
	name: "Mconv2_1_stage2_res/branchs_1/branch2/conv_1×1_reduce/bn"
	type: "BN"
	bottom: "Mconv2_1_stage2_res/branchs_1/branch2/conv_1×1_reduce"
	top: "Mconv2_1_stage2_res/branchs_1/branch2/conv_1×1_reduce/bn"
	bn_param {
		frozen:true
	}
}

layer{
	name: "Mconv2_1_stage2_res/branchs_1/branch2/conv_1×1_reduce/bn/relu"
	type: "ReLU"
	bottom: "Mconv2_1_stage2_res/branchs_1/branch2/conv_1×1_reduce/bn"
	top: "Mconv2_1_stage2_res/branchs_1/branch2/conv_1×1_reduce/bn"
}

layer{
	name: "Mconv2_1_stage2_res/branchs_1/branch2/conv_3×3"
	type: "Convolution"
	bottom: "Mconv2_1_stage2_res/branchs_1/branch2/conv_1×1_reduce/bn"
	top: "Mconv2_1_stage2_res/branchs_1/branch2/conv_3×3"
	param{
		lr_mult: 1
		decay_mult: 1
	}
	param{
		lr_mult: 2
		decay_mult: 0
	}
	convolution_param {
		num_output: 64
		pad: 1
		kernel_size: 3
		stride: 1
		weight_filler {
			type: "gaussian"
			std: 0.01
		}
		bias_filler {
			type: "constant"
		}
	}
}

layer{
	name: "Mconv2_1_stage2_res/branchs_1/branch2/conv_3×3/bn"
	type: "BN"
	bottom: "Mconv2_1_stage2_res/branchs_1/branch2/conv_3×3"
	top: "Mconv2_1_stage2_res/branchs_1/branch2/conv_3×3/bn"
	bn_param {
		frozen:true
	}
}

layer{
	name: "Mconv2_1_stage2_res/branchs_1/branch3/conv_1×1_reduce"
	type: "Convolution"
	bottom: "concat_stage2_1"
	top: "Mconv2_1_stage2_res/branchs_1/branch3/conv_1×1_reduce"
	param{
		lr_mult: 1
		decay_mult: 1
	}
	param{
		lr_mult: 2
		decay_mult: 0
	}
	convolution_param {
		num_output: 64
		pad: 0
		kernel_size: 1
		stride: 1
		weight_filler {
			type: "gaussian"
			std: 0.01
		}
		bias_filler {
			type: "constant"
		}
	}
}

layer{
	name: "Mconv2_1_stage2_res/branchs_1/branch3/conv_1×1_reduce/bn"
	type: "BN"
	bottom: "Mconv2_1_stage2_res/branchs_1/branch3/conv_1×1_reduce"
	top: "Mconv2_1_stage2_res/branchs_1/branch3/conv_1×1_reduce/bn"
	bn_param {
		frozen:true
	}
}

layer{
	name: "Mconv2_1_stage2_res/branchs_1/branch3/conv_1×1_reduce/bn/relu"
	type: "ReLU"
	bottom: "Mconv2_1_stage2_res/branchs_1/branch3/conv_1×1_reduce/bn"
	top: "Mconv2_1_stage2_res/branchs_1/branch3/conv_1×1_reduce/bn"
}

layer{
	name: "Mconv2_1_stage2_res/branchs_1/branch3/conv_3×3"
	type: "Convolution"
	bottom: "Mconv2_1_stage2_res/branchs_1/branch3/conv_1×1_reduce/bn"
	top: "Mconv2_1_stage2_res/branchs_1/branch3/conv_3×3"
	param{
		lr_mult: 1
		decay_mult: 1
	}
	param{
		lr_mult: 2
		decay_mult: 0
	}
	convolution_param {
		num_output: 64
		pad: 1
		kernel_size: 3
		stride: 1
		weight_filler {
			type: "gaussian"
			std: 0.01
		}
		bias_filler {
			type: "constant"
		}
	}
}

layer{
	name: "Mconv2_1_stage2_res/branchs_1/branch3/conv_3×3/bn"
	type: "BN"
	bottom: "Mconv2_1_stage2_res/branchs_1/branch3/conv_3×3"
	top: "Mconv2_1_stage2_res/branchs_1/branch3/conv_3×3/bn"
	bn_param {
		frozen:true
	}
}

layer{
	name: "Mconv2_1_stage2_res/branchs_1/branch3/conv_3×3/bn/relu"
	type: "ReLU"
	bottom: "Mconv2_1_stage2_res/branchs_1/branch3/conv_3×3/bn"
	top: "Mconv2_1_stage2_res/branchs_1/branch3/conv_3×3/bn"
}

layer{
	name: "Mconv2_1_stage2_res/branchs_1/branch3/conv2_3×3"
	type: "Convolution"
	bottom: "Mconv2_1_stage2_res/branchs_1/branch3/conv_3×3/bn"
	top: "Mconv2_1_stage2_res/branchs_1/branch3/conv2_3×3"
	param{
		lr_mult: 1
		decay_mult: 1
	}
	param{
		lr_mult: 2
		decay_mult: 0
	}
	convolution_param {
		num_output: 64
		pad: 1
		kernel_size: 3
		stride: 1
		weight_filler {
			type: "gaussian"
			std: 0.01
		}
		bias_filler {
			type: "constant"
		}
	}
}

layer{
	name: "Mconv2_1_stage2_res/branchs_1/branch3/conv2_3×3/bn"
	type: "BN"
	bottom: "Mconv2_1_stage2_res/branchs_1/branch3/conv2_3×3"
	top: "Mconv2_1_stage2_res/branchs_1/branch3/conv2_3×3/bn"
	bn_param {
		frozen:true
	}
}

layer{
	name: "Mconv2_1_stage2_res/branchs_1/branch5/concat"
	type: "Concat"
	bottom: "Mconv2_1_stage2_res/branchs_1/branch1/conv_1×1_reduce/bn"
	bottom: "Mconv2_1_stage2_res/branchs_1/branch2/conv_3×3/bn"
	bottom: "Mconv2_1_stage2_res/branchs_1/branch3/conv2_3×3/bn"
	top: "Mconv2_1_stage2_res/branchs_1/branch5/concat"
	concat_param{
		axis: 1
	}
}

layer{
	name: "Mconv2_1_stage2_res/branchs_1/branch5/concat/relu"
	type: "ReLU"
	bottom: "Mconv2_1_stage2_res/branchs_1/branch5/concat"
	top: "Mconv2_1_stage2_res/branchs_1/branch5/concat"
}

layer{
	name: "Mconv2_1_stage2_res/branchs_1/branch5/conv_1×1_increase"
	type: "Convolution"
	bottom: "Mconv2_1_stage2_res/branchs_1/branch5/concat"
	top: "Mconv2_1_stage2_res/branchs_1/branch5/conv_1×1_increase"
	param{
		lr_mult: 1
		decay_mult: 1
	}
	param{
		lr_mult: 2
		decay_mult: 0
	}
	convolution_param {
		num_output: 128
		pad: 0
		kernel_size: 1
		stride: 1
		weight_filler {
			type: "gaussian"
			std: 0.01
		}
		bias_filler {
			type: "constant"
		}
	}
}

layer{
	name: "Mconv2_1_stage2_res/branchs_1/branch5/conv_1×1_increase/bn"
	type: "BN"
	bottom: "Mconv2_1_stage2_res/branchs_1/branch5/conv_1×1_increase"
	top: "Mconv2_1_stage2_res/branchs_1/branch5/conv_1×1_increase/bn"
	bn_param {
		frozen:true
	}
}

layer{
	name: "Mconv2_1_stage2_res/branchs_1/branch6/conv_1×1_increase"
	type: "Convolution"
	bottom: "concat_stage2_1"
	top: "Mconv2_1_stage2_res/branchs_1/branch6/conv_1×1_increase"
	param{
		lr_mult: 1
		decay_mult: 1
	}
	param{
		lr_mult: 2
		decay_mult: 0
	}
	convolution_param {
		num_output: 128
		pad: 0
		kernel_size: 1
		stride: 1
		weight_filler {
			type: "gaussian"
			std: 0.01
		}
		bias_filler {
			type: "constant"
		}
	}
}

layer{
	name: "Mconv2_1_stage2_res/branchs_1/branch6/conv_1×1_increase/bn"
	type: "BN"
	bottom: "Mconv2_1_stage2_res/branchs_1/branch6/conv_1×1_increase"
	top: "Mconv2_1_stage2_res/branchs_1/branch6/conv_1×1_increase/bn"
	bn_param {
		frozen:true
	}
}

layer{
	name: "Mconv2_1_stage2_res/branchs_1"
	type: "Eltwise"
	bottom: "Mconv2_1_stage2_res/branchs_1/branch5/conv_1×1_increase/bn"
	bottom: "Mconv2_1_stage2_res/branchs_1/branch6/conv_1×1_increase/bn"
	top: "Mconv2_1_stage2_res/branchs_1"
	eltwise_param {
		operation: SUM
	}
}

#ooooooooooooooooooooooooooooooooooooooooooooooooooooooooo
layer{
	name: "Mconv2_1_stage2_res/branchs_1/relu"
	type: "ReLU"
	bottom: "Mconv2_1_stage2_res/branchs_1"
	top: "Mconv2_1_stage2_res/branchs_1"
}

layer{
	name: "Mconv2_1_stage2_res/branchs/conv_1×1_reduce"
	type: "Convolution"
	bottom: "Mconv2_1_stage2_res/branchs_1"
	top: "Mconv2_1_stage2_res/branchs/conv_1×1_reduce"
	param{
		lr_mult: 1
		decay_mult: 1
	}
	param{
		lr_mult: 2
		decay_mult: 0
	}
	convolution_param {
		num_output: 64
		pad: 0
		kernel_size: 1
		stride: 1
		weight_filler {
			type: "gaussian"
			std: 0.01
		}
		bias_filler {
			type: "constant"
		}
	}
}

#aaaaaaaaaaaaaaaaaaaaaaaaaaaaaaaaaaaaaaaaaaaaaaaaaaaaaaaaaaaaaa
layer{
	name: "Mconv2_1_stage2_res/branchm_1/branch1/conv_1×1_reduce"
	type: "Convolution"
	bottom: "concat_stage2_1"
	top: "Mconv2_1_stage2_res/branchm_1/branch1/conv_1×1_reduce"
	param{
		lr_mult: 1
		decay_mult: 1
	}
	param{
		lr_mult: 2
		decay_mult: 0
	}
	convolution_param {
		num_output: 64
		pad: 0
		kernel_size: 1
		stride: 1
		weight_filler {
			type: "gaussian"
			std: 0.01
		}
		bias_filler {
			type: "constant"
		}
	}
}

layer{
	name: "Mconv2_1_stage2_res/branchm_1/branch1/conv_1×1_reduce/bn"
	type: "BN"
	bottom: "Mconv2_1_stage2_res/branchm_1/branch1/conv_1×1_reduce"
	top: "Mconv2_1_stage2_res/branchm_1/branch1/conv_1×1_reduce/bn"
	bn_param {
		frozen:true
	}
}

layer{
	name: "Mconv2_1_stage2_res/branchm_1/branch2/conv_1×1_reduce"
	type: "Convolution"
	bottom: "concat_stage2_1"
	top: "Mconv2_1_stage2_res/branchm_1/branch2/conv_1×1_reduce"
	param{
		lr_mult: 1
		decay_mult: 1
	}
	param{
		lr_mult: 2
		decay_mult: 0
	}
	convolution_param {
		num_output: 64
		pad: 0
		kernel_size: 1
		stride: 1
		weight_filler {
			type: "gaussian"
			std: 0.01
		}
		bias_filler {
			type: "constant"
		}
	}
}

layer{
	name: "Mconv2_1_stage2_res/branchm_1/branch2/conv_1×1_reduce/bn"
	type: "BN"
	bottom: "Mconv2_1_stage2_res/branchm_1/branch2/conv_1×1_reduce"
	top: "Mconv2_1_stage2_res/branchm_1/branch2/conv_1×1_reduce/bn"
	bn_param {
		frozen:true
	}
}

layer{
	name: "Mconv2_1_stage2_res/branchm_1/branch2/conv_1×1_reduce/bn/relu"
	type: "ReLU"
	bottom: "Mconv2_1_stage2_res/branchm_1/branch2/conv_1×1_reduce/bn"
	top: "Mconv2_1_stage2_res/branchm_1/branch2/conv_1×1_reduce/bn"
}

layer{
	name: "Mconv2_1_stage2_res/branchm_1/branch2/conv_3×3"
	type: "Convolution"
	bottom: "Mconv2_1_stage2_res/branchm_1/branch2/conv_1×1_reduce/bn"
	top: "Mconv2_1_stage2_res/branchm_1/branch2/conv_3×3"
	param{
		lr_mult: 1
		decay_mult: 1
	}
	param{
		lr_mult: 2
		decay_mult: 0
	}
	convolution_param {
		num_output: 64
		pad: 1
		kernel_size: 3
		stride: 1
		weight_filler {
			type: "gaussian"
			std: 0.01
		}
		bias_filler {
			type: "constant"
		}
	}
}

layer{
	name: "Mconv2_1_stage2_res/branchm_1/branch2/conv_3×3/bn"
	type: "BN"
	bottom: "Mconv2_1_stage2_res/branchm_1/branch2/conv_3×3"
	top: "Mconv2_1_stage2_res/branchm_1/branch2/conv_3×3/bn"
	bn_param {
		frozen:true
	}
}

layer{
	name: "Mconv2_1_stage2_res/branchm_1/branch3/conv_1×1_reduce"
	type: "Convolution"
	bottom: "concat_stage2_1"
	top: "Mconv2_1_stage2_res/branchm_1/branch3/conv_1×1_reduce"
	param{
		lr_mult: 1
		decay_mult: 1
	}
	param{
		lr_mult: 2
		decay_mult: 0
	}
	convolution_param {
		num_output: 64
		pad: 0
		kernel_size: 1
		stride: 1
		weight_filler {
			type: "gaussian"
			std: 0.01
		}
		bias_filler {
			type: "constant"
		}
	}
}

layer{
	name: "Mconv2_1_stage2_res/branchm_1/branch3/conv_1×1_reduce/bn"
	type: "BN"
	bottom: "Mconv2_1_stage2_res/branchm_1/branch3/conv_1×1_reduce"
	top: "Mconv2_1_stage2_res/branchm_1/branch3/conv_1×1_reduce/bn"
	bn_param {
		frozen:true
	}
}

layer{
	name: "Mconv2_1_stage2_res/branchm_1/branch3/conv_1×1_reduce/bn/relu"
	type: "ReLU"
	bottom: "Mconv2_1_stage2_res/branchm_1/branch3/conv_1×1_reduce/bn"
	top: "Mconv2_1_stage2_res/branchm_1/branch3/conv_1×1_reduce/bn"
}

layer{
	name: "Mconv2_1_stage2_res/branchm_1/branch3/conv_3×3"
	type: "Convolution"
	bottom: "Mconv2_1_stage2_res/branchm_1/branch3/conv_1×1_reduce/bn"
	top: "Mconv2_1_stage2_res/branchm_1/branch3/conv_3×3"
	param{
		lr_mult: 1
		decay_mult: 1
	}
	param{
		lr_mult: 2
		decay_mult: 0
	}
	convolution_param {
		num_output: 64
		pad: 1
		kernel_size: 3
		stride: 1
		weight_filler {
			type: "gaussian"
			std: 0.01
		}
		bias_filler {
			type: "constant"
		}
	}
}

layer{
	name: "Mconv2_1_stage2_res/branchm_1/branch3/conv_3×3/bn"
	type: "BN"
	bottom: "Mconv2_1_stage2_res/branchm_1/branch3/conv_3×3"
	top: "Mconv2_1_stage2_res/branchm_1/branch3/conv_3×3/bn"
	bn_param {
		frozen:true
	}
}

layer{
	name: "Mconv2_1_stage2_res/branchm_1/branch3/conv_3×3/bn/relu"
	type: "ReLU"
	bottom: "Mconv2_1_stage2_res/branchm_1/branch3/conv_3×3/bn"
	top: "Mconv2_1_stage2_res/branchm_1/branch3/conv_3×3/bn"
}

layer{
	name: "Mconv2_1_stage2_res/branchm_1/branch3/conv2_3×3"
	type: "Convolution"
	bottom: "Mconv2_1_stage2_res/branchm_1/branch3/conv_3×3/bn"
	top: "Mconv2_1_stage2_res/branchm_1/branch3/conv2_3×3"
	param{
		lr_mult: 1
		decay_mult: 1
	}
	param{
		lr_mult: 2
		decay_mult: 0
	}
	convolution_param {
		num_output: 64
		pad: 1
		kernel_size: 3
		stride: 1
		weight_filler {
			type: "gaussian"
			std: 0.01
		}
		bias_filler {
			type: "constant"
		}
	}
}

layer{
	name: "Mconv2_1_stage2_res/branchm_1/branch3/conv2_3×3/bn"
	type: "BN"
	bottom: "Mconv2_1_stage2_res/branchm_1/branch3/conv2_3×3"
	top: "Mconv2_1_stage2_res/branchm_1/branch3/conv2_3×3/bn"
	bn_param {
		frozen:true
	}
}

layer{
	name: "Mconv2_1_stage2_res/branchm_1/branch5/concat"
	type: "Concat"
	bottom: "Mconv2_1_stage2_res/branchm_1/branch1/conv_1×1_reduce/bn"
	bottom: "Mconv2_1_stage2_res/branchm_1/branch2/conv_3×3/bn"
	bottom: "Mconv2_1_stage2_res/branchm_1/branch3/conv2_3×3/bn"
	top: "Mconv2_1_stage2_res/branchm_1/branch5/concat"
	concat_param{
		axis: 1
	}
}

layer{
	name: "Mconv2_1_stage2_res/branchm_1/branch5/concat/relu"
	type: "ReLU"
	bottom: "Mconv2_1_stage2_res/branchm_1/branch5/concat"
	top: "Mconv2_1_stage2_res/branchm_1/branch5/concat"
}

layer{
	name: "Mconv2_1_stage2_res/branchm_1/branch5/conv_1×1_increase"
	type: "Convolution"
	bottom: "Mconv2_1_stage2_res/branchm_1/branch5/concat"
	top: "Mconv2_1_stage2_res/branchm_1/branch5/conv_1×1_increase"
	param{
		lr_mult: 1
		decay_mult: 1
	}
	param{
		lr_mult: 2
		decay_mult: 0
	}
	convolution_param {
		num_output: 128
		pad: 0
		kernel_size: 1
		stride: 1
		weight_filler {
			type: "gaussian"
			std: 0.01
		}
		bias_filler {
			type: "constant"
		}
	}
}

layer{
	name: "Mconv2_1_stage2_res/branchm_1/branch5/conv_1×1_increase/bn"
	type: "BN"
	bottom: "Mconv2_1_stage2_res/branchm_1/branch5/conv_1×1_increase"
	top: "Mconv2_1_stage2_res/branchm_1/branch5/conv_1×1_increase/bn"
	bn_param {
		frozen:true
	}
}

layer{
	name: "Mconv2_1_stage2_res/branchm_1/branch6/conv_1×1_increase"
	type: "Convolution"
	bottom: "concat_stage2_1"
	top: "Mconv2_1_stage2_res/branchm_1/branch6/conv_1×1_increase"
	param{
		lr_mult: 1
		decay_mult: 1
	}
	param{
		lr_mult: 2
		decay_mult: 0
	}
	convolution_param {
		num_output: 128
		pad: 0
		kernel_size: 1
		stride: 1
		weight_filler {
			type: "gaussian"
			std: 0.01
		}
		bias_filler {
			type: "constant"
		}
	}
}

layer{
	name: "Mconv2_1_stage2_res/branchm_1/branch6/conv_1×1_increase/bn"
	type: "BN"
	bottom: "Mconv2_1_stage2_res/branchm_1/branch6/conv_1×1_increase"
	top: "Mconv2_1_stage2_res/branchm_1/branch6/conv_1×1_increase/bn"
	bn_param {
		frozen:true
	}
}

layer{
	name: "Mconv2_1_stage2_res/branchm_1"
	type: "Eltwise"
	bottom: "Mconv2_1_stage2_res/branchm_1/branch5/conv_1×1_increase/bn"
	bottom: "Mconv2_1_stage2_res/branchm_1/branch6/conv_1×1_increase/bn"
	top: "Mconv2_1_stage2_res/branchm_1"
	eltwise_param {
		operation: SUM
	}
}

#ooooooooooooooooooooooooooooooooooooooooooooooooooooooooo
layer{
	name: "Mconv2_1_stage2_res/branchm_1/relu"
	type: "ReLU"
	bottom: "Mconv2_1_stage2_res/branchm_1"
	top: "Mconv2_1_stage2_res/branchm_1"
}

#aaaaaaaaaaaaaaaaaaaaaaaaaaaaaaaaaaaaaaaaaaaaaaaaaaaaaaaaaaaaaa
layer{
	name: "Mconv2_1_stage2_res/branchm_2/branch1/conv_1×1_reduce"
	type: "Convolution"
	bottom: "Mconv2_1_stage2_res/branchm_1"
	top: "Mconv2_1_stage2_res/branchm_2/branch1/conv_1×1_reduce"
	param{
		lr_mult: 1
		decay_mult: 1
	}
	param{
		lr_mult: 2
		decay_mult: 0
	}
	convolution_param {
		num_output: 64
		pad: 0
		kernel_size: 1
		stride: 1
		weight_filler {
			type: "gaussian"
			std: 0.01
		}
		bias_filler {
			type: "constant"
		}
	}
}

layer{
	name: "Mconv2_1_stage2_res/branchm_2/branch1/conv_1×1_reduce/bn"
	type: "BN"
	bottom: "Mconv2_1_stage2_res/branchm_2/branch1/conv_1×1_reduce"
	top: "Mconv2_1_stage2_res/branchm_2/branch1/conv_1×1_reduce/bn"
	bn_param {
		frozen:true
	}
}

layer{
	name: "Mconv2_1_stage2_res/branchm_2/branch2/conv_1×1_reduce"
	type: "Convolution"
	bottom: "Mconv2_1_stage2_res/branchm_1"
	top: "Mconv2_1_stage2_res/branchm_2/branch2/conv_1×1_reduce"
	param{
		lr_mult: 1
		decay_mult: 1
	}
	param{
		lr_mult: 2
		decay_mult: 0
	}
	convolution_param {
		num_output: 64
		pad: 0
		kernel_size: 1
		stride: 1
		weight_filler {
			type: "gaussian"
			std: 0.01
		}
		bias_filler {
			type: "constant"
		}
	}
}

layer{
	name: "Mconv2_1_stage2_res/branchm_2/branch2/conv_1×1_reduce/bn"
	type: "BN"
	bottom: "Mconv2_1_stage2_res/branchm_2/branch2/conv_1×1_reduce"
	top: "Mconv2_1_stage2_res/branchm_2/branch2/conv_1×1_reduce/bn"
	bn_param {
		frozen:true
	}
}

layer{
	name: "Mconv2_1_stage2_res/branchm_2/branch2/conv_1×1_reduce/bn/relu"
	type: "ReLU"
	bottom: "Mconv2_1_stage2_res/branchm_2/branch2/conv_1×1_reduce/bn"
	top: "Mconv2_1_stage2_res/branchm_2/branch2/conv_1×1_reduce/bn"
}

layer{
	name: "Mconv2_1_stage2_res/branchm_2/branch2/conv_3×3"
	type: "Convolution"
	bottom: "Mconv2_1_stage2_res/branchm_2/branch2/conv_1×1_reduce/bn"
	top: "Mconv2_1_stage2_res/branchm_2/branch2/conv_3×3"
	param{
		lr_mult: 1
		decay_mult: 1
	}
	param{
		lr_mult: 2
		decay_mult: 0
	}
	convolution_param {
		num_output: 64
		pad: 1
		kernel_size: 3
		stride: 1
		weight_filler {
			type: "gaussian"
			std: 0.01
		}
		bias_filler {
			type: "constant"
		}
	}
}

layer{
	name: "Mconv2_1_stage2_res/branchm_2/branch2/conv_3×3/bn"
	type: "BN"
	bottom: "Mconv2_1_stage2_res/branchm_2/branch2/conv_3×3"
	top: "Mconv2_1_stage2_res/branchm_2/branch2/conv_3×3/bn"
	bn_param {
		frozen:true
	}
}

layer{
	name: "Mconv2_1_stage2_res/branchm_2/branch3/conv_1×1_reduce"
	type: "Convolution"
	bottom: "Mconv2_1_stage2_res/branchm_1"
	top: "Mconv2_1_stage2_res/branchm_2/branch3/conv_1×1_reduce"
	param{
		lr_mult: 1
		decay_mult: 1
	}
	param{
		lr_mult: 2
		decay_mult: 0
	}
	convolution_param {
		num_output: 64
		pad: 0
		kernel_size: 1
		stride: 1
		weight_filler {
			type: "gaussian"
			std: 0.01
		}
		bias_filler {
			type: "constant"
		}
	}
}

layer{
	name: "Mconv2_1_stage2_res/branchm_2/branch3/conv_1×1_reduce/bn"
	type: "BN"
	bottom: "Mconv2_1_stage2_res/branchm_2/branch3/conv_1×1_reduce"
	top: "Mconv2_1_stage2_res/branchm_2/branch3/conv_1×1_reduce/bn"
	bn_param {
		frozen:true
	}
}

layer{
	name: "Mconv2_1_stage2_res/branchm_2/branch3/conv_1×1_reduce/bn/relu"
	type: "ReLU"
	bottom: "Mconv2_1_stage2_res/branchm_2/branch3/conv_1×1_reduce/bn"
	top: "Mconv2_1_stage2_res/branchm_2/branch3/conv_1×1_reduce/bn"
}

layer{
	name: "Mconv2_1_stage2_res/branchm_2/branch3/conv_3×3"
	type: "Convolution"
	bottom: "Mconv2_1_stage2_res/branchm_2/branch3/conv_1×1_reduce/bn"
	top: "Mconv2_1_stage2_res/branchm_2/branch3/conv_3×3"
	param{
		lr_mult: 1
		decay_mult: 1
	}
	param{
		lr_mult: 2
		decay_mult: 0
	}
	convolution_param {
		num_output: 64
		pad: 1
		kernel_size: 3
		stride: 1
		weight_filler {
			type: "gaussian"
			std: 0.01
		}
		bias_filler {
			type: "constant"
		}
	}
}

layer{
	name: "Mconv2_1_stage2_res/branchm_2/branch3/conv_3×3/bn"
	type: "BN"
	bottom: "Mconv2_1_stage2_res/branchm_2/branch3/conv_3×3"
	top: "Mconv2_1_stage2_res/branchm_2/branch3/conv_3×3/bn"
	bn_param {
		frozen:true
	}
}

layer{
	name: "Mconv2_1_stage2_res/branchm_2/branch3/conv_3×3/bn/relu"
	type: "ReLU"
	bottom: "Mconv2_1_stage2_res/branchm_2/branch3/conv_3×3/bn"
	top: "Mconv2_1_stage2_res/branchm_2/branch3/conv_3×3/bn"
}

layer{
	name: "Mconv2_1_stage2_res/branchm_2/branch3/conv2_3×3"
	type: "Convolution"
	bottom: "Mconv2_1_stage2_res/branchm_2/branch3/conv_3×3/bn"
	top: "Mconv2_1_stage2_res/branchm_2/branch3/conv2_3×3"
	param{
		lr_mult: 1
		decay_mult: 1
	}
	param{
		lr_mult: 2
		decay_mult: 0
	}
	convolution_param {
		num_output: 64
		pad: 1
		kernel_size: 3
		stride: 1
		weight_filler {
			type: "gaussian"
			std: 0.01
		}
		bias_filler {
			type: "constant"
		}
	}
}

layer{
	name: "Mconv2_1_stage2_res/branchm_2/branch3/conv2_3×3/bn"
	type: "BN"
	bottom: "Mconv2_1_stage2_res/branchm_2/branch3/conv2_3×3"
	top: "Mconv2_1_stage2_res/branchm_2/branch3/conv2_3×3/bn"
	bn_param {
		frozen:true
	}
}

layer{
	name: "Mconv2_1_stage2_res/branchm_2/branch5/concat"
	type: "Concat"
	bottom: "Mconv2_1_stage2_res/branchm_2/branch1/conv_1×1_reduce/bn"
	bottom: "Mconv2_1_stage2_res/branchm_2/branch2/conv_3×3/bn"
	bottom: "Mconv2_1_stage2_res/branchm_2/branch3/conv2_3×3/bn"
	top: "Mconv2_1_stage2_res/branchm_2/branch5/concat"
	concat_param{
		axis: 1
	}
}

layer{
	name: "Mconv2_1_stage2_res/branchm_2/branch5/concat/relu"
	type: "ReLU"
	bottom: "Mconv2_1_stage2_res/branchm_2/branch5/concat"
	top: "Mconv2_1_stage2_res/branchm_2/branch5/concat"
}

layer{
	name: "Mconv2_1_stage2_res/branchm_2/branch5/conv_1×1_increase"
	type: "Convolution"
	bottom: "Mconv2_1_stage2_res/branchm_2/branch5/concat"
	top: "Mconv2_1_stage2_res/branchm_2/branch5/conv_1×1_increase"
	param{
		lr_mult: 1
		decay_mult: 1
	}
	param{
		lr_mult: 2
		decay_mult: 0
	}
	convolution_param {
		num_output: 128
		pad: 0
		kernel_size: 1
		stride: 1
		weight_filler {
			type: "gaussian"
			std: 0.01
		}
		bias_filler {
			type: "constant"
		}
	}
}

layer{
	name: "Mconv2_1_stage2_res/branchm_2/branch5/conv_1×1_increase/bn"
	type: "BN"
	bottom: "Mconv2_1_stage2_res/branchm_2/branch5/conv_1×1_increase"
	top: "Mconv2_1_stage2_res/branchm_2/branch5/conv_1×1_increase/bn"
	bn_param {
		frozen:true
	}
}

layer{
	name: "Mconv2_1_stage2_res/branchm_2"
	type: "Eltwise"
	bottom: "Mconv2_1_stage2_res/branchm_2/branch5/conv_1×1_increase/bn"
	bottom: "Mconv2_1_stage2_res/branchm_1"
	top: "Mconv2_1_stage2_res/branchm_2"
	eltwise_param {
		operation: SUM
	}
}

#ooooooooooooooooooooooooooooooooooooooooooooooooooooooooo
layer{
	name: "Mconv2_1_stage2_res/branchm_2/relu"
	type: "ReLU"
	bottom: "Mconv2_1_stage2_res/branchm_2"
	top: "Mconv2_1_stage2_res/branchm_2"
}

layer{
	name: "Mconv2_1_stage2_res/branchm/conv_1×1_reduce"
	type: "Convolution"
	bottom: "Mconv2_1_stage2_res/branchm_2"
	top: "Mconv2_1_stage2_res/branchm/conv_1×1_reduce"
	param{
		lr_mult: 1
		decay_mult: 1
	}
	param{
		lr_mult: 2
		decay_mult: 0
	}
	convolution_param {
		num_output: 64
		pad: 0
		kernel_size: 1
		stride: 1
		weight_filler {
			type: "gaussian"
			std: 0.01
		}
		bias_filler {
			type: "constant"
		}
	}
}

#aaaaaaaaaaaaaaaaaaaaaaaaaaaaaaaaaaaaaaaaaaaaaaaaaaaaaaaaaaaaaa
layer{
	name: "Mconv2_1_stage2_res/branchl_1/branch1/conv_1×1_reduce"
	type: "Convolution"
	bottom: "concat_stage2_1"
	top: "Mconv2_1_stage2_res/branchl_1/branch1/conv_1×1_reduce"
	param{
		lr_mult: 1
		decay_mult: 1
	}
	param{
		lr_mult: 2
		decay_mult: 0
	}
	convolution_param {
		num_output: 64
		pad: 0
		kernel_size: 1
		stride: 1
		weight_filler {
			type: "gaussian"
			std: 0.01
		}
		bias_filler {
			type: "constant"
		}
	}
}

layer{
	name: "Mconv2_1_stage2_res/branchl_1/branch1/conv_1×1_reduce/bn"
	type: "BN"
	bottom: "Mconv2_1_stage2_res/branchl_1/branch1/conv_1×1_reduce"
	top: "Mconv2_1_stage2_res/branchl_1/branch1/conv_1×1_reduce/bn"
	bn_param {
		frozen:true
	}
}

layer{
	name: "Mconv2_1_stage2_res/branchl_1/branch2/conv_1×1_reduce"
	type: "Convolution"
	bottom: "concat_stage2_1"
	top: "Mconv2_1_stage2_res/branchl_1/branch2/conv_1×1_reduce"
	param{
		lr_mult: 1
		decay_mult: 1
	}
	param{
		lr_mult: 2
		decay_mult: 0
	}
	convolution_param {
		num_output: 64
		pad: 0
		kernel_size: 1
		stride: 1
		weight_filler {
			type: "gaussian"
			std: 0.01
		}
		bias_filler {
			type: "constant"
		}
	}
}

layer{
	name: "Mconv2_1_stage2_res/branchl_1/branch2/conv_1×1_reduce/bn"
	type: "BN"
	bottom: "Mconv2_1_stage2_res/branchl_1/branch2/conv_1×1_reduce"
	top: "Mconv2_1_stage2_res/branchl_1/branch2/conv_1×1_reduce/bn"
	bn_param {
		frozen:true
	}
}

layer{
	name: "Mconv2_1_stage2_res/branchl_1/branch2/conv_1×1_reduce/bn/relu"
	type: "ReLU"
	bottom: "Mconv2_1_stage2_res/branchl_1/branch2/conv_1×1_reduce/bn"
	top: "Mconv2_1_stage2_res/branchl_1/branch2/conv_1×1_reduce/bn"
}

layer{
	name: "Mconv2_1_stage2_res/branchl_1/branch2/conv_3×3"
	type: "Convolution"
	bottom: "Mconv2_1_stage2_res/branchl_1/branch2/conv_1×1_reduce/bn"
	top: "Mconv2_1_stage2_res/branchl_1/branch2/conv_3×3"
	param{
		lr_mult: 1
		decay_mult: 1
	}
	param{
		lr_mult: 2
		decay_mult: 0
	}
	convolution_param {
		num_output: 64
		pad: 1
		kernel_size: 3
		stride: 1
		weight_filler {
			type: "gaussian"
			std: 0.01
		}
		bias_filler {
			type: "constant"
		}
	}
}

layer{
	name: "Mconv2_1_stage2_res/branchl_1/branch2/conv_3×3/bn"
	type: "BN"
	bottom: "Mconv2_1_stage2_res/branchl_1/branch2/conv_3×3"
	top: "Mconv2_1_stage2_res/branchl_1/branch2/conv_3×3/bn"
	bn_param {
		frozen:true
	}
}

layer{
	name: "Mconv2_1_stage2_res/branchl_1/branch3/conv_1×1_reduce"
	type: "Convolution"
	bottom: "concat_stage2_1"
	top: "Mconv2_1_stage2_res/branchl_1/branch3/conv_1×1_reduce"
	param{
		lr_mult: 1
		decay_mult: 1
	}
	param{
		lr_mult: 2
		decay_mult: 0
	}
	convolution_param {
		num_output: 64
		pad: 0
		kernel_size: 1
		stride: 1
		weight_filler {
			type: "gaussian"
			std: 0.01
		}
		bias_filler {
			type: "constant"
		}
	}
}

layer{
	name: "Mconv2_1_stage2_res/branchl_1/branch3/conv_1×1_reduce/bn"
	type: "BN"
	bottom: "Mconv2_1_stage2_res/branchl_1/branch3/conv_1×1_reduce"
	top: "Mconv2_1_stage2_res/branchl_1/branch3/conv_1×1_reduce/bn"
	bn_param {
		frozen:true
	}
}

layer{
	name: "Mconv2_1_stage2_res/branchl_1/branch3/conv_1×1_reduce/bn/relu"
	type: "ReLU"
	bottom: "Mconv2_1_stage2_res/branchl_1/branch3/conv_1×1_reduce/bn"
	top: "Mconv2_1_stage2_res/branchl_1/branch3/conv_1×1_reduce/bn"
}

layer{
	name: "Mconv2_1_stage2_res/branchl_1/branch3/conv_3×3"
	type: "Convolution"
	bottom: "Mconv2_1_stage2_res/branchl_1/branch3/conv_1×1_reduce/bn"
	top: "Mconv2_1_stage2_res/branchl_1/branch3/conv_3×3"
	param{
		lr_mult: 1
		decay_mult: 1
	}
	param{
		lr_mult: 2
		decay_mult: 0
	}
	convolution_param {
		num_output: 64
		pad: 1
		kernel_size: 3
		stride: 1
		weight_filler {
			type: "gaussian"
			std: 0.01
		}
		bias_filler {
			type: "constant"
		}
	}
}

layer{
	name: "Mconv2_1_stage2_res/branchl_1/branch3/conv_3×3/bn"
	type: "BN"
	bottom: "Mconv2_1_stage2_res/branchl_1/branch3/conv_3×3"
	top: "Mconv2_1_stage2_res/branchl_1/branch3/conv_3×3/bn"
	bn_param {
		frozen:true
	}
}

layer{
	name: "Mconv2_1_stage2_res/branchl_1/branch3/conv_3×3/bn/relu"
	type: "ReLU"
	bottom: "Mconv2_1_stage2_res/branchl_1/branch3/conv_3×3/bn"
	top: "Mconv2_1_stage2_res/branchl_1/branch3/conv_3×3/bn"
}

layer{
	name: "Mconv2_1_stage2_res/branchl_1/branch3/conv2_3×3"
	type: "Convolution"
	bottom: "Mconv2_1_stage2_res/branchl_1/branch3/conv_3×3/bn"
	top: "Mconv2_1_stage2_res/branchl_1/branch3/conv2_3×3"
	param{
		lr_mult: 1
		decay_mult: 1
	}
	param{
		lr_mult: 2
		decay_mult: 0
	}
	convolution_param {
		num_output: 64
		pad: 1
		kernel_size: 3
		stride: 1
		weight_filler {
			type: "gaussian"
			std: 0.01
		}
		bias_filler {
			type: "constant"
		}
	}
}

layer{
	name: "Mconv2_1_stage2_res/branchl_1/branch3/conv2_3×3/bn"
	type: "BN"
	bottom: "Mconv2_1_stage2_res/branchl_1/branch3/conv2_3×3"
	top: "Mconv2_1_stage2_res/branchl_1/branch3/conv2_3×3/bn"
	bn_param {
		frozen:true
	}
}

layer{
	name: "Mconv2_1_stage2_res/branchl_1/branch5/concat"
	type: "Concat"
	bottom: "Mconv2_1_stage2_res/branchl_1/branch1/conv_1×1_reduce/bn"
	bottom: "Mconv2_1_stage2_res/branchl_1/branch2/conv_3×3/bn"
	bottom: "Mconv2_1_stage2_res/branchl_1/branch3/conv2_3×3/bn"
	top: "Mconv2_1_stage2_res/branchl_1/branch5/concat"
	concat_param{
		axis: 1
	}
}

layer{
	name: "Mconv2_1_stage2_res/branchl_1/branch5/concat/relu"
	type: "ReLU"
	bottom: "Mconv2_1_stage2_res/branchl_1/branch5/concat"
	top: "Mconv2_1_stage2_res/branchl_1/branch5/concat"
}

layer{
	name: "Mconv2_1_stage2_res/branchl_1/branch5/conv_1×1_increase"
	type: "Convolution"
	bottom: "Mconv2_1_stage2_res/branchl_1/branch5/concat"
	top: "Mconv2_1_stage2_res/branchl_1/branch5/conv_1×1_increase"
	param{
		lr_mult: 1
		decay_mult: 1
	}
	param{
		lr_mult: 2
		decay_mult: 0
	}
	convolution_param {
		num_output: 128
		pad: 0
		kernel_size: 1
		stride: 1
		weight_filler {
			type: "gaussian"
			std: 0.01
		}
		bias_filler {
			type: "constant"
		}
	}
}

layer{
	name: "Mconv2_1_stage2_res/branchl_1/branch5/conv_1×1_increase/bn"
	type: "BN"
	bottom: "Mconv2_1_stage2_res/branchl_1/branch5/conv_1×1_increase"
	top: "Mconv2_1_stage2_res/branchl_1/branch5/conv_1×1_increase/bn"
	bn_param {
		frozen:true
	}
}

layer{
	name: "Mconv2_1_stage2_res/branchl_1/branch6/conv_1×1_increase"
	type: "Convolution"
	bottom: "concat_stage2_1"
	top: "Mconv2_1_stage2_res/branchl_1/branch6/conv_1×1_increase"
	param{
		lr_mult: 1
		decay_mult: 1
	}
	param{
		lr_mult: 2
		decay_mult: 0
	}
	convolution_param {
		num_output: 128
		pad: 0
		kernel_size: 1
		stride: 1
		weight_filler {
			type: "gaussian"
			std: 0.01
		}
		bias_filler {
			type: "constant"
		}
	}
}

layer{
	name: "Mconv2_1_stage2_res/branchl_1/branch6/conv_1×1_increase/bn"
	type: "BN"
	bottom: "Mconv2_1_stage2_res/branchl_1/branch6/conv_1×1_increase"
	top: "Mconv2_1_stage2_res/branchl_1/branch6/conv_1×1_increase/bn"
	bn_param {
		frozen:true
	}
}

layer{
	name: "Mconv2_1_stage2_res/branchl_1"
	type: "Eltwise"
	bottom: "Mconv2_1_stage2_res/branchl_1/branch5/conv_1×1_increase/bn"
	bottom: "Mconv2_1_stage2_res/branchl_1/branch6/conv_1×1_increase/bn"
	top: "Mconv2_1_stage2_res/branchl_1"
	eltwise_param {
		operation: SUM
	}
}

#ooooooooooooooooooooooooooooooooooooooooooooooooooooooooo
layer{
	name: "Mconv2_1_stage2_res/branchl_1/relu"
	type: "ReLU"
	bottom: "Mconv2_1_stage2_res/branchl_1"
	top: "Mconv2_1_stage2_res/branchl_1"
}

#aaaaaaaaaaaaaaaaaaaaaaaaaaaaaaaaaaaaaaaaaaaaaaaaaaaaaaaaaaaaaa
layer{
	name: "Mconv2_1_stage2_res/branchl_2/branch1/conv_1×1_reduce"
	type: "Convolution"
	bottom: "Mconv2_1_stage2_res/branchl_1"
	top: "Mconv2_1_stage2_res/branchl_2/branch1/conv_1×1_reduce"
	param{
		lr_mult: 1
		decay_mult: 1
	}
	param{
		lr_mult: 2
		decay_mult: 0
	}
	convolution_param {
		num_output: 64
		pad: 0
		kernel_size: 1
		stride: 1
		weight_filler {
			type: "gaussian"
			std: 0.01
		}
		bias_filler {
			type: "constant"
		}
	}
}

layer{
	name: "Mconv2_1_stage2_res/branchl_2/branch1/conv_1×1_reduce/bn"
	type: "BN"
	bottom: "Mconv2_1_stage2_res/branchl_2/branch1/conv_1×1_reduce"
	top: "Mconv2_1_stage2_res/branchl_2/branch1/conv_1×1_reduce/bn"
	bn_param {
		frozen:true
	}
}

layer{
	name: "Mconv2_1_stage2_res/branchl_2/branch2/conv_1×1_reduce"
	type: "Convolution"
	bottom: "Mconv2_1_stage2_res/branchl_1"
	top: "Mconv2_1_stage2_res/branchl_2/branch2/conv_1×1_reduce"
	param{
		lr_mult: 1
		decay_mult: 1
	}
	param{
		lr_mult: 2
		decay_mult: 0
	}
	convolution_param {
		num_output: 64
		pad: 0
		kernel_size: 1
		stride: 1
		weight_filler {
			type: "gaussian"
			std: 0.01
		}
		bias_filler {
			type: "constant"
		}
	}
}

layer{
	name: "Mconv2_1_stage2_res/branchl_2/branch2/conv_1×1_reduce/bn"
	type: "BN"
	bottom: "Mconv2_1_stage2_res/branchl_2/branch2/conv_1×1_reduce"
	top: "Mconv2_1_stage2_res/branchl_2/branch2/conv_1×1_reduce/bn"
	bn_param {
		frozen:true
	}
}

layer{
	name: "Mconv2_1_stage2_res/branchl_2/branch2/conv_1×1_reduce/bn/relu"
	type: "ReLU"
	bottom: "Mconv2_1_stage2_res/branchl_2/branch2/conv_1×1_reduce/bn"
	top: "Mconv2_1_stage2_res/branchl_2/branch2/conv_1×1_reduce/bn"
}

layer{
	name: "Mconv2_1_stage2_res/branchl_2/branch2/conv_3×3"
	type: "Convolution"
	bottom: "Mconv2_1_stage2_res/branchl_2/branch2/conv_1×1_reduce/bn"
	top: "Mconv2_1_stage2_res/branchl_2/branch2/conv_3×3"
	param{
		lr_mult: 1
		decay_mult: 1
	}
	param{
		lr_mult: 2
		decay_mult: 0
	}
	convolution_param {
		num_output: 64
		pad: 1
		kernel_size: 3
		stride: 1
		weight_filler {
			type: "gaussian"
			std: 0.01
		}
		bias_filler {
			type: "constant"
		}
	}
}

layer{
	name: "Mconv2_1_stage2_res/branchl_2/branch2/conv_3×3/bn"
	type: "BN"
	bottom: "Mconv2_1_stage2_res/branchl_2/branch2/conv_3×3"
	top: "Mconv2_1_stage2_res/branchl_2/branch2/conv_3×3/bn"
	bn_param {
		frozen:true
	}
}

layer{
	name: "Mconv2_1_stage2_res/branchl_2/branch3/conv_1×1_reduce"
	type: "Convolution"
	bottom: "Mconv2_1_stage2_res/branchl_1"
	top: "Mconv2_1_stage2_res/branchl_2/branch3/conv_1×1_reduce"
	param{
		lr_mult: 1
		decay_mult: 1
	}
	param{
		lr_mult: 2
		decay_mult: 0
	}
	convolution_param {
		num_output: 64
		pad: 0
		kernel_size: 1
		stride: 1
		weight_filler {
			type: "gaussian"
			std: 0.01
		}
		bias_filler {
			type: "constant"
		}
	}
}

layer{
	name: "Mconv2_1_stage2_res/branchl_2/branch3/conv_1×1_reduce/bn"
	type: "BN"
	bottom: "Mconv2_1_stage2_res/branchl_2/branch3/conv_1×1_reduce"
	top: "Mconv2_1_stage2_res/branchl_2/branch3/conv_1×1_reduce/bn"
	bn_param {
		frozen:true
	}
}

layer{
	name: "Mconv2_1_stage2_res/branchl_2/branch3/conv_1×1_reduce/bn/relu"
	type: "ReLU"
	bottom: "Mconv2_1_stage2_res/branchl_2/branch3/conv_1×1_reduce/bn"
	top: "Mconv2_1_stage2_res/branchl_2/branch3/conv_1×1_reduce/bn"
}

layer{
	name: "Mconv2_1_stage2_res/branchl_2/branch3/conv_3×3"
	type: "Convolution"
	bottom: "Mconv2_1_stage2_res/branchl_2/branch3/conv_1×1_reduce/bn"
	top: "Mconv2_1_stage2_res/branchl_2/branch3/conv_3×3"
	param{
		lr_mult: 1
		decay_mult: 1
	}
	param{
		lr_mult: 2
		decay_mult: 0
	}
	convolution_param {
		num_output: 64
		pad: 1
		kernel_size: 3
		stride: 1
		weight_filler {
			type: "gaussian"
			std: 0.01
		}
		bias_filler {
			type: "constant"
		}
	}
}

layer{
	name: "Mconv2_1_stage2_res/branchl_2/branch3/conv_3×3/bn"
	type: "BN"
	bottom: "Mconv2_1_stage2_res/branchl_2/branch3/conv_3×3"
	top: "Mconv2_1_stage2_res/branchl_2/branch3/conv_3×3/bn"
	bn_param {
		frozen:true
	}
}

layer{
	name: "Mconv2_1_stage2_res/branchl_2/branch3/conv_3×3/bn/relu"
	type: "ReLU"
	bottom: "Mconv2_1_stage2_res/branchl_2/branch3/conv_3×3/bn"
	top: "Mconv2_1_stage2_res/branchl_2/branch3/conv_3×3/bn"
}

layer{
	name: "Mconv2_1_stage2_res/branchl_2/branch3/conv2_3×3"
	type: "Convolution"
	bottom: "Mconv2_1_stage2_res/branchl_2/branch3/conv_3×3/bn"
	top: "Mconv2_1_stage2_res/branchl_2/branch3/conv2_3×3"
	param{
		lr_mult: 1
		decay_mult: 1
	}
	param{
		lr_mult: 2
		decay_mult: 0
	}
	convolution_param {
		num_output: 64
		pad: 1
		kernel_size: 3
		stride: 1
		weight_filler {
			type: "gaussian"
			std: 0.01
		}
		bias_filler {
			type: "constant"
		}
	}
}

layer{
	name: "Mconv2_1_stage2_res/branchl_2/branch3/conv2_3×3/bn"
	type: "BN"
	bottom: "Mconv2_1_stage2_res/branchl_2/branch3/conv2_3×3"
	top: "Mconv2_1_stage2_res/branchl_2/branch3/conv2_3×3/bn"
	bn_param {
		frozen:true
	}
}

layer{
	name: "Mconv2_1_stage2_res/branchl_2/branch5/concat"
	type: "Concat"
	bottom: "Mconv2_1_stage2_res/branchl_2/branch1/conv_1×1_reduce/bn"
	bottom: "Mconv2_1_stage2_res/branchl_2/branch2/conv_3×3/bn"
	bottom: "Mconv2_1_stage2_res/branchl_2/branch3/conv2_3×3/bn"
	top: "Mconv2_1_stage2_res/branchl_2/branch5/concat"
	concat_param{
		axis: 1
	}
}

layer{
	name: "Mconv2_1_stage2_res/branchl_2/branch5/concat/relu"
	type: "ReLU"
	bottom: "Mconv2_1_stage2_res/branchl_2/branch5/concat"
	top: "Mconv2_1_stage2_res/branchl_2/branch5/concat"
}

layer{
	name: "Mconv2_1_stage2_res/branchl_2/branch5/conv_1×1_increase"
	type: "Convolution"
	bottom: "Mconv2_1_stage2_res/branchl_2/branch5/concat"
	top: "Mconv2_1_stage2_res/branchl_2/branch5/conv_1×1_increase"
	param{
		lr_mult: 1
		decay_mult: 1
	}
	param{
		lr_mult: 2
		decay_mult: 0
	}
	convolution_param {
		num_output: 128
		pad: 0
		kernel_size: 1
		stride: 1
		weight_filler {
			type: "gaussian"
			std: 0.01
		}
		bias_filler {
			type: "constant"
		}
	}
}

layer{
	name: "Mconv2_1_stage2_res/branchl_2/branch5/conv_1×1_increase/bn"
	type: "BN"
	bottom: "Mconv2_1_stage2_res/branchl_2/branch5/conv_1×1_increase"
	top: "Mconv2_1_stage2_res/branchl_2/branch5/conv_1×1_increase/bn"
	bn_param {
		frozen:true
	}
}

layer{
	name: "Mconv2_1_stage2_res/branchl_2"
	type: "Eltwise"
	bottom: "Mconv2_1_stage2_res/branchl_2/branch5/conv_1×1_increase/bn"
	bottom: "Mconv2_1_stage2_res/branchl_1"
	top: "Mconv2_1_stage2_res/branchl_2"
	eltwise_param {
		operation: SUM
	}
}

#ooooooooooooooooooooooooooooooooooooooooooooooooooooooooo
layer{
	name: "Mconv2_1_stage2_res/branchl_2/relu"
	type: "ReLU"
	bottom: "Mconv2_1_stage2_res/branchl_2"
	top: "Mconv2_1_stage2_res/branchl_2"
}

#aaaaaaaaaaaaaaaaaaaaaaaaaaaaaaaaaaaaaaaaaaaaaaaaaaaaaaaaaaaaaa
layer{
	name: "Mconv2_1_stage2_res/branchl_3/branch1/conv_1×1_reduce"
	type: "Convolution"
	bottom: "Mconv2_1_stage2_res/branchl_2"
	top: "Mconv2_1_stage2_res/branchl_3/branch1/conv_1×1_reduce"
	param{
		lr_mult: 1
		decay_mult: 1
	}
	param{
		lr_mult: 2
		decay_mult: 0
	}
	convolution_param {
		num_output: 64
		pad: 0
		kernel_size: 1
		stride: 1
		weight_filler {
			type: "gaussian"
			std: 0.01
		}
		bias_filler {
			type: "constant"
		}
	}
}

layer{
	name: "Mconv2_1_stage2_res/branchl_3/branch1/conv_1×1_reduce/bn"
	type: "BN"
	bottom: "Mconv2_1_stage2_res/branchl_3/branch1/conv_1×1_reduce"
	top: "Mconv2_1_stage2_res/branchl_3/branch1/conv_1×1_reduce/bn"
	bn_param {
		frozen:true
	}
}

layer{
	name: "Mconv2_1_stage2_res/branchl_3/branch2/conv_1×1_reduce"
	type: "Convolution"
	bottom: "Mconv2_1_stage2_res/branchl_2"
	top: "Mconv2_1_stage2_res/branchl_3/branch2/conv_1×1_reduce"
	param{
		lr_mult: 1
		decay_mult: 1
	}
	param{
		lr_mult: 2
		decay_mult: 0
	}
	convolution_param {
		num_output: 64
		pad: 0
		kernel_size: 1
		stride: 1
		weight_filler {
			type: "gaussian"
			std: 0.01
		}
		bias_filler {
			type: "constant"
		}
	}
}

layer{
	name: "Mconv2_1_stage2_res/branchl_3/branch2/conv_1×1_reduce/bn"
	type: "BN"
	bottom: "Mconv2_1_stage2_res/branchl_3/branch2/conv_1×1_reduce"
	top: "Mconv2_1_stage2_res/branchl_3/branch2/conv_1×1_reduce/bn"
	bn_param {
		frozen:true
	}
}

layer{
	name: "Mconv2_1_stage2_res/branchl_3/branch2/conv_1×1_reduce/bn/relu"
	type: "ReLU"
	bottom: "Mconv2_1_stage2_res/branchl_3/branch2/conv_1×1_reduce/bn"
	top: "Mconv2_1_stage2_res/branchl_3/branch2/conv_1×1_reduce/bn"
}

layer{
	name: "Mconv2_1_stage2_res/branchl_3/branch2/conv_3×3"
	type: "Convolution"
	bottom: "Mconv2_1_stage2_res/branchl_3/branch2/conv_1×1_reduce/bn"
	top: "Mconv2_1_stage2_res/branchl_3/branch2/conv_3×3"
	param{
		lr_mult: 1
		decay_mult: 1
	}
	param{
		lr_mult: 2
		decay_mult: 0
	}
	convolution_param {
		num_output: 64
		pad: 1
		kernel_size: 3
		stride: 1
		weight_filler {
			type: "gaussian"
			std: 0.01
		}
		bias_filler {
			type: "constant"
		}
	}
}

layer{
	name: "Mconv2_1_stage2_res/branchl_3/branch2/conv_3×3/bn"
	type: "BN"
	bottom: "Mconv2_1_stage2_res/branchl_3/branch2/conv_3×3"
	top: "Mconv2_1_stage2_res/branchl_3/branch2/conv_3×3/bn"
	bn_param {
		frozen:true
	}
}

layer{
	name: "Mconv2_1_stage2_res/branchl_3/branch3/conv_1×1_reduce"
	type: "Convolution"
	bottom: "Mconv2_1_stage2_res/branchl_2"
	top: "Mconv2_1_stage2_res/branchl_3/branch3/conv_1×1_reduce"
	param{
		lr_mult: 1
		decay_mult: 1
	}
	param{
		lr_mult: 2
		decay_mult: 0
	}
	convolution_param {
		num_output: 64
		pad: 0
		kernel_size: 1
		stride: 1
		weight_filler {
			type: "gaussian"
			std: 0.01
		}
		bias_filler {
			type: "constant"
		}
	}
}

layer{
	name: "Mconv2_1_stage2_res/branchl_3/branch3/conv_1×1_reduce/bn"
	type: "BN"
	bottom: "Mconv2_1_stage2_res/branchl_3/branch3/conv_1×1_reduce"
	top: "Mconv2_1_stage2_res/branchl_3/branch3/conv_1×1_reduce/bn"
	bn_param {
		frozen:true
	}
}

layer{
	name: "Mconv2_1_stage2_res/branchl_3/branch3/conv_1×1_reduce/bn/relu"
	type: "ReLU"
	bottom: "Mconv2_1_stage2_res/branchl_3/branch3/conv_1×1_reduce/bn"
	top: "Mconv2_1_stage2_res/branchl_3/branch3/conv_1×1_reduce/bn"
}

layer{
	name: "Mconv2_1_stage2_res/branchl_3/branch3/conv_3×3"
	type: "Convolution"
	bottom: "Mconv2_1_stage2_res/branchl_3/branch3/conv_1×1_reduce/bn"
	top: "Mconv2_1_stage2_res/branchl_3/branch3/conv_3×3"
	param{
		lr_mult: 1
		decay_mult: 1
	}
	param{
		lr_mult: 2
		decay_mult: 0
	}
	convolution_param {
		num_output: 64
		pad: 1
		kernel_size: 3
		stride: 1
		weight_filler {
			type: "gaussian"
			std: 0.01
		}
		bias_filler {
			type: "constant"
		}
	}
}

layer{
	name: "Mconv2_1_stage2_res/branchl_3/branch3/conv_3×3/bn"
	type: "BN"
	bottom: "Mconv2_1_stage2_res/branchl_3/branch3/conv_3×3"
	top: "Mconv2_1_stage2_res/branchl_3/branch3/conv_3×3/bn"
	bn_param {
		frozen:true
	}
}

layer{
	name: "Mconv2_1_stage2_res/branchl_3/branch3/conv_3×3/bn/relu"
	type: "ReLU"
	bottom: "Mconv2_1_stage2_res/branchl_3/branch3/conv_3×3/bn"
	top: "Mconv2_1_stage2_res/branchl_3/branch3/conv_3×3/bn"
}

layer{
	name: "Mconv2_1_stage2_res/branchl_3/branch3/conv2_3×3"
	type: "Convolution"
	bottom: "Mconv2_1_stage2_res/branchl_3/branch3/conv_3×3/bn"
	top: "Mconv2_1_stage2_res/branchl_3/branch3/conv2_3×3"
	param{
		lr_mult: 1
		decay_mult: 1
	}
	param{
		lr_mult: 2
		decay_mult: 0
	}
	convolution_param {
		num_output: 64
		pad: 1
		kernel_size: 3
		stride: 1
		weight_filler {
			type: "gaussian"
			std: 0.01
		}
		bias_filler {
			type: "constant"
		}
	}
}

layer{
	name: "Mconv2_1_stage2_res/branchl_3/branch3/conv2_3×3/bn"
	type: "BN"
	bottom: "Mconv2_1_stage2_res/branchl_3/branch3/conv2_3×3"
	top: "Mconv2_1_stage2_res/branchl_3/branch3/conv2_3×3/bn"
	bn_param {
		frozen:true
	}
}

layer{
	name: "Mconv2_1_stage2_res/branchl_3/branch5/concat"
	type: "Concat"
	bottom: "Mconv2_1_stage2_res/branchl_3/branch1/conv_1×1_reduce/bn"
	bottom: "Mconv2_1_stage2_res/branchl_3/branch2/conv_3×3/bn"
	bottom: "Mconv2_1_stage2_res/branchl_3/branch3/conv2_3×3/bn"
	top: "Mconv2_1_stage2_res/branchl_3/branch5/concat"
	concat_param{
		axis: 1
	}
}

layer{
	name: "Mconv2_1_stage2_res/branchl_3/branch5/concat/relu"
	type: "ReLU"
	bottom: "Mconv2_1_stage2_res/branchl_3/branch5/concat"
	top: "Mconv2_1_stage2_res/branchl_3/branch5/concat"
}

layer{
	name: "Mconv2_1_stage2_res/branchl_3/branch5/conv_1×1_increase"
	type: "Convolution"
	bottom: "Mconv2_1_stage2_res/branchl_3/branch5/concat"
	top: "Mconv2_1_stage2_res/branchl_3/branch5/conv_1×1_increase"
	param{
		lr_mult: 1
		decay_mult: 1
	}
	param{
		lr_mult: 2
		decay_mult: 0
	}
	convolution_param {
		num_output: 128
		pad: 0
		kernel_size: 1
		stride: 1
		weight_filler {
			type: "gaussian"
			std: 0.01
		}
		bias_filler {
			type: "constant"
		}
	}
}

layer{
	name: "Mconv2_1_stage2_res/branchl_3/branch5/conv_1×1_increase/bn"
	type: "BN"
	bottom: "Mconv2_1_stage2_res/branchl_3/branch5/conv_1×1_increase"
	top: "Mconv2_1_stage2_res/branchl_3/branch5/conv_1×1_increase/bn"
	bn_param {
		frozen:true
	}
}

layer{
	name: "Mconv2_1_stage2_res/branchl_3"
	type: "Eltwise"
	bottom: "Mconv2_1_stage2_res/branchl_3/branch5/conv_1×1_increase/bn"
	bottom: "Mconv2_1_stage2_res/branchl_2"
	top: "Mconv2_1_stage2_res/branchl_3"
	eltwise_param {
		operation: SUM
	}
}

#ooooooooooooooooooooooooooooooooooooooooooooooooooooooooo
layer{
	name: "Mconv2_1_stage2_res/branchl_3/relu"
	type: "ReLU"
	bottom: "Mconv2_1_stage2_res/branchl_3"
	top: "Mconv2_1_stage2_res/branchl_3"
}

layer{
	name: "Mconv2_1_stage2_res/branchl/conv_1×1_reduce"
	type: "Convolution"
	bottom: "Mconv2_1_stage2_res/branchl_3"
	top: "Mconv2_1_stage2_res/branchl/conv_1×1_reduce"
	param{
		lr_mult: 1
		decay_mult: 1
	}
	param{
		lr_mult: 2
		decay_mult: 0
	}
	convolution_param {
		num_output: 64
		pad: 0
		kernel_size: 1
		stride: 1
		weight_filler {
			type: "gaussian"
			std: 0.01
		}
		bias_filler {
			type: "constant"
		}
	}
}

layer{
	name: "Mconv2_1_stage2_res/branchsml/concat"
	type: "Concat"
	bottom: "Mconv2_1_stage2_res/branchs_1"
	bottom: "Mconv2_1_stage2_res/branchm_2"
	bottom: "Mconv2_1_stage2_res/branchl_3"
	top: "Mconv2_1_stage2_res/branchsml/concat"
	concat_param{
		axis: 1
	}
}

layer{
	name: "Mconv2_1_stage2_res/branchsml/concat/relu"
	type: "ReLU"
	bottom: "Mconv2_1_stage2_res/branchsml/concat"
	top: "Mconv2_1_stage2_res/branchsml/concat"
}

layer{
	name: "Mconv2_1_stage2_res/branchsml_1/conv_3×3"
	type: "Convolution"
	bottom: "Mconv2_1_stage2_res/branchsml/concat"
	top: "Mconv2_1_stage2_res/branchsml_1/conv_3×3"
	param{
		lr_mult: 1
		decay_mult: 1
	}
	param{
		lr_mult: 2
		decay_mult: 0
	}
	convolution_param {
		num_output: 192
		pad: 1
		kernel_size: 3
		stride: 2
		weight_filler {
			type: "gaussian"
			std: 0.01
		}
		bias_filler {
			type: "constant"
		}
	}
}

layer{
	name: "Mconv2_1_stage2_res/branchsml_1/conv_3×3/bn"
	type: "BN"
	bottom: "Mconv2_1_stage2_res/branchsml_1/conv_3×3"
	top: "Mconv2_1_stage2_res/branchsml_1/conv_3×3/bn"
	bn_param {
		frozen:true
	}
}

layer{
	name: "Mconv2_1_stage2_res/branchsml_1/conv_3×3/bn/relu"
	type: "ReLU"
	bottom: "Mconv2_1_stage2_res/branchsml_1/conv_3×3/bn"
	top: "Mconv2_1_stage2_res/branchsml_1/conv_3×3/bn"
}

layer{
	name: "Mconv2_1_stage2_res/branchsml_2/conv_3×3"
	type: "Convolution"
	bottom: "Mconv2_1_stage2_res/branchsml_1/conv_3×3/bn"
	top: "Mconv2_1_stage2_res/branchsml_2/conv_3×3"
	param{
		lr_mult: 1
		decay_mult: 1
	}
	param{
		lr_mult: 2
		decay_mult: 0
	}
	convolution_param {
		num_output: 192
		pad: 1
		kernel_size: 3
		stride: 1
		weight_filler {
			type: "gaussian"
			std: 0.01
		}
		bias_filler {
			type: "constant"
		}
	}
}

layer{
	name: "Mconv2_1_stage2_res/branchsml_2/conv_3×3/bn"
	type: "BN"
	bottom: "Mconv2_1_stage2_res/branchsml_2/conv_3×3"
	top: "Mconv2_1_stage2_res/branchsml_2/conv_3×3/bn"
	bn_param {
		frozen:true
	}
}

layer{
	name: "Mconv2_1_stage2_res/branchsml_2/conv_3×3/bn/interp"
	type: "Interp"
	bottom: "Mconv2_1_stage2_res/branchsml_2/conv_3×3/bn"
	top: "Mconv2_1_stage2_res/branchsml_2/conv_3×3/bn/interp"
	interp_param {
		height: 32
		width: 32
	}
}

layer{
	name: "Mconv2_1_stage2_res/branchsml_d/conv_3×3"
	type: "Convolution"
	bottom: "Mconv2_1_stage2_res/branchsml/concat"
	top: "Mconv2_1_stage2_res/branchsml_d/conv_3×3"
	param{
		lr_mult: 1
		decay_mult: 1
	}
	param{
		lr_mult: 2
		decay_mult: 0
	}
	convolution_param {
		num_output: 192
		pad: 1
		kernel_size: 3
		stride: 1
		weight_filler {
			type: "gaussian"
			std: 0.01
		}
		bias_filler {
			type: "constant"
		}
	}
}

layer{
	name: "Mconv2_1_stage2_res/branchsml_d/conv_3×3/bn"
	type: "BN"
	bottom: "Mconv2_1_stage2_res/branchsml_d/conv_3×3"
	top: "Mconv2_1_stage2_res/branchsml_d/conv_3×3/bn"
	bn_param {
		frozen:true
	}
}

layer{
	name: "Mconv2_1_stage2_res/branchsml_merge"
	type: "Eltwise"
	bottom: "Mconv2_1_stage2_res/branchsml_2/conv_3×3/bn/interp"
	bottom: "Mconv2_1_stage2_res/branchsml_d/conv_3×3/bn"
	top: "Mconv2_1_stage2_res/branchsml_merge"
	eltwise_param {
		operation: SUM
	}
}

layer{
	name: "Mconv2_1_stage2_res/branchsml_merge/relu"
	type: "ReLU"
	bottom: "Mconv2_1_stage2_res/branchsml_merge"
	top: "Mconv2_1_stage2_res/branchsml_merge"
}

layer{
	name: "Mconv2_1_stage2_res/branchsml_3/conv_3×3"
	type: "Convolution"
	bottom: "Mconv2_1_stage2_res/branchsml_merge"
	top: "Mconv2_1_stage2_res/branchsml_3/conv_3×3"
	param{
		lr_mult: 1
		decay_mult: 1
	}
	param{
		lr_mult: 2
		decay_mult: 0
	}
	convolution_param {
		num_output: 192
		pad: 1
		kernel_size: 3
		stride: 1
		weight_filler {
			type: "gaussian"
			std: 0.01
		}
		bias_filler {
			type: "constant"
		}
	}
}

layer{
	name: "Mconv2_1_stage2_res/branchsml_3/conv_3×3/bn"
	type: "BN"
	bottom: "Mconv2_1_stage2_res/branchsml_3/conv_3×3"
	top: "Mconv2_1_stage2_res/branchsml_3/conv_3×3/bn"
	bn_param {
		frozen:true
	}
}

layer{
	name: "Mconv2_1_stage2_res/branchsml_3/conv_3×3/bn/relu"
	type: "ReLU"
	bottom: "Mconv2_1_stage2_res/branchsml_3/conv_3×3/bn"
	top: "Mconv2_1_stage2_res/branchsml_3/conv_3×3/bn"
}

layer{
	name: "Mconv2_1_stage2_res/branchsml/conv2_1×1"
	type: "Convolution"
	bottom: "Mconv2_1_stage2_res/branchsml_3/conv_3×3/bn"
	top: "Mconv2_1_stage2_res/branchsml/conv2_1×1"
	param{
		lr_mult: 1
		decay_mult: 1
	}
	param{
		lr_mult: 2
		decay_mult: 0
	}
	convolution_param {
		num_output: 192
		pad: 0
		kernel_size: 1
		stride: 1
		weight_filler {
			type: "gaussian"
			std: 0.01
		}
		bias_filler {
			type: "constant"
		}
	}
}

layer{
	name: "Mconv2_1_stage2_res/branchsml/weight"
	type: "Sigmoid"
	bottom: "Mconv2_1_stage2_res/branchsml/conv2_1×1"
	top: "Mconv2_1_stage2_res/branchsml/weight"
}

layer{
	name: "Mconv2_1_stage2_res/split_weight"
	type: "Slice"
	bottom: "Mconv2_1_stage2_res/branchsml/weight"
	top: "Mconv2_1_stage2_res/weights"
	top: "Mconv2_1_stage2_res/weightm"
	top: "Mconv2_1_stage2_res/weightl"
	slice_param{
		slice_point: 64
		slice_point: 128
		axis: 1
	}
}

layer{
	name: "Mconv2_1_stage2_res/weighted_branchs"
	type: "Eltwise"
	bottom: "Mconv2_1_stage2_res/branchs/conv_1×1_reduce"
	bottom: "Mconv2_1_stage2_res/weights"
	top: "Mconv2_1_stage2_res/weighted_branchs"
	eltwise_param {
		operation: PROD
	}
}

layer{
	name: "Mconv2_1_stage2_res/weighted_branchm"
	type: "Eltwise"
	bottom: "Mconv2_1_stage2_res/branchm/conv_1×1_reduce"
	bottom: "Mconv2_1_stage2_res/weightm"
	top: "Mconv2_1_stage2_res/weighted_branchm"
	eltwise_param {
		operation: PROD
	}
}

layer{
	name: "Mconv2_1_stage2_res/weighted_branchl"
	type: "Eltwise"
	bottom: "Mconv2_1_stage2_res/branchl/conv_1×1_reduce"
	bottom: "Mconv2_1_stage2_res/weightl"
	top: "Mconv2_1_stage2_res/weighted_branchl"
	eltwise_param {
		operation: PROD
	}
}

layer{
	name: "Mconv2_1_stage2_res/weighted_all"
	type: "Eltwise"
	bottom: "Mconv2_1_stage2_res/weighted_branchs"
	bottom: "Mconv2_1_stage2_res/weighted_branchm"
	bottom: "Mconv2_1_stage2_res/weighted_branchl"
	top: "Mconv2_1_stage2_res/weighted_all"
	eltwise_param {
		operation: SUM
	}
}

layer{
	name: "Mconv2_1_stage2_res/weighted_all/bn"
	type: "BN"
	bottom: "Mconv2_1_stage2_res/weighted_all"
	top: "Mconv2_1_stage2_res/weighted_all/bn"
	bn_param {
		frozen:true
	}
}

layer{
	name: "Mconv2_1_stage2_res/weighted_all/relu"
	type: "ReLU"
	bottom: "Mconv2_1_stage2_res/weighted_all/bn"
	top: "Mconv2_1_stage2_res/weighted_all/bn"
}

layer{
	name: "Mconv2_1_stage2_res/branch5/conv_1×1_increase"
	type: "Convolution"
	bottom: "Mconv2_1_stage2_res/weighted_all/bn"
	top: "Mconv2_1_stage2_res/branch5/conv_1×1_increase"
	param{
		lr_mult: 1
		decay_mult: 1
	}
	param{
		lr_mult: 2
		decay_mult: 0
	}
	convolution_param {
		num_output: 128
		pad: 0
		kernel_size: 1
		stride: 1
		weight_filler {
			type: "gaussian"
			std: 0.01
		}
		bias_filler {
			type: "constant"
		}
	}
}

layer{
	name: "Mconv2_1_stage2_res/branch5/conv_1×1_increase/bn"
	type: "BN"
	bottom: "Mconv2_1_stage2_res/branch5/conv_1×1_increase"
	top: "Mconv2_1_stage2_res/branch5/conv_1×1_increase/bn"
	bn_param {
		frozen:true
	}
}

layer{
	name: "Mconv2_1_stage2_res/branch6/conv_1×1_increase"
	type: "Convolution"
	bottom: "concat_stage2_1"
	top: "Mconv2_1_stage2_res/branch6/conv_1×1_increase"
	param{
		lr_mult: 1
		decay_mult: 1
	}
	param{
		lr_mult: 2
		decay_mult: 0
	}
	convolution_param {
		num_output: 128
		pad: 0
		kernel_size: 1
		stride: 1
		weight_filler {
			type: "gaussian"
			std: 0.01
		}
		bias_filler {
			type: "constant"
		}
	}
}

layer{
	name: "Mconv2_1_stage2_res/branch6/conv_1×1_increase/bn"
	type: "BN"
	bottom: "Mconv2_1_stage2_res/branch6/conv_1×1_increase"
	top: "Mconv2_1_stage2_res/branch6/conv_1×1_increase/bn"
	bn_param {
		frozen:true
	}
}

layer{
	name: "Mconv2_1_stage2_res"
	type: "Eltwise"
	bottom: "Mconv2_1_stage2_res/branch5/conv_1×1_increase/bn"
	bottom: "Mconv2_1_stage2_res/branch6/conv_1×1_increase/bn"
	top: "Mconv2_1_stage2_res"
	eltwise_param {
		operation: SUM
	}
}

layer{
	name: "Mconv2_1_stage2_res/relu"
	type: "ReLU"
	bottom: "Mconv2_1_stage2_res"
	top: "Mconv2_1_stage2_res"
}

#ooooooooooooooooooooooooooooooooooooooooooooooooooooooooo
#aaaaaaaaaaaaaaaaaaaaaaaaaaaaaaaaaaaaaaaaaaaaaaaaaaaaaaaaaaaaaa
#aaaaaaaaaaaaaaaaaaaaaaaaaaaaaaaaaaaaaaaaaaaaaaaaaaaaaaaaaaaaaa
layer{
	name: "Mconv2_2_stage2_res/branchs_1/branch1/conv_1×1_reduce"
	type: "Convolution"
	bottom: "Mconv2_1_stage2_res"
	top: "Mconv2_2_stage2_res/branchs_1/branch1/conv_1×1_reduce"
	param{
		lr_mult: 1
		decay_mult: 1
	}
	param{
		lr_mult: 2
		decay_mult: 0
	}
	convolution_param {
		num_output: 64
		pad: 0
		kernel_size: 1
		stride: 1
		weight_filler {
			type: "gaussian"
			std: 0.01
		}
		bias_filler {
			type: "constant"
		}
	}
}

layer{
	name: "Mconv2_2_stage2_res/branchs_1/branch1/conv_1×1_reduce/bn"
	type: "BN"
	bottom: "Mconv2_2_stage2_res/branchs_1/branch1/conv_1×1_reduce"
	top: "Mconv2_2_stage2_res/branchs_1/branch1/conv_1×1_reduce/bn"
	bn_param {
		frozen:true
	}
}

layer{
	name: "Mconv2_2_stage2_res/branchs_1/branch2/conv_1×1_reduce"
	type: "Convolution"
	bottom: "Mconv2_1_stage2_res"
	top: "Mconv2_2_stage2_res/branchs_1/branch2/conv_1×1_reduce"
	param{
		lr_mult: 1
		decay_mult: 1
	}
	param{
		lr_mult: 2
		decay_mult: 0
	}
	convolution_param {
		num_output: 64
		pad: 0
		kernel_size: 1
		stride: 1
		weight_filler {
			type: "gaussian"
			std: 0.01
		}
		bias_filler {
			type: "constant"
		}
	}
}

layer{
	name: "Mconv2_2_stage2_res/branchs_1/branch2/conv_1×1_reduce/bn"
	type: "BN"
	bottom: "Mconv2_2_stage2_res/branchs_1/branch2/conv_1×1_reduce"
	top: "Mconv2_2_stage2_res/branchs_1/branch2/conv_1×1_reduce/bn"
	bn_param {
		frozen:true
	}
}

layer{
	name: "Mconv2_2_stage2_res/branchs_1/branch2/conv_1×1_reduce/bn/relu"
	type: "ReLU"
	bottom: "Mconv2_2_stage2_res/branchs_1/branch2/conv_1×1_reduce/bn"
	top: "Mconv2_2_stage2_res/branchs_1/branch2/conv_1×1_reduce/bn"
}

layer{
	name: "Mconv2_2_stage2_res/branchs_1/branch2/conv_3×3"
	type: "Convolution"
	bottom: "Mconv2_2_stage2_res/branchs_1/branch2/conv_1×1_reduce/bn"
	top: "Mconv2_2_stage2_res/branchs_1/branch2/conv_3×3"
	param{
		lr_mult: 1
		decay_mult: 1
	}
	param{
		lr_mult: 2
		decay_mult: 0
	}
	convolution_param {
		num_output: 64
		pad: 1
		kernel_size: 3
		stride: 1
		weight_filler {
			type: "gaussian"
			std: 0.01
		}
		bias_filler {
			type: "constant"
		}
	}
}

layer{
	name: "Mconv2_2_stage2_res/branchs_1/branch2/conv_3×3/bn"
	type: "BN"
	bottom: "Mconv2_2_stage2_res/branchs_1/branch2/conv_3×3"
	top: "Mconv2_2_stage2_res/branchs_1/branch2/conv_3×3/bn"
	bn_param {
		frozen:true
	}
}

layer{
	name: "Mconv2_2_stage2_res/branchs_1/branch3/conv_1×1_reduce"
	type: "Convolution"
	bottom: "Mconv2_1_stage2_res"
	top: "Mconv2_2_stage2_res/branchs_1/branch3/conv_1×1_reduce"
	param{
		lr_mult: 1
		decay_mult: 1
	}
	param{
		lr_mult: 2
		decay_mult: 0
	}
	convolution_param {
		num_output: 64
		pad: 0
		kernel_size: 1
		stride: 1
		weight_filler {
			type: "gaussian"
			std: 0.01
		}
		bias_filler {
			type: "constant"
		}
	}
}

layer{
	name: "Mconv2_2_stage2_res/branchs_1/branch3/conv_1×1_reduce/bn"
	type: "BN"
…
	name: "Mconv3_3_stage3_res/branchs_1/branch1/conv_1×1_reduce/bn"
	type: "BN"
	bottom: "Mconv3_3_stage3_res/branchs_1/branch1/conv_1×1_reduce"
	top: "Mconv3_3_stage3_res/branchs_1/branch1/conv_1×1_reduce/bn"
	bn_param {
		frozen:true
	}
}

layer{
	name: "Mconv3_3_stage3_res/branchs_1/branch2/conv_1×1_reduce"
	type: "Convolution"
	bottom: "Mconv3_2_stage3_res"
	top: "Mconv3_3_stage3_res/branchs_1/branch2/conv_1×1_reduce"
	param{
		lr_mult: 1
		decay_mult: 1
	}
	param{
		lr_mult: 2
		decay_mult: 0
	}
	convolution_param {
		num_output: 64
		pad: 0
		kernel_size: 1
		stride: 1
		weight_filler {
			type: "gaussian"
			std: 0.01
		}
		bias_filler {
			type: "constant"
		}
	}
}

layer{
	name: "Mconv3_3_stage3_res/branchs_1/branch2/conv_1×1_reduce/bn"
	type: "BN"
	bottom: "Mconv3_3_stage3_res/branchs_1/branch2/conv_1×1_reduce"
	top: "Mconv3_3_stage3_res/branchs_1/branch2/conv_1×1_reduce/bn"
	bn_param {
		frozen:true
	}
}

layer{
	name: "Mconv3_3_stage3_res/branchs_1/branch2/conv_1×1_reduce/bn/relu"
	type: "ReLU"
	bottom: "Mconv3_3_stage3_res/branchs_1/branch2/conv_1×1_reduce/bn"
	top: "Mconv3_3_stage3_res/branchs_1/branch2/conv_1×1_reduce/bn"
}

layer{
	name: "Mconv3_3_stage3_res/branchs_1/branch2/conv_3×3"
	type: "Convolution"
	bottom: "Mconv3_3_stage3_res/branchs_1/branch2/conv_1×1_reduce/bn"
	top: "Mconv3_3_stage3_res/branchs_1/branch2/conv_3×3"
	param{
		lr_mult: 1
		decay_mult: 1
	}
	param{
		lr_mult: 2
		decay_mult: 0
	}
	convolution_param {
		num_output: 64
		pad: 1
		kernel_size: 3
		stride: 1
		weight_filler {
			type: "gaussian"
			std: 0.01
		}
		bias_filler {
			type: "constant"
		}
	}
}

layer{
	name: "Mconv3_3_stage3_res/branchs_1/branch2/conv_3×3/bn"
	type: "BN"
	bottom: "Mconv3_3_stage3_res/branchs_1/branch2/conv_3×3"
	top: "Mconv3_3_stage3_res/branchs_1/branch2/conv_3×3/bn"
	bn_param {
		frozen:true
	}
}

layer{
	name: "Mconv3_3_stage3_res/branchs_1/branch3/conv_1×1_reduce"
	type: "Convolution"
	bottom: "Mconv3_2_stage3_res"
	top: "Mconv3_3_stage3_res/branchs_1/branch3/conv_1×1_reduce"
	param{
		lr_mult: 1
		decay_mult: 1
	}
	param{
		lr_mult: 2
		decay_mult: 0
	}
	convolution_param {
		num_output: 64
		pad: 0
		kernel_size: 1
		stride: 1
		weight_filler {
			type: "gaussian"
			std: 0.01
		}
		bias_filler {
			type: "constant"
		}
	}
}

layer{
	name: "Mconv3_3_stage3_res/branchs_1/branch3/conv_1×1_reduce/bn"
	type: "BN"
	bottom: "Mconv3_3_stage3_res/branchs_1/branch3/conv_1×1_reduce"
	top: "Mconv3_3_stage3_res/branchs_1/branch3/conv_1×1_reduce/bn"
	bn_param {
		frozen:true
	}
}

layer{
	name: "Mconv3_3_stage3_res/branchs_1/branch3/conv_1×1_reduce/bn/relu"
	type: "ReLU"
	bottom: "Mconv3_3_stage3_res/branchs_1/branch3/conv_1×1_reduce/bn"
	top: "Mconv3_3_stage3_res/branchs_1/branch3/conv_1×1_reduce/bn"
}

layer{
	name: "Mconv3_3_stage3_res/branchs_1/branch3/conv_3×3"
	type: "Convolution"
	bottom: "Mconv3_3_stage3_res/branchs_1/branch3/conv_1×1_reduce/bn"
	top: "Mconv3_3_stage3_res/branchs_1/branch3/conv_3×3"
	param{
		lr_mult: 1
		decay_mult: 1
	}
	param{
		lr_mult: 2
		decay_mult: 0
	}
	convolution_param {
		num_output: 64
		pad: 1
		kernel_size: 3
		stride: 1
		weight_filler {
			type: "gaussian"
			std: 0.01
		}
		bias_filler {
			type: "constant"
		}
	}
}

layer{
	name: "Mconv3_3_stage3_res/branchs_1/branch3/conv_3×3/bn"
	type: "BN"
	bottom: "Mconv3_3_stage3_res/branchs_1/branch3/conv_3×3"
	top: "Mconv3_3_stage3_res/branchs_1/branch3/conv_3×3/bn"
	bn_param {
		frozen:true
	}
}

layer{
	name: "Mconv3_3_stage3_res/branchs_1/branch3/conv_3×3/bn/relu"
	type: "ReLU"
	bottom: "Mconv3_3_stage3_res/branchs_1/branch3/conv_3×3/bn"
	top: "Mconv3_3_stage3_res/branchs_1/branch3/conv_3×3/bn"
}

layer{
	name: "Mconv3_3_stage3_res/branchs_1/branch3/conv2_3×3"
	type: "Convolution"
	bottom: "Mconv3_3_stage3_res/branchs_1/branch3/conv_3×3/bn"
	top: "Mconv3_3_stage3_res/branchs_1/branch3/conv2_3×3"
	param{
		lr_mult: 1
		decay_mult: 1
	}
	param{
		lr_mult: 2
		decay_mult: 0
	}
	convolution_param {
		num_output: 64
		pad: 1
		kernel_size: 3
		stride: 1
		weight_filler {
			type: "gaussian"
			std: 0.01
		}
		bias_filler {
			type: "constant"
		}
	}
}

layer{
	name: "Mconv3_3_stage3_res/branchs_1/branch3/conv2_3×3/bn"
	type: "BN"
	bottom: "Mconv3_3_stage3_res/branchs_1/branch3/conv2_3×3"
	top: "Mconv3_3_stage3_res/branchs_1/branch3/conv2_3×3/bn"
	bn_param {
		frozen:true
	}
}

layer{
	name: "Mconv3_3_stage3_res/branchs_1/branch5/concat"
	type: "Concat"
	bottom: "Mconv3_3_stage3_res/branchs_1/branch1/conv_1×1_reduce/bn"
	bottom: "Mconv3_3_stage3_res/branchs_1/branch2/conv_3×3/bn"
	bottom: "Mconv3_3_stage3_res/branchs_1/branch3/conv2_3×3/bn"
	top: "Mconv3_3_stage3_res/branchs_1/branch5/concat"
	concat_param{
		axis: 1
	}
}

layer{
	name: "Mconv3_3_stage3_res/branchs_1/branch5/concat/relu"
	type: "ReLU"
	bottom: "Mconv3_3_stage3_res/branchs_1/branch5/concat"
	top: "Mconv3_3_stage3_res/branchs_1/branch5/concat"
}

layer{
	name: "Mconv3_3_stage3_res/branchs_1/branch5/conv_1×1_increase"
	type: "Convolution"
	bottom: "Mconv3_3_stage3_res/branchs_1/branch5/concat"
	top: "Mconv3_3_stage3_res/branchs_1/branch5/conv_1×1_increase"
	param{
		lr_mult: 1
		decay_mult: 1
	}
	param{
		lr_mult: 2
		decay_mult: 0
	}
	convolution_param {
		num_output: 128
		pad: 0
		kernel_size: 1
		stride: 1
		weight_filler {
			type: "gaussian"
			std: 0.01
		}
		bias_filler {
			type: "constant"
		}
	}
}

layer{
	name: "Mconv3_3_stage3_res/branchs_1/branch5/conv_1×1_increase/bn"
	type: "BN"
	bottom: "Mconv3_3_stage3_res/branchs_1/branch5/conv_1×1_increase"
	top: "Mconv3_3_stage3_res/branchs_1/branch5/conv_1×1_increase/bn"
	bn_param {
		frozen:true
	}
}

layer{
	name: "Mconv3_3_stage3_res/branchs_1"
	type: "Eltwise"
	bottom: "Mconv3_3_stage3_res/branchs_1/branch5/conv_1×1_increase/bn"
	bottom: "Mconv3_2_stage3_res"
	top: "Mconv3_3_stage3_res/branchs_1"
	eltwise_param {
		operation: SUM
	}
}

#ooooooooooooooooooooooooooooooooooooooooooooooooooooooooo
layer{
	name: "Mconv3_3_stage3_res/branchs_1/relu"
	type: "ReLU"
	bottom: "Mconv3_3_stage3_res/branchs_1"
	top: "Mconv3_3_stage3_res/branchs_1"
}

layer{
	name: "Mconv3_3_stage3_res/branchs/conv_1×1_reduce"
	type: "Convolution"
	bottom: "Mconv3_3_stage3_res/branchs_1"
	top: "Mconv3_3_stage3_res/branchs/conv_1×1_reduce"
	param{
		lr_mult: 1
		decay_mult: 1
	}
	param{
		lr_mult: 2
		decay_mult: 0
	}
	convolution_param {
		num_output: 64
		pad: 0
		kernel_size: 1
		stride: 1
		weight_filler {
			type: "gaussian"
			std: 0.01
		}
		bias_filler {
			type: "constant"
		}
	}
}

#aaaaaaaaaaaaaaaaaaaaaaaaaaaaaaaaaaaaaaaaaaaaaaaaaaaaaaaaaaaaaa
layer{
	name: "Mconv3_3_stage3_res/branchm_1/branch1/conv_1×1_reduce"
	type: "Convolution"
	bottom: "Mconv3_2_stage3_res"
	top: "Mconv3_3_stage3_res/branchm_1/branch1/conv_1×1_reduce"
	param{
		lr_mult: 1
		decay_mult: 1
	}
	param{
		lr_mult: 2
		decay_mult: 0
	}
	convolution_param {
		num_output: 64
		pad: 0
		kernel_size: 1
		stride: 1
		weight_filler {
			type: "gaussian"
			std: 0.01
		}
		bias_filler {
			type: "constant"
		}
	}
}

layer{
	name: "Mconv3_3_stage3_res/branchm_1/branch1/conv_1×1_reduce/bn"
	type: "BN"
	bottom: "Mconv3_3_stage3_res/branchm_1/branch1/conv_1×1_reduce"
	top: "Mconv3_3_stage3_res/branchm_1/branch1/conv_1×1_reduce/bn"
	bn_param {
		frozen:true
	}
}

layer{
	name: "Mconv3_3_stage3_res/branchm_1/branch2/conv_1×1_reduce"
	type: "Convolution"
	bottom: "Mconv3_2_stage3_res"
	top: "Mconv3_3_stage3_res/branchm_1/branch2/conv_1×1_reduce"
	param{
		lr_mult: 1
		decay_mult: 1
	}
	param{
		lr_mult: 2
		decay_mult: 0
	}
	convolution_param {
		num_output: 64
		pad: 0
		kernel_size: 1
		stride: 1
		weight_filler {
			type: "gaussian"
			std: 0.01
		}
		bias_filler {
			type: "constant"
		}
	}
}

layer{
	name: "Mconv3_3_stage3_res/branchm_1/branch2/conv_1×1_reduce/bn"
	type: "BN"
	bottom: "Mconv3_3_stage3_res/branchm_1/branch2/conv_1×1_reduce"
	top: "Mconv3_3_stage3_res/branchm_1/branch2/conv_1×1_reduce/bn"
	bn_param {
		frozen:true
	}
}

layer{
	name: "Mconv3_3_stage3_res/branchm_1/branch2/conv_1×1_reduce/bn/relu"
	type: "ReLU"
	bottom: "Mconv3_3_stage3_res/branchm_1/branch2/conv_1×1_reduce/bn"
	top: "Mconv3_3_stage3_res/branchm_1/branch2/conv_1×1_reduce/bn"
}

layer{
	name: "Mconv3_3_stage3_res/branchm_1/branch2/conv_3×3"
	type: "Convolution"
	bottom: "Mconv3_3_stage3_res/branchm_1/branch2/conv_1×1_reduce/bn"
	top: "Mconv3_3_stage3_res/branchm_1/branch2/conv_3×3"
	param{
		lr_mult: 1
		decay_mult: 1
	}
	param{
		lr_mult: 2
		decay_mult: 0
	}
	convolution_param {
		num_output: 64
		pad: 1
		kernel_size: 3
		stride: 1
		weight_filler {
			type: "gaussian"
			std: 0.01
		}
		bias_filler {
			type: "constant"
		}
	}
}

layer{
	name: "Mconv3_3_stage3_res/branchm_1/branch2/conv_3×3/bn"
	type: "BN"
	bottom: "Mconv3_3_stage3_res/branchm_1/branch2/conv_3×3"
	top: "Mconv3_3_stage3_res/branchm_1/branch2/conv_3×3/bn"
	bn_param {
		frozen:true
	}
}

layer{
	name: "Mconv3_3_stage3_res/branchm_1/branch3/conv_1×1_reduce"
	type: "Convolution"
	bottom: "Mconv3_2_stage3_res"
	top: "Mconv3_3_stage3_res/branchm_1/branch3/conv_1×1_reduce"
	param{
		lr_mult: 1
		decay_mult: 1
	}
	param{
		lr_mult: 2
		decay_mult: 0
	}
	convolution_param {
		num_output: 64
		pad: 0
		kernel_size: 1
		stride: 1
		weight_filler {
			type: "gaussian"
			std: 0.01
		}
		bias_filler {
			type: "constant"
		}
	}
}

layer{
	name: "Mconv3_3_stage3_res/branchm_1/branch3/conv_1×1_reduce/bn"
	type: "BN"
	bottom: "Mconv3_3_stage3_res/branchm_1/branch3/conv_1×1_reduce"
	top: "Mconv3_3_stage3_res/branchm_1/branch3/conv_1×1_reduce/bn"
	bn_param {
		frozen:true
	}
}

layer{
	name: "Mconv3_3_stage3_res/branchm_1/branch3/conv_1×1_reduce/bn/relu"
	type: "ReLU"
	bottom: "Mconv3_3_stage3_res/branchm_1/branch3/conv_1×1_reduce/bn"
	top: "Mconv3_3_stage3_res/branchm_1/branch3/conv_1×1_reduce/bn"
}

layer{
	name: "Mconv3_3_stage3_res/branchm_1/branch3/conv_3×3"
	type: "Convolution"
	bottom: "Mconv3_3_stage3_res/branchm_1/branch3/conv_1×1_reduce/bn"
	top: "Mconv3_3_stage3_res/branchm_1/branch3/conv_3×3"
	param{
		lr_mult: 1
		decay_mult: 1
	}
	param{
		lr_mult: 2
		decay_mult: 0
	}
	convolution_param {
		num_output: 64
		pad: 1
		kernel_size: 3
		stride: 1
		weight_filler {
			type: "gaussian"
			std: 0.01
		}
		bias_filler {
			type: "constant"
		}
	}
}

layer{
	name: "Mconv3_3_stage3_res/branchm_1/branch3/conv_3×3/bn"
	type: "BN"
	bottom: "Mconv3_3_stage3_res/branchm_1/branch3/conv_3×3"
	top: "Mconv3_3_stage3_res/branchm_1/branch3/conv_3×3/bn"
	bn_param {
		frozen:true
	}
}

layer{
	name: "Mconv3_3_stage3_res/branchm_1/branch3/conv_3×3/bn/relu"
	type: "ReLU"
	bottom: "Mconv3_3_stage3_res/branchm_1/branch3/conv_3×3/bn"
	top: "Mconv3_3_stage3_res/branchm_1/branch3/conv_3×3/bn"
}

layer{
	name: "Mconv3_3_stage3_res/branchm_1/branch3/conv2_3×3"
	type: "Convolution"
	bottom: "Mconv3_3_stage3_res/branchm_1/branch3/conv_3×3/bn"
	top: "Mconv3_3_stage3_res/branchm_1/branch3/conv2_3×3"
	param{
		lr_mult: 1
		decay_mult: 1
	}
	param{
		lr_mult: 2
		decay_mult: 0
	}
	convolution_param {
		num_output: 64
		pad: 1
		kernel_size: 3
		stride: 1
		weight_filler {
			type: "gaussian"
			std: 0.01
		}
		bias_filler {
			type: "constant"
		}
	}
}

layer{
	name: "Mconv3_3_stage3_res/branchm_1/branch3/conv2_3×3/bn"
	type: "BN"
	bottom: "Mconv3_3_stage3_res/branchm_1/branch3/conv2_3×3"
	top: "Mconv3_3_stage3_res/branchm_1/branch3/conv2_3×3/bn"
	bn_param {
		frozen:true
	}
}

layer{
	name: "Mconv3_3_stage3_res/branchm_1/branch5/concat"
	type: "Concat"
	bottom: "Mconv3_3_stage3_res/branchm_1/branch1/conv_1×1_reduce/bn"
	bottom: "Mconv3_3_stage3_res/branchm_1/branch2/conv_3×3/bn"
	bottom: "Mconv3_3_stage3_res/branchm_1/branch3/conv2_3×3/bn"
	top: "Mconv3_3_stage3_res/branchm_1/branch5/concat"
	concat_param{
		axis: 1
	}
}

layer{
	name: "Mconv3_3_stage3_res/branchm_1/branch5/concat/relu"
	type: "ReLU"
	bottom: "Mconv3_3_stage3_res/branchm_1/branch5/concat"
	top: "Mconv3_3_stage3_res/branchm_1/branch5/concat"
}

layer{
	name: "Mconv3_3_stage3_res/branchm_1/branch5/conv_1×1_increase"
	type: "Convolution"
	bottom: "Mconv3_3_stage3_res/branchm_1/branch5/concat"
	top: "Mconv3_3_stage3_res/branchm_1/branch5/conv_1×1_increase"
	param{
		lr_mult: 1
		decay_mult: 1
	}
	param{
		lr_mult: 2
		decay_mult: 0
	}
	convolution_param {
		num_output: 128
		pad: 0
		kernel_size: 1
		stride: 1
		weight_filler {
			type: "gaussian"
			std: 0.01
		}
		bias_filler {
			type: "constant"
		}
	}
}

layer{
	name: "Mconv3_3_stage3_res/branchm_1/branch5/conv_1×1_increase/bn"
	type: "BN"
	bottom: "Mconv3_3_stage3_res/branchm_1/branch5/conv_1×1_increase"
	top: "Mconv3_3_stage3_res/branchm_1/branch5/conv_1×1_increase/bn"
	bn_param {
		frozen:true
	}
}

layer{
	name: "Mconv3_3_stage3_res/branchm_1"
	type: "Eltwise"
	bottom: "Mconv3_3_stage3_res/branchm_1/branch5/conv_1×1_increase/bn"
	bottom: "Mconv3_2_stage3_res"
	top: "Mconv3_3_stage3_res/branchm_1"
	eltwise_param {
		operation: SUM
	}
}

#ooooooooooooooooooooooooooooooooooooooooooooooooooooooooo
layer{
	name: "Mconv3_3_stage3_res/branchm_1/relu"
	type: "ReLU"
	bottom: "Mconv3_3_stage3_res/branchm_1"
	top: "Mconv3_3_stage3_res/branchm_1"
}

#aaaaaaaaaaaaaaaaaaaaaaaaaaaaaaaaaaaaaaaaaaaaaaaaaaaaaaaaaaaaaa
layer{
	name: "Mconv3_3_stage3_res/branchm_2/branch1/conv_1×1_reduce"
	type: "Convolution"
	bottom: "Mconv3_3_stage3_res/branchm_1"
	top: "Mconv3_3_stage3_res/branchm_2/branch1/conv_1×1_reduce"
	param{
		lr_mult: 1
		decay_mult: 1
	}
	param{
		lr_mult: 2
		decay_mult: 0
	}
	convolution_param {
		num_output: 64
		pad: 0
		kernel_size: 1
		stride: 1
		weight_filler {
			type: "gaussian"
			std: 0.01
		}
		bias_filler {
			type: "constant"
		}
	}
}

layer{
	name: "Mconv3_3_stage3_res/branchm_2/branch1/conv_1×1_reduce/bn"
	type: "BN"
	bottom: "Mconv3_3_stage3_res/branchm_2/branch1/conv_1×1_reduce"
	top: "Mconv3_3_stage3_res/branchm_2/branch1/conv_1×1_reduce/bn"
	bn_param {
		frozen:true
	}
}

layer{
	name: "Mconv3_3_stage3_res/branchm_2/branch2/conv_1×1_reduce"
	type: "Convolution"
	bottom: "Mconv3_3_stage3_res/branchm_1"
	top: "Mconv3_3_stage3_res/branchm_2/branch2/conv_1×1_reduce"
	param{
		lr_mult: 1
		decay_mult: 1
	}
	param{
		lr_mult: 2
		decay_mult: 0
	}
	convolution_param {
		num_output: 64
		pad: 0
		kernel_size: 1
		stride: 1
		weight_filler {
			type: "gaussian"
			std: 0.01
		}
		bias_filler {
			type: "constant"
		}
	}
}

layer{
	name: "Mconv3_3_stage3_res/branchm_2/branch2/conv_1×1_reduce/bn"
	type: "BN"
	bottom: "Mconv3_3_stage3_res/branchm_2/branch2/conv_1×1_reduce"
	top: "Mconv3_3_stage3_res/branchm_2/branch2/conv_1×1_reduce/bn"
	bn_param {
		frozen:true
	}
}

layer{
	name: "Mconv3_3_stage3_res/branchm_2/branch2/conv_1×1_reduce/bn/relu"
	type: "ReLU"
	bottom: "Mconv3_3_stage3_res/branchm_2/branch2/conv_1×1_reduce/bn"
	top: "Mconv3_3_stage3_res/branchm_2/branch2/conv_1×1_reduce/bn"
}

layer{
	name: "Mconv3_3_stage3_res/branchm_2/branch2/conv_3×3"
	type: "Convolution"
	bottom: "Mconv3_3_stage3_res/branchm_2/branch2/conv_1×1_reduce/bn"
	top: "Mconv3_3_stage3_res/branchm_2/branch2/conv_3×3"
	param{
		lr_mult: 1
		decay_mult: 1
	}
	param{
		lr_mult: 2
		decay_mult: 0
	}
	convolution_param {
		num_output: 64
		pad: 1
		kernel_size: 3
		stride: 1
		weight_filler {
			type: "gaussian"
			std: 0.01
		}
		bias_filler {
			type: "constant"
		}
	}
}

layer{
	name: "Mconv3_3_stage3_res/branchm_2/branch2/conv_3×3/bn"
	type: "BN"
	bottom: "Mconv3_3_stage3_res/branchm_2/branch2/conv_3×3"
	top: "Mconv3_3_stage3_res/branchm_2/branch2/conv_3×3/bn"
	bn_param {
		frozen:true
	}
}

layer{
	name: "Mconv3_3_stage3_res/branchm_2/branch3/conv_1×1_reduce"
	type: "Convolution"
	bottom: "Mconv3_3_stage3_res/branchm_1"
	top: "Mconv3_3_stage3_res/branchm_2/branch3/conv_1×1_reduce"
	param{
		lr_mult: 1
		decay_mult: 1
	}
	param{
		lr_mult: 2
		decay_mult: 0
	}
	convolution_param {
		num_output: 64
		pad: 0
		kernel_size: 1
		stride: 1
		weight_filler {
			type: "gaussian"
			std: 0.01
		}
		bias_filler {
			type: "constant"
		}
	}
}

layer{
	name: "Mconv3_3_stage3_res/branchm_2/branch3/conv_1×1_reduce/bn"
	type: "BN"
	bottom: "Mconv3_3_stage3_res/branchm_2/branch3/conv_1×1_reduce"
	top: "Mconv3_3_stage3_res/branchm_2/branch3/conv_1×1_reduce/bn"
	bn_param {
		frozen:true
	}
}

layer{
	name: "Mconv3_3_stage3_res/branchm_2/branch3/conv_1×1_reduce/bn/relu"
	type: "ReLU"
	bottom: "Mconv3_3_stage3_res/branchm_2/branch3/conv_1×1_reduce/bn"
	top: "Mconv3_3_stage3_res/branchm_2/branch3/conv_1×1_reduce/bn"
}

layer{
	name: "Mconv3_3_stage3_res/branchm_2/branch3/conv_3×3"
	type: "Convolution"
	bottom: "Mconv3_3_stage3_res/branchm_2/branch3/conv_1×1_reduce/bn"
	top: "Mconv3_3_stage3_res/branchm_2/branch3/conv_3×3"
	param{
		lr_mult: 1
		decay_mult: 1
	}
	param{
		lr_mult: 2
		decay_mult: 0
	}
	convolution_param {
		num_output: 64
		pad: 1
		kernel_size: 3
		stride: 1
		weight_filler {
			type: "gaussian"
			std: 0.01
		}
		bias_filler {
			type: "constant"
		}
	}
}

layer{
	name: "Mconv3_3_stage3_res/branchm_2/branch3/conv_3×3/bn"
	type: "BN"
	bottom: "Mconv3_3_stage3_res/branchm_2/branch3/conv_3×3"
	top: "Mconv3_3_stage3_res/branchm_2/branch3/conv_3×3/bn"
	bn_param {
		frozen:true
	}
}

layer{
	name: "Mconv3_3_stage3_res/branchm_2/branch3/conv_3×3/bn/relu"
	type: "ReLU"
	bottom: "Mconv3_3_stage3_res/branchm_2/branch3/conv_3×3/bn"
	top: "Mconv3_3_stage3_res/branchm_2/branch3/conv_3×3/bn"
}

layer{
	name: "Mconv3_3_stage3_res/branchm_2/branch3/conv2_3×3"
	type: "Convolution"
	bottom: "Mconv3_3_stage3_res/branchm_2/branch3/conv_3×3/bn"
	top: "Mconv3_3_stage3_res/branchm_2/branch3/conv2_3×3"
	param{
		lr_mult: 1
		decay_mult: 1
	}
	param{
		lr_mult: 2
		decay_mult: 0
	}
	convolution_param {
		num_output: 64
		pad: 1
		kernel_size: 3
		stride: 1
		weight_filler {
			type: "gaussian"
			std: 0.01
		}
		bias_filler {
			type: "constant"
		}
	}
}

layer{
	name: "Mconv3_3_stage3_res/branchm_2/branch3/conv2_3×3/bn"
	type: "BN"
	bottom: "Mconv3_3_stage3_res/branchm_2/branch3/conv2_3×3"
	top: "Mconv3_3_stage3_res/branchm_2/branch3/conv2_3×3/bn"
	bn_param {
		frozen:true
	}
}

layer{
	name: "Mconv3_3_stage3_res/branchm_2/branch5/concat"
	type: "Concat"
	bottom: "Mconv3_3_stage3_res/branchm_2/branch1/conv_1×1_reduce/bn"
	bottom: "Mconv3_3_stage3_res/branchm_2/branch2/conv_3×3/bn"
	bottom: "Mconv3_3_stage3_res/branchm_2/branch3/conv2_3×3/bn"
	top: "Mconv3_3_stage3_res/branchm_2/branch5/concat"
	concat_param{
		axis: 1
	}
}

layer{
	name: "Mconv3_3_stage3_res/branchm_2/branch5/concat/relu"
	type: "ReLU"
	bottom: "Mconv3_3_stage3_res/branchm_2/branch5/concat"
	top: "Mconv3_3_stage3_res/branchm_2/branch5/concat"
}

layer{
	name: "Mconv3_3_stage3_res/branchm_2/branch5/conv_1×1_increase"
	type: "Convolution"
	bottom: "Mconv3_3_stage3_res/branchm_2/branch5/concat"
	top: "Mconv3_3_stage3_res/branchm_2/branch5/conv_1×1_increase"
	param{
		lr_mult: 1
		decay_mult: 1
	}
	param{
		lr_mult: 2
		decay_mult: 0
	}
	convolution_param {
		num_output: 128
		pad: 0
		kernel_size: 1
		stride: 1
		weight_filler {
			type: "gaussian"
			std: 0.01
		}
		bias_filler {
			type: "constant"
		}
	}
}

layer{
	name: "Mconv3_3_stage3_res/branchm_2/branch5/conv_1×1_increase/bn"
	type: "BN"
	bottom: "Mconv3_3_stage3_res/branchm_2/branch5/conv_1×1_increase"
	top: "Mconv3_3_stage3_res/branchm_2/branch5/conv_1×1_increase/bn"
	bn_param {
		frozen:true
	}
}

layer{
	name: "Mconv3_3_stage3_res/branchm_2"
	type: "Eltwise"
	bottom: "Mconv3_3_stage3_res/branchm_2/branch5/conv_1×1_increase/bn"
	bottom: "Mconv3_3_stage3_res/branchm_1"
	top: "Mconv3_3_stage3_res/branchm_2"
	eltwise_param {
		operation: SUM
	}
}

#ooooooooooooooooooooooooooooooooooooooooooooooooooooooooo
layer{
	name: "Mconv3_3_stage3_res/branchm_2/relu"
	type: "ReLU"
	bottom: "Mconv3_3_stage3_res/branchm_2"
	top: "Mconv3_3_stage3_res/branchm_2"
}

layer{
	name: "Mconv3_3_stage3_res/branchm/conv_1×1_reduce"
	type: "Convolution"
	bottom: "Mconv3_3_stage3_res/branchm_2"
	top: "Mconv3_3_stage3_res/branchm/conv_1×1_reduce"
	param{
		lr_mult: 1
		decay_mult: 1
	}
	param{
		lr_mult: 2
		decay_mult: 0
	}
	convolution_param {
		num_output: 64
		pad: 0
		kernel_size: 1
		stride: 1
		weight_filler {
			type: "gaussian"
			std: 0.01
		}
		bias_filler {
			type: "constant"
		}
	}
}

#aaaaaaaaaaaaaaaaaaaaaaaaaaaaaaaaaaaaaaaaaaaaaaaaaaaaaaaaaaaaaa
layer{
	name: "Mconv3_3_stage3_res/branchl_1/branch1/conv_1×1_reduce"
	type: "Convolution"
	bottom: "Mconv3_2_stage3_res"
	top: "Mconv3_3_stage3_res/branchl_1/branch1/conv_1×1_reduce"
	param{
		lr_mult: 1
		decay_mult: 1
	}
	param{
		lr_mult: 2
		decay_mult: 0
	}
	convolution_param {
		num_output: 64
		pad: 0
		kernel_size: 1
		stride: 1
		weight_filler {
			type: "gaussian"
			std: 0.01
		}
		bias_filler {
			type: "constant"
		}
	}
}

layer{
	name: "Mconv3_3_stage3_res/branchl_1/branch1/conv_1×1_reduce/bn"
	type: "BN"
	bottom: "Mconv3_3_stage3_res/branchl_1/branch1/conv_1×1_reduce"
	top: "Mconv3_3_stage3_res/branchl_1/branch1/conv_1×1_reduce/bn"
	bn_param {
		frozen:true
	}
}

layer{
	name: "Mconv3_3_stage3_res/branchl_1/branch2/conv_1×1_reduce"
	type: "Convolution"
	bottom: "Mconv3_2_stage3_res"
	top: "Mconv3_3_stage3_res/branchl_1/branch2/conv_1×1_reduce"
	param{
		lr_mult: 1
		decay_mult: 1
	}
	param{
		lr_mult: 2
		decay_mult: 0
	}
	convolution_param {
		num_output: 64
		pad: 0
		kernel_size: 1
		stride: 1
		weight_filler {
			type: "gaussian"
			std: 0.01
		}
		bias_filler {
			type: "constant"
		}
	}
}

layer{
	name: "Mconv3_3_stage3_res/branchl_1/branch2/conv_1×1_reduce/bn"
	type: "BN"
	bottom: "Mconv3_3_stage3_res/branchl_1/branch2/conv_1×1_reduce"
	top: "Mconv3_3_stage3_res/branchl_1/branch2/conv_1×1_reduce/bn"
	bn_param {
		frozen:true
	}
}

layer{
	name: "Mconv3_3_stage3_res/branchl_1/branch2/conv_1×1_reduce/bn/relu"
	type: "ReLU"
	bottom: "Mconv3_3_stage3_res/branchl_1/branch2/conv_1×1_reduce/bn"
	top: "Mconv3_3_stage3_res/branchl_1/branch2/conv_1×1_reduce/bn"
}

layer{
	name: "Mconv3_3_stage3_res/branchl_1/branch2/conv_3×3"
	type: "Convolution"
	bottom: "Mconv3_3_stage3_res/branchl_1/branch2/conv_1×1_reduce/bn"
	top: "Mconv3_3_stage3_res/branchl_1/branch2/conv_3×3"
	param{
		lr_mult: 1
		decay_mult: 1
	}
	param{
		lr_mult: 2
		decay_mult: 0
	}
	convolution_param {
		num_output: 64
		pad: 1
		kernel_size: 3
		stride: 1
		weight_filler {
			type: "gaussian"
			std: 0.01
		}
		bias_filler {
			type: "constant"
		}
	}
}

layer{
	name: "Mconv3_3_stage3_res/branchl_1/branch2/conv_3×3/bn"
	type: "BN"
	bottom: "Mconv3_3_stage3_res/branchl_1/branch2/conv_3×3"
	top: "Mconv3_3_stage3_res/branchl_1/branch2/conv_3×3/bn"
	bn_param {
		frozen:true
	}
}

layer{
	name: "Mconv3_3_stage3_res/branchl_1/branch3/conv_1×1_reduce"
	type: "Convolution"
	bottom: "Mconv3_2_stage3_res"
	top: "Mconv3_3_stage3_res/branchl_1/branch3/conv_1×1_reduce"
	param{
		lr_mult: 1
		decay_mult: 1
	}
	param{
		lr_mult: 2
		decay_mult: 0
	}
	convolution_param {
		num_output: 64
		pad: 0
		kernel_size: 1
		stride: 1
		weight_filler {
			type: "gaussian"
			std: 0.01
		}
		bias_filler {
			type: "constant"
		}
	}
}

layer{
	name: "Mconv3_3_stage3_res/branchl_1/branch3/conv_1×1_reduce/bn"
	type: "BN"
	bottom: "Mconv3_3_stage3_res/branchl_1/branch3/conv_1×1_reduce"
	top: "Mconv3_3_stage3_res/branchl_1/branch3/conv_1×1_reduce/bn"
	bn_param {
		frozen:true
	}
}

layer{
	name: "Mconv3_3_stage3_res/branchl_1/branch3/conv_1×1_reduce/bn/relu"
	type: "ReLU"
	bottom: "Mconv3_3_stage3_res/branchl_1/branch3/conv_1×1_reduce/bn"
	top: "Mconv3_3_stage3_res/branchl_1/branch3/conv_1×1_reduce/bn"
}

layer{
	name: "Mconv3_3_stage3_res/branchl_1/branch3/conv_3×3"
	type: "Convolution"
	bottom: "Mconv3_3_stage3_res/branchl_1/branch3/conv_1×1_reduce/bn"
	top: "Mconv3_3_stage3_res/branchl_1/branch3/conv_3×3"
	param{
		lr_mult: 1
		decay_mult: 1
	}
	param{
		lr_mult: 2
		decay_mult: 0
	}
	convolution_param {
		num_output: 64
		pad: 1
		kernel_size: 3
		stride: 1
		weight_filler {
			type: "gaussian"
			std: 0.01
		}
		bias_filler {
			type: "constant"
		}
	}
}

layer{
	name: "Mconv3_3_stage3_res/branchl_1/branch3/conv_3×3/bn"
	type: "BN"
	bottom: "Mconv3_3_stage3_res/branchl_1/branch3/conv_3×3"
	top: "Mconv3_3_stage3_res/branchl_1/branch3/conv_3×3/bn"
	bn_param {
		frozen:true
	}
}

layer{
	name: "Mconv3_3_stage3_res/branchl_1/branch3/conv_3×3/bn/relu"
	type: "ReLU"
	bottom: "Mconv3_3_stage3_res/branchl_1/branch3/conv_3×3/bn"
	top: "Mconv3_3_stage3_res/branchl_1/branch3/conv_3×3/bn"
}

layer{
	name: "Mconv3_3_stage3_res/branchl_1/branch3/conv2_3×3"
	type: "Convolution"
	bottom: "Mconv3_3_stage3_res/branchl_1/branch3/conv_3×3/bn"
	top: "Mconv3_3_stage3_res/branchl_1/branch3/conv2_3×3"
	param{
		lr_mult: 1
		decay_mult: 1
	}
	param{
		lr_mult: 2
		decay_mult: 0
	}
	convolution_param {
		num_output: 64
		pad: 1
		kernel_size: 3
		stride: 1
		weight_filler {
			type: "gaussian"
			std: 0.01
		}
		bias_filler {
			type: "constant"
		}
	}
}

layer{
	name: "Mconv3_3_stage3_res/branchl_1/branch3/conv2_3×3/bn"
	type: "BN"
	bottom: "Mconv3_3_stage3_res/branchl_1/branch3/conv2_3×3"
	top: "Mconv3_3_stage3_res/branchl_1/branch3/conv2_3×3/bn"
	bn_param {
		frozen:true
	}
}

layer{
	name: "Mconv3_3_stage3_res/branchl_1/branch5/concat"
	type: "Concat"
	bottom: "Mconv3_3_stage3_res/branchl_1/branch1/conv_1×1_reduce/bn"
	bottom: "Mconv3_3_stage3_res/branchl_1/branch2/conv_3×3/bn"
	bottom: "Mconv3_3_stage3_res/branchl_1/branch3/conv2_3×3/bn"
	top: "Mconv3_3_stage3_res/branchl_1/branch5/concat"
	concat_param{
		axis: 1
	}
}

layer{
	name: "Mconv3_3_stage3_res/branchl_1/branch5/concat/relu"
	type: "ReLU"
	bottom: "Mconv3_3_stage3_res/branchl_1/branch5/concat"
	top: "Mconv3_3_stage3_res/branchl_1/branch5/concat"
}

layer{
	name: "Mconv3_3_stage3_res/branchl_1/branch5/conv_1×1_increase"
	type: "Convolution"
	bottom: "Mconv3_3_stage3_res/branchl_1/branch5/concat"
	top: "Mconv3_3_stage3_res/branchl_1/branch5/conv_1×1_increase"
	param{
		lr_mult: 1
		decay_mult: 1
	}
	param{
		lr_mult: 2
		decay_mult: 0
	}
	convolution_param {
		num_output: 128
		pad: 0
		kernel_size: 1
		stride: 1
		weight_filler {
			type: "gaussian"
			std: 0.01
		}
		bias_filler {
			type: "constant"
		}
	}
}

layer{
	name: "Mconv3_3_stage3_res/branchl_1/branch5/conv_1×1_increase/bn"
	type: "BN"
	bottom: "Mconv3_3_stage3_res/branchl_1/branch5/conv_1×1_increase"
	top: "Mconv3_3_stage3_res/branchl_1/branch5/conv_1×1_increase/bn"
	bn_param {
		frozen:true
	}
}

layer{
	name: "Mconv3_3_stage3_res/branchl_1"
	type: "Eltwise"
	bottom: "Mconv3_3_stage3_res/branchl_1/branch5/conv_1×1_increase/bn"
	bottom: "Mconv3_2_stage3_res"
	top: "Mconv3_3_stage3_res/branchl_1"
	eltwise_param {
		operation: SUM
	}
}

#ooooooooooooooooooooooooooooooooooooooooooooooooooooooooo
layer{
	name: "Mconv3_3_stage3_res/branchl_1/relu"
	type: "ReLU"
	bottom: "Mconv3_3_stage3_res/branchl_1"
	top: "Mconv3_3_stage3_res/branchl_1"
}

#aaaaaaaaaaaaaaaaaaaaaaaaaaaaaaaaaaaaaaaaaaaaaaaaaaaaaaaaaaaaaa
layer{
	name: "Mconv3_3_stage3_res/branchl_2/branch1/conv_1×1_reduce"
	type: "Convolution"
	bottom: "Mconv3_3_stage3_res/branchl_1"
	top: "Mconv3_3_stage3_res/branchl_2/branch1/conv_1×1_reduce"
	param{
		lr_mult: 1
		decay_mult: 1
	}
	param{
		lr_mult: 2
		decay_mult: 0
	}
	convolution_param {
		num_output: 64
		pad: 0
		kernel_size: 1
		stride: 1
		weight_filler {
			type: "gaussian"
			std: 0.01
		}
		bias_filler {
			type: "constant"
		}
	}
}

layer{
	name: "Mconv3_3_stage3_res/branchl_2/branch1/conv_1×1_reduce/bn"
	type: "BN"
	bottom: "Mconv3_3_stage3_res/branchl_2/branch1/conv_1×1_reduce"
	top: "Mconv3_3_stage3_res/branchl_2/branch1/conv_1×1_reduce/bn"
	bn_param {
		frozen:true
	}
}

layer{
	name: "Mconv3_3_stage3_res/branchl_2/branch2/conv_1×1_reduce"
	type: "Convolution"
	bottom: "Mconv3_3_stage3_res/branchl_1"
	top: "Mconv3_3_stage3_res/branchl_2/branch2/conv_1×1_reduce"
	param{
		lr_mult: 1
		decay_mult: 1
	}
	param{
		lr_mult: 2
		decay_mult: 0
	}
	convolution_param {
		num_output: 64
		pad: 0
		kernel_size: 1
		stride: 1
		weight_filler {
			type: "gaussian"
			std: 0.01
		}
		bias_filler {
			type: "constant"
		}
	}
}

layer{
	name: "Mconv3_3_stage3_res/branchl_2/branch2/conv_1×1_reduce/bn"
	type: "BN"
	bottom: "Mconv3_3_stage3_res/branchl_2/branch2/conv_1×1_reduce"
	top: "Mconv3_3_stage3_res/branchl_2/branch2/conv_1×1_reduce/bn"
	bn_param {
		frozen:true
	}
}

layer{
	name: "Mconv3_3_stage3_res/branchl_2/branch2/conv_1×1_reduce/bn/relu"
	type: "ReLU"
	bottom: "Mconv3_3_stage3_res/branchl_2/branch2/conv_1×1_reduce/bn"
	top: "Mconv3_3_stage3_res/branchl_2/branch2/conv_1×1_reduce/bn"
}

layer{
	name: "Mconv3_3_stage3_res/branchl_2/branch2/conv_3×3"
	type: "Convolution"
	bottom: "Mconv3_3_stage3_res/branchl_2/branch2/conv_1×1_reduce/bn"
	top: "Mconv3_3_stage3_res/branchl_2/branch2/conv_3×3"
	param{
		lr_mult: 1
		decay_mult: 1
	}
	param{
		lr_mult: 2
		decay_mult: 0
	}
	convolution_param {
		num_output: 64
		pad: 1
		kernel_size: 3
		stride: 1
		weight_filler {
			type: "gaussian"
			std: 0.01
		}
		bias_filler {
			type: "constant"
		}
	}
}

layer{
	name: "Mconv3_3_stage3_res/branchl_2/branch2/conv_3×3/bn"
	type: "BN"
	bottom: "Mconv3_3_stage3_res/branchl_2/branch2/conv_3×3"
	top: "Mconv3_3_stage3_res/branchl_2/branch2/conv_3×3/bn"
	bn_param {
		frozen:true
	}
}

layer{
	name: "Mconv3_3_stage3_res/branchl_2/branch3/conv_1×1_reduce"
	type: "Convolution"
	bottom: "Mconv3_3_stage3_res/branchl_1"
	top: "Mconv3_3_stage3_res/branchl_2/branch3/conv_1×1_reduce"
	param{
		lr_mult: 1
		decay_mult: 1
	}
	param{
		lr_mult: 2
		decay_mult: 0
	}
	convolution_param {
		num_output: 64
		pad: 0
		kernel_size: 1
		stride: 1
		weight_filler {
			type: "gaussian"
			std: 0.01
		}
		bias_filler {
			type: "constant"
		}
	}
}

layer{
	name: "Mconv3_3_stage3_res/branchl_2/branch3/conv_1×1_reduce/bn"
	type: "BN"
	bottom: "Mconv3_3_stage3_res/branchl_2/branch3/conv_1×1_reduce"
	top: "Mconv3_3_stage3_res/branchl_2/branch3/conv_1×1_reduce/bn"
	bn_param {
		frozen:true
	}
}

layer{
	name: "Mconv3_3_stage3_res/branchl_2/branch3/conv_1×1_reduce/bn/relu"
	type: "ReLU"
	bottom: "Mconv3_3_stage3_res/branchl_2/branch3/conv_1×1_reduce/bn"
	top: "Mconv3_3_stage3_res/branchl_2/branch3/conv_1×1_reduce/bn"
}

layer{
	name: "Mconv3_3_stage3_res/branchl_2/branch3/conv_3×3"
	type: "Convolution"
	bottom: "Mconv3_3_stage3_res/branchl_2/branch3/conv_1×1_reduce/bn"
	top: "Mconv3_3_stage3_res/branchl_2/branch3/conv_3×3"
	param{
		lr_mult: 1
		decay_mult: 1
	}
	param{
		lr_mult: 2
		decay_mult: 0
	}
	convolution_param {
		num_output: 64
		pad: 1
		kernel_size: 3
		stride: 1
		weight_filler {
			type: "gaussian"
			std: 0.01
		}
		bias_filler {
			type: "constant"
		}
	}
}

layer{
	name: "Mconv3_3_stage3_res/branchl_2/branch3/conv_3×3/bn"
	type: "BN"
	bottom: "Mconv3_3_stage3_res/branchl_2/branch3/conv_3×3"
	top: "Mconv3_3_stage3_res/branchl_2/branch3/conv_3×3/bn"
	bn_param {
		frozen:true
	}
}

layer{
	name: "Mconv3_3_stage3_res/branchl_2/branch3/conv_3×3/bn/relu"
	type: "ReLU"
	bottom: "Mconv3_3_stage3_res/branchl_2/branch3/conv_3×3/bn"
	top: "Mconv3_3_stage3_res/branchl_2/branch3/conv_3×3/bn"
}

layer{
	name: "Mconv3_3_stage3_res/branchl_2/branch3/conv2_3×3"
	type: "Convolution"
	bottom: "Mconv3_3_stage3_res/branchl_2/branch3/conv_3×3/bn"
	top: "Mconv3_3_stage3_res/branchl_2/branch3/conv2_3×3"
	param{
		lr_mult: 1
		decay_mult: 1
	}
	param{
		lr_mult: 2
		decay_mult: 0
	}
	convolution_param {
		num_output: 64
		pad: 1
		kernel_size: 3
		stride: 1
		weight_filler {
			type: "gaussian"
			std: 0.01
		}
		bias_filler {
			type: "constant"
		}
	}
}

layer{
	name: "Mconv3_3_stage3_res/branchl_2/branch3/conv2_3×3/bn"
	type: "BN"
	bottom: "Mconv3_3_stage3_res/branchl_2/branch3/conv2_3×3"
	top: "Mconv3_3_stage3_res/branchl_2/branch3/conv2_3×3/bn"
	bn_param {
		frozen:true
	}
}

layer{
	name: "Mconv3_3_stage3_res/branchl_2/branch5/concat"
	type: "Concat"
	bottom: "Mconv3_3_stage3_res/branchl_2/branch1/conv_1×1_reduce/bn"
	bottom: "Mconv3_3_stage3_res/branchl_2/branch2/conv_3×3/bn"
	bottom: "Mconv3_3_stage3_res/branchl_2/branch3/conv2_3×3/bn"
	top: "Mconv3_3_stage3_res/branchl_2/branch5/concat"
	concat_param{
		axis: 1
	}
}

layer{
	name: "Mconv3_3_stage3_res/branchl_2/branch5/concat/relu"
	type: "ReLU"
	bottom: "Mconv3_3_stage3_res/branchl_2/branch5/concat"
	top: "Mconv3_3_stage3_res/branchl_2/branch5/concat"
}

layer{
	name: "Mconv3_3_stage3_res/branchl_2/branch5/conv_1×1_increase"
	type: "Convolution"
	bottom: "Mconv3_3_stage3_res/branchl_2/branch5/concat"
	top: "Mconv3_3_stage3_res/branchl_2/branch5/conv_1×1_increase"
	param{
		lr_mult: 1
		decay_mult: 1
	}
	param{
		lr_mult: 2
		decay_mult: 0
	}
	convolution_param {
		num_output: 128
		pad: 0
		kernel_size: 1
		stride: 1
		weight_filler {
			type: "gaussian"
			std: 0.01
		}
		bias_filler {
			type: "constant"
		}
	}
}

layer{
	name: "Mconv3_3_stage3_res/branchl_2/branch5/conv_1×1_increase/bn"
	type: "BN"
	bottom: "Mconv3_3_stage3_res/branchl_2/branch5/conv_1×1_increase"
	top: "Mconv3_3_stage3_res/branchl_2/branch5/conv_1×1_increase/bn"
	bn_param {
		frozen:true
	}
}

layer{
	name: "Mconv3_3_stage3_res/branchl_2"
	type: "Eltwise"
	bottom: "Mconv3_3_stage3_res/branchl_2/branch5/conv_1×1_increase/bn"
	bottom: "Mconv3_3_stage3_res/branchl_1"
	top: "Mconv3_3_stage3_res/branchl_2"
	eltwise_param {
		operation: SUM
	}
}

#ooooooooooooooooooooooooooooooooooooooooooooooooooooooooo
layer{
	name: "Mconv3_3_stage3_res/branchl_2/relu"
	type: "ReLU"
	bottom: "Mconv3_3_stage3_res/branchl_2"
	top: "Mconv3_3_stage3_res/branchl_2"
}

#aaaaaaaaaaaaaaaaaaaaaaaaaaaaaaaaaaaaaaaaaaaaaaaaaaaaaaaaaaaaaa
layer{
	name: "Mconv3_3_stage3_res/branchl_3/branch1/conv_1×1_reduce"
	type: "Convolution"
	bottom: "Mconv3_3_stage3_res/branchl_2"
	top: "Mconv3_3_stage3_res/branchl_3/branch1/conv_1×1_reduce"
	param{
		lr_mult: 1
		decay_mult: 1
	}
	param{
		lr_mult: 2
		decay_mult: 0
	}
	convolution_param {
		num_output: 64
		pad: 0
		kernel_size: 1
		stride: 1
		weight_filler {
			type: "gaussian"
			std: 0.01
		}
		bias_filler {
			type: "constant"
		}
	}
}

layer{
	name: "Mconv3_3_stage3_res/branchl_3/branch1/conv_1×1_reduce/bn"
	type: "BN"
	bottom: "Mconv3_3_stage3_res/branchl_3/branch1/conv_1×1_reduce"
	top: "Mconv3_3_stage3_res/branchl_3/branch1/conv_1×1_reduce/bn"
	bn_param {
		frozen:true
	}
}

layer{
	name: "Mconv3_3_stage3_res/branchl_3/branch2/conv_1×1_reduce"
	type: "Convolution"
	bottom: "Mconv3_3_stage3_res/branchl_2"
	top: "Mconv3_3_stage3_res/branchl_3/branch2/conv_1×1_reduce"
	param{
		lr_mult: 1
		decay_mult: 1
	}
	param{
		lr_mult: 2
		decay_mult: 0
	}
	convolution_param {
		num_output: 64
		pad: 0
		kernel_size: 1
		stride: 1
		weight_filler {
			type: "gaussian"
			std: 0.01
		}
		bias_filler {
			type: "constant"
		}
	}
}

layer{
	name: "Mconv3_3_stage3_res/branchl_3/branch2/conv_1×1_reduce/bn"
	type: "BN"
	bottom: "Mconv3_3_stage3_res/branchl_3/branch2/conv_1×1_reduce"
	top: "Mconv3_3_stage3_res/branchl_3/branch2/conv_1×1_reduce/bn"
	bn_param {
		frozen:true
	}
}

layer{
	name: "Mconv3_3_stage3_res/branchl_3/branch2/conv_1×1_reduce/bn/relu"
	type: "ReLU"
	bottom: "Mconv3_3_stage3_res/branchl_3/branch2/conv_1×1_reduce/bn"
	top: "Mconv3_3_stage3_res/branchl_3/branch2/conv_1×1_reduce/bn"
}

layer{
	name: "Mconv3_3_stage3_res/branchl_3/branch2/conv_3×3"
	type: "Convolution"
	bottom: "Mconv3_3_stage3_res/branchl_3/branch2/conv_1×1_reduce/bn"
	top: "Mconv3_3_stage3_res/branchl_3/branch2/conv_3×3"
	param{
		lr_mult: 1
		decay_mult: 1
	}
	param{
		lr_mult: 2
		decay_mult: 0
	}
	convolution_param {
		num_output: 64
		pad: 1
		kernel_size: 3
		stride: 1
		weight_filler {
			type: "gaussian"
			std: 0.01
		}
		bias_filler {
			type: "constant"
		}
	}
}

layer{
	name: "Mconv3_3_stage3_res/branchl_3/branch2/conv_3×3/bn"
	type: "BN"
	bottom: "Mconv3_3_stage3_res/branchl_3/branch2/conv_3×3"
	top: "Mconv3_3_stage3_res/branchl_3/branch2/conv_3×3/bn"
	bn_param {
		frozen:true
	}
}

layer{
	name: "Mconv3_3_stage3_res/branchl_3/branch3/conv_1×1_reduce"
	type: "Convolution"
	bottom: "Mconv3_3_stage3_res/branchl_2"
	top: "Mconv3_3_stage3_res/branchl_3/branch3/conv_1×1_reduce"
	param{
		lr_mult: 1
		decay_mult: 1
	}
	param{
		lr_mult: 2
		decay_mult: 0
	}
	convolution_param {
		num_output: 64
		pad: 0
		kernel_size: 1
		stride: 1
		weight_filler {
			type: "gaussian"
			std: 0.01
		}
		bias_filler {
			type: "constant"
		}
	}
}

layer{
	name: "Mconv3_3_stage3_res/branchl_3/branch3/conv_1×1_reduce/bn"
	type: "BN"
	bottom: "Mconv3_3_stage3_res/branchl_3/branch3/conv_1×1_reduce"
	top: "Mconv3_3_stage3_res/branchl_3/branch3/conv_1×1_reduce/bn"
	bn_param {
		frozen:true
	}
}

layer{
	name: "Mconv3_3_stage3_res/branchl_3/branch3/conv_1×1_reduce/bn/relu"
	type: "ReLU"
	bottom: "Mconv3_3_stage3_res/branchl_3/branch3/conv_1×1_reduce/bn"
	top: "Mconv3_3_stage3_res/branchl_3/branch3/conv_1×1_reduce/bn"
}

layer{
	name: "Mconv3_3_stage3_res/branchl_3/branch3/conv_3×3"
	type: "Convolution"
	bottom: "Mconv3_3_stage3_res/branchl_3/branch3/conv_1×1_reduce/bn"
	top: "Mconv3_3_stage3_res/branchl_3/branch3/conv_3×3"
	param{
		lr_mult: 1
		decay_mult: 1
	}
	param{
		lr_mult: 2
		decay_mult: 0
	}
	convolution_param {
		num_output: 64
		pad: 1
		kernel_size: 3
		stride: 1
		weight_filler {
			type: "gaussian"
			std: 0.01
		}
		bias_filler {
			type: "constant"
		}
	}
}

layer{
	name: "Mconv3_3_stage3_res/branchl_3/branch3/conv_3×3/bn"
	type: "BN"
	bottom: "Mconv3_3_stage3_res/branchl_3/branch3/conv_3×3"
	top: "Mconv3_3_stage3_res/branchl_3/branch3/conv_3×3/bn"
	bn_param {
		frozen:true
	}
}

layer{
	name: "Mconv3_3_stage3_res/branchl_3/branch3/conv_3×3/bn/relu"
	type: "ReLU"
	bottom: "Mconv3_3_stage3_res/branchl_3/branch3/conv_3×3/bn"
	top: "Mconv3_3_stage3_res/branchl_3/branch3/conv_3×3/bn"
}

layer{
	name: "Mconv3_3_stage3_res/branchl_3/branch3/conv2_3×3"
	type: "Convolution"
	bottom: "Mconv3_3_stage3_res/branchl_3/branch3/conv_3×3/bn"
	top: "Mconv3_3_stage3_res/branchl_3/branch3/conv2_3×3"
	param{
		lr_mult: 1
		decay_mult: 1
	}
	param{
		lr_mult: 2
		decay_mult: 0
	}
	convolution_param {
		num_output: 64
		pad: 1
		kernel_size: 3
		stride: 1
		weight_filler {
			type: "gaussian"
			std: 0.01
		}
		bias_filler {
			type: "constant"
		}
	}
}

layer{
	name: "Mconv3_3_stage3_res/branchl_3/branch3/conv2_3×3/bn"
	type: "BN"
	bottom: "Mconv3_3_stage3_res/branchl_3/branch3/conv2_3×3"
	top: "Mconv3_3_stage3_res/branchl_3/branch3/conv2_3×3/bn"
	bn_param {
		frozen:true
	}
}

layer{
	name: "Mconv3_3_stage3_res/branchl_3/branch5/concat"
	type: "Concat"
	bottom: "Mconv3_3_stage3_res/branchl_3/branch1/conv_1×1_reduce/bn"
	bottom: "Mconv3_3_stage3_res/branchl_3/branch2/conv_3×3/bn"
	bottom: "Mconv3_3_stage3_res/branchl_3/branch3/conv2_3×3/bn"
	top: "Mconv3_3_stage3_res/branchl_3/branch5/concat"
	concat_param{
		axis: 1
	}
}

layer{
	name: "Mconv3_3_stage3_res/branchl_3/branch5/concat/relu"
	type: "ReLU"
	bottom: "Mconv3_3_stage3_res/branchl_3/branch5/concat"
	top: "Mconv3_3_stage3_res/branchl_3/branch5/concat"
}

layer{
	name: "Mconv3_3_stage3_res/branchl_3/branch5/conv_1×1_increase"
	type: "Convolution"
	bottom: "Mconv3_3_stage3_res/branchl_3/branch5/concat"
	top: "Mconv3_3_stage3_res/branchl_3/branch5/conv_1×1_increase"
	param{
		lr_mult: 1
		decay_mult: 1
	}
	param{
		lr_mult: 2
		decay_mult: 0
	}
	convolution_param {
		num_output: 128
		pad: 0
		kernel_size: 1
		stride: 1
		weight_filler {
			type: "gaussian"
			std: 0.01
		}
		bias_filler {
			type: "constant"
		}
	}
}

layer{
	name: "Mconv3_3_stage3_res/branchl_3/branch5/conv_1×1_increase/bn"
	type: "BN"
	bottom: "Mconv3_3_stage3_res/branchl_3/branch5/conv_1×1_increase"
	top: "Mconv3_3_stage3_res/branchl_3/branch5/conv_1×1_increase/bn"
	bn_param {
		frozen:true
	}
}

layer{
	name: "Mconv3_3_stage3_res/branchl_3"
	type: "Eltwise"
	bottom: "Mconv3_3_stage3_res/branchl_3/branch5/conv_1×1_increase/bn"
	bottom: "Mconv3_3_stage3_res/branchl_2"
	top: "Mconv3_3_stage3_res/branchl_3"
	eltwise_param {
		operation: SUM
	}
}

#ooooooooooooooooooooooooooooooooooooooooooooooooooooooooo
layer{
	name: "Mconv3_3_stage3_res/branchl_3/relu"
	type: "ReLU"
	bottom: "Mconv3_3_stage3_res/branchl_3"
	top: "Mconv3_3_stage3_res/branchl_3"
}

layer{
	name: "Mconv3_3_stage3_res/branchl/conv_1×1_reduce"
	type: "Convolution"
	bottom: "Mconv3_3_stage3_res/branchl_3"
	top: "Mconv3_3_stage3_res/branchl/conv_1×1_reduce"
	param{
		lr_mult: 1
		decay_mult: 1
	}
	param{
		lr_mult: 2
		decay_mult: 0
	}
	convolution_param {
		num_output: 64
		pad: 0
		kernel_size: 1
		stride: 1
		weight_filler {
			type: "gaussian"
			std: 0.01
		}
		bias_filler {
			type: "constant"
		}
	}
}

layer{
	name: "Mconv3_3_stage3_res/branchsml/concat"
	type: "Concat"
	bottom: "Mconv3_3_stage3_res/branchs_1"
	bottom: "Mconv3_3_stage3_res/branchm_2"
	bottom: "Mconv3_3_stage3_res/branchl_3"
	top: "Mconv3_3_stage3_res/branchsml/concat"
	concat_param{
		axis: 1
	}
}

layer{
	name: "Mconv3_3_stage3_res/branchsml/concat/relu"
	type: "ReLU"
	bottom: "Mconv3_3_stage3_res/branchsml/concat"
	top: "Mconv3_3_stage3_res/branchsml/concat"
}

layer{
	name: "Mconv3_3_stage3_res/branchsml_1/conv_3×3"
	type: "Convolution"
	bottom: "Mconv3_3_stage3_res/branchsml/concat"
	top: "Mconv3_3_stage3_res/branchsml_1/conv_3×3"
	param{
		lr_mult: 1
		decay_mult: 1
	}
	param{
		lr_mult: 2
		decay_mult: 0
	}
	convolution_param {
		num_output: 192
		pad: 1
		kernel_size: 3
		stride: 2
		weight_filler {
			type: "gaussian"
			std: 0.01
		}
		bias_filler {
			type: "constant"
		}
	}
}

layer{
	name: "Mconv3_3_stage3_res/branchsml_1/conv_3×3/bn"
	type: "BN"
	bottom: "Mconv3_3_stage3_res/branchsml_1/conv_3×3"
	top: "Mconv3_3_stage3_res/branchsml_1/conv_3×3/bn"
	bn_param {
		frozen:true
	}
}

layer{
	name: "Mconv3_3_stage3_res/branchsml_1/conv_3×3/bn/relu"
	type: "ReLU"
	bottom: "Mconv3_3_stage3_res/branchsml_1/conv_3×3/bn"
	top: "Mconv3_3_stage3_res/branchsml_1/conv_3×3/bn"
}

layer{
	name: "Mconv3_3_stage3_res/branchsml_2/conv_3×3"
	type: "Convolution"
	bottom: "Mconv3_3_stage3_res/branchsml_1/conv_3×3/bn"
	top: "Mconv3_3_stage3_res/branchsml_2/conv_3×3"
	param{
		lr_mult: 1
		decay_mult: 1
	}
	param{
		lr_mult: 2
		decay_mult: 0
	}
	convolution_param {
		num_output: 192
		pad: 1
		kernel_size: 3
		stride: 1
		weight_filler {
			type: "gaussian"
			std: 0.01
		}
		bias_filler {
			type: "constant"
		}
	}
}

layer{
	name: "Mconv3_3_stage3_res/branchsml_2/conv_3×3/bn"
	type: "BN"
	bottom: "Mconv3_3_stage3_res/branchsml_2/conv_3×3"
	top: "Mconv3_3_stage3_res/branchsml_2/conv_3×3/bn"
	bn_param {
		frozen:true
	}
}

layer{
	name: "Mconv3_3_stage3_res/branchsml_2/conv_3×3/bn/interp"
	type: "Interp"
	bottom: "Mconv3_3_stage3_res/branchsml_2/conv_3×3/bn"
	top: "Mconv3_3_stage3_res/branchsml_2/conv_3×3/bn/interp"
	interp_param {
		height: 32
		width: 32
	}
}

layer{
	name: "Mconv3_3_stage3_res/branchsml_d/conv_3×3"
	type: "Convolution"
	bottom: "Mconv3_3_stage3_res/branchsml/concat"
	top: "Mconv3_3_stage3_res/branchsml_d/conv_3×3"
	param{
		lr_mult: 1
		decay_mult: 1
	}
	param{
		lr_mult: 2
		decay_mult: 0
	}
	convolution_param {
		num_output: 192
		pad: 1
		kernel_size: 3
		stride: 1
		weight_filler {
			type: "gaussian"
			std: 0.01
		}
		bias_filler {
			type: "constant"
		}
	}
}

layer{
	name: "Mconv3_3_stage3_res/branchsml_d/conv_3×3/bn"
	type: "BN"
	bottom: "Mconv3_3_stage3_res/branchsml_d/conv_3×3"
	top: "Mconv3_3_stage3_res/branchsml_d/conv_3×3/bn"
	bn_param {
		frozen:true
	}
}

layer{
	name: "Mconv3_3_stage3_res/branchsml_merge"
	type: "Eltwise"
	bottom: "Mconv3_3_stage3_res/branchsml_2/conv_3×3/bn/interp"
	bottom: "Mconv3_3_stage3_res/branchsml_d/conv_3×3/bn"
	top: "Mconv3_3_stage3_res/branchsml_merge"
	eltwise_param {
		operation: SUM
	}
}

layer{
	name: "Mconv3_3_stage3_res/branchsml_merge/relu"
	type: "ReLU"
	bottom: "Mconv3_3_stage3_res/branchsml_merge"
	top: "Mconv3_3_stage3_res/branchsml_merge"
}

layer{
	name: "Mconv3_3_stage3_res/branchsml_3/conv_3×3"
	type: "Convolution"
	bottom: "Mconv3_3_stage3_res/branchsml_merge"
	top: "Mconv3_3_stage3_res/branchsml_3/conv_3×3"
	param{
		lr_mult: 1
		decay_mult: 1
	}
	param{
		lr_mult: 2
		decay_mult: 0
	}
	convolution_param {
		num_output: 192
		pad: 1
		kernel_size: 3
		stride: 1
		weight_filler {
			type: "gaussian"
			std: 0.01
		}
		bias_filler {
			type: "constant"
		}
	}
}

layer{
	name: "Mconv3_3_stage3_res/branchsml_3/conv_3×3/bn"
	type: "BN"
	bottom: "Mconv3_3_stage3_res/branchsml_3/conv_3×3"
	top: "Mconv3_3_stage3_res/branchsml_3/conv_3×3/bn"
	bn_param {
		frozen:true
	}
}

layer{
	name: "Mconv3_3_stage3_res/branchsml_3/conv_3×3/bn/relu"
	type: "ReLU"
	bottom: "Mconv3_3_stage3_res/branchsml_3/conv_3×3/bn"
	top: "Mconv3_3_stage3_res/branchsml_3/conv_3×3/bn"
}

layer{
	name: "Mconv3_3_stage3_res/branchsml/conv2_1×1"
	type: "Convolution"
	bottom: "Mconv3_3_stage3_res/branchsml_3/conv_3×3/bn"
	top: "Mconv3_3_stage3_res/branchsml/conv2_1×1"
	param{
		lr_mult: 1
		decay_mult: 1
	}
	param{
		lr_mult: 2
		decay_mult: 0
	}
	convolution_param {
		num_output: 192
		pad: 0
		kernel_size: 1
		stride: 1
		weight_filler {
			type: "gaussian"
			std: 0.01
		}
		bias_filler {
			type: "constant"
		}
	}
}

layer{
	name: "Mconv3_3_stage3_res/branchsml/weight"
	type: "Sigmoid"
	bottom: "Mconv3_3_stage3_res/branchsml/conv2_1×1"
	top: "Mconv3_3_stage3_res/branchsml/weight"
}

layer{
	name: "Mconv3_3_stage3_res/split_weight"
	type: "Slice"
	bottom: "Mconv3_3_stage3_res/branchsml/weight"
	top: "Mconv3_3_stage3_res/weights"
	top: "Mconv3_3_stage3_res/weightm"
	top: "Mconv3_3_stage3_res/weightl"
	slice_param{
		slice_point: 64
		slice_point: 128
		axis: 1
	}
}

layer{
	name: "Mconv3_3_stage3_res/weighted_branchs"
	type: "Eltwise"
	bottom: "Mconv3_3_stage3_res/branchs/conv_1×1_reduce"
	bottom: "Mconv3_3_stage3_res/weights"
	top: "Mconv3_3_stage3_res/weighted_branchs"
	eltwise_param {
		operation: PROD
	}
}

layer{
	name: "Mconv3_3_stage3_res/weighted_branchm"
	type: "Eltwise"
	bottom: "Mconv3_3_stage3_res/branchm/conv_1×1_reduce"
	bottom: "Mconv3_3_stage3_res/weightm"
	top: "Mconv3_3_stage3_res/weighted_branchm"
	eltwise_param {
		operation: PROD
	}
}

layer{
	name: "Mconv3_3_stage3_res/weighted_branchl"
	type: "Eltwise"
	bottom: "Mconv3_3_stage3_res/branchl/conv_1×1_reduce"
	bottom: "Mconv3_3_stage3_res/weightl"
	top: "Mconv3_3_stage3_res/weighted_branchl"
	eltwise_param {
		operation: PROD
	}
}

layer{
	name: "Mconv3_3_stage3_res/weighted_all"
	type: "Eltwise"
	bottom: "Mconv3_3_stage3_res/weighted_branchs"
	bottom: "Mconv3_3_stage3_res/weighted_branchm"
	bottom: "Mconv3_3_stage3_res/weighted_branchl"
	top: "Mconv3_3_stage3_res/weighted_all"
	eltwise_param {
		operation: SUM
	}
}

layer{
	name: "Mconv3_3_stage3_res/weighted_all/bn"
	type: "BN"
	bottom: "Mconv3_3_stage3_res/weighted_all"
	top: "Mconv3_3_stage3_res/weighted_all/bn"
	bn_param {
		frozen:true
	}
}

layer{
	name: "Mconv3_3_stage3_res/weighted_all/relu"
	type: "ReLU"
	bottom: "Mconv3_3_stage3_res/weighted_all/bn"
	top: "Mconv3_3_stage3_res/weighted_all/bn"
}

layer{
	name: "Mconv3_3_stage3_res/branch5/conv_1×1_increase"
	type: "Convolution"
	bottom: "Mconv3_3_stage3_res/weighted_all/bn"
	top: "Mconv3_3_stage3_res/branch5/conv_1×1_increase"
	param{
		lr_mult: 1
		decay_mult: 1
	}
	param{
		lr_mult: 2
		decay_mult: 0
	}
	convolution_param {
		num_output: 128
		pad: 0
		kernel_size: 1
		stride: 1
		weight_filler {
			type: "gaussian"
			std: 0.01
		}
		bias_filler {
			type: "constant"
		}
	}
}

layer{
	name: "Mconv3_3_stage3_res/branch5/conv_1×1_increase/bn"
	type: "BN"
	bottom: "Mconv3_3_stage3_res/branch5/conv_1×1_increase"
	top: "Mconv3_3_stage3_res/branch5/conv_1×1_increase/bn"
	bn_param {
		frozen:true
	}
}

layer{
	name: "Mconv3_3_stage3_res"
	type: "Eltwise"
	bottom: "Mconv3_3_stage3_res/branch5/conv_1×1_increase/bn"
	bottom: "Mconv3_2_stage3_res"
	top: "Mconv3_3_stage3_res"
	eltwise_param {
		operation: SUM
	}
}

layer{
	name: "Mconv3_3_stage3_res/relu"
	type: "ReLU"
	bottom: "Mconv3_3_stage3_res"
	top: "Mconv3_3_stage3_res"
}

#ooooooooooooooooooooooooooooooooooooooooooooooooooooooooo
layer{
	name: "Mconv3_1_stage3"
	type: "Convolution"
	bottom: "Mconv3_3_stage3_res"
	top: "Mconv3_1_stage3"
	param{
		lr_mult: 1
		decay_mult: 1
	}
	param{
		lr_mult: 2
		decay_mult: 0
	}
	convolution_param {
		num_output: 128
		pad: 0
		kernel_size: 1
		stride: 1
		weight_filler {
			type: "gaussian"
			std: 0.01
		}
		bias_filler {
			type: "constant"
		}
	}
}

layer{
	name: "Mrelu3_1_stage3"
	type: "ReLU"
	bottom: "Mconv3_1_stage3"
	top: "Mconv3_1_stage3"
}

layer{
	name: "Mconv3_2_stage3"
	type: "Convolution"
	bottom: "Mconv3_1_stage3"
	top: "Mconv3_2_stage3"
	param{
		lr_mult: 1
		decay_mult: 1
	}
	param{
		lr_mult: 2
		decay_mult: 0
	}
	convolution_param {
		num_output: 9
		pad: 0
		kernel_size: 1
		stride: 1
		weight_filler {
			type: "gaussian"
			std: 0.01
		}
		bias_filler {
			type: "constant"
		}
	}
}

layer{
	name: "Mconv23_stage3"
	type: "Concat"
	bottom: "Mconv2_2_stage3_int4"
	bottom: "Mconv3_2_stage3"
	top: "Mconv23_stage3"
	concat_param{
		axis: 1
	}
}

layer{
	name: "Mconv23_stage3_slice"
	type: "Slice"
	bottom: "Mconv23_stage3"
	top: "Mconv23_stage3_1"
	top: "Mconv23_stage3_2"
	top: "Mconv23_stage3_3"
	top: "Mconv23_stage3_4"
	top: "Mconv23_stage3_5"
	top: "Mconv23_stage3_6"
	top: "Mconv23_stage3_7"
	top: "Mconv23_stage3_8"
	top: "Mconv23_stage3_9"
	top: "Mconv23_stage3_10"
	top: "Mconv23_stage3_11"
	top: "Mconv23_stage3_12"
	top: "Mconv23_stage3_13"
	slice_param{
		slice_point: 1
		slice_point: 2
		slice_point: 3
		slice_point: 4
		slice_point: 5
		slice_point: 6
		slice_point: 7
		slice_point: 8
		slice_point: 9
		slice_point: 10
		slice_point: 11
		slice_point: 12
		axis: 1
	}
}

layer{
	name: "Mconv23_stage3_concat"
	type: "Concat"
	bottom: "Mconv23_stage3_1"
	bottom: "Mconv23_stage3_5"
	bottom: "Mconv23_stage3_6"
	bottom: "Mconv23_stage3_2"
	bottom: "Mconv23_stage3_7"
	bottom: "Mconv23_stage3_8"
	bottom: "Mconv23_stage3_3"
	bottom: "Mconv23_stage3_9"
	bottom: "Mconv23_stage3_10"
	bottom: "Mconv23_stage3_4"
	bottom: "Mconv23_stage3_11"
	bottom: "Mconv23_stage3_12"
	bottom: "Mconv23_stage3_13"
	top: "Mconv23_stage3_concat"
	concat_param{
		axis: 1
	}
}

layer{
	name: "concat_predict_stage3"
	type: "Concat"
	bottom: "Mconv1_2_stage3_pre2"
	bottom: "Mconv23_stage3_concat"
	top: "concat_predict_stage3"
	concat_param{
		axis: 1
	}
}

